carla/self_explaining_model/catalog/vcnet/library/vcnet_tabular_data_v1/save_models/vcnet_model_immutable_adult_dataset.pt (torch, 832099 bytes, 19 tensors)

se1.weight f4 [304, 13]
0.2022914 0.2375389 -0.08128274 0.4212659 -0.07575093 0.04744024 -0.114905894 0.16312484
0.25116667 -0.20325376 0.24344753 0.048954077 0.20979914 0.0531121 0.12520577 -0.030120807
0.4401253 0.07537902 -0.11671549 0.06299216 -0.1308559 -0.030061563 -0.11201441 0.18364418
-0.2173232 -0.13294281 -0.094294354 -0.1704709 0.009288841 -0.5219242 0.21126942 -0.24741167
0.20435639 0.04076845 -0.092924885 0.16711062 0.034959935 0.22527277 0.023308603 -0.07378041
0.07759903 -0.059029616 0.35344803 0.28681287 0.16883516 -0.13223027 0.16329773 0.048568137
0.14160453 -0.16993935 -0.2751204 -0.10241559 -0.26169145 0.24365033 0.06392681 -0.11846758
0.035161056 -0.019922594 0.23059137 -0.19445443 0.02194118 -0.18905778 0.09637106 -0.09988086
0.09524623 -0.06336102 0.23861356 -0.1625098 -0.39544827 -0.17774588 0.25401193 0.09832732
0.27194452 -0.23632988 -0.2655173 -0.2174352 -0.1801753 0.11537963 0.08557022 0.2407047
-0.15678397 -0.44354388 0.10272787 -0.12335734 0.17112818 -0.06239641 0.16397004 -0.21232916
-0.12974794 0.08523966 0.064172335 -0.054962672 0.16784507 0.2003277 0.035203576 -0.12338507
0.2574799 -0.08351832 -0.093431756 -0.26913083 -0.1570754 0.08275154 -0.045637473 -0.1976979
-0.01402999 -0.17470539 -0.24632716 -0.4006846 -0.28773445 -0.18999784 0.30009323 0.06237352
0.08805661 -0.25028408 -0.16782473 -0.09247221 0.05405223 -0.243332 -0.124373585 -0.16578484
0.24612315 -0.08443287 -0.021197254 -0.18112494 -0.18789051 -0.17040622 -0.09713059 -0.23075819
0.21708365 -0.066512704 0.2600634 0.1045127 -0.22354609 0.22547537 -0.0846511 -0.08734333
-0.21168981 -0.2549844 0.101784475 -0.032892697 0.12814823 -0.21032143 0.22608279 -0.18838692
-0.03525852 0.077199586 0.38186473 0.25662318 0.26581433 -0.20228451 0.083325125 -0.11898856
-0.021035602 -0.20053764 0.25211698 -0.19278745 0.16490406 0.09895466 0.10743466 0.0967633
0.29140982 0.073489316 0.059711907 -0.2396087 0.11374713 -0.037527364 -0.12320462 0.23937732
0.06658289 -0.14765085 -0.15044816 -0.0009383052 -0.0261976 -0.06582451 -0.15441225 -0.124814376
-0.2106385 0.08314797 0.2113143 -0.271186 0.067062125 0.13179982 0.059557028 -0.096956894
0.1509989 0.37125948 0.12585072 -0.0416296 -0.055278327 0.031704113 -0.038378756 -0.08112958
0.18834676 0.23518765 -0.020900758 -0.04321985 -0.006594704 0.0041501895 -0.107478976 0.0987239
-0.24102502 -0.10926257 0.23544338 0.09622392 -0.009354987 -0.17048573 -0.16269784 -0.2550024
-0.07572787 0.10363799 0.18902387 0.35373646 -0.21825549 -0.15631685 -0.03812021 0.2714323
0.046446472 -0.0685726 0.12317783 -0.105946735 -0.1690828 0.1885639 -0.117563285 -0.06556885
-0.52725494 0.15110105 0.20249459 0.09181925 -0.19267188 -0.2745742 -0.22378135 0.20485066
0.13794136 0.23421583 0.029637108 0.09019138 -0.0437976 -0.08746116 -0.28322533 -0.32181233
0.19691229 -0.14366852 -0.09721409 -0.17668113 -0.029854864 -0.2394272 -0.17598882 0.1193511
-0.07959187 0.19305557 0.13901739 -0.16163784 -0.032863885 -0.13438751 -0.07914051 -0.26463038
00000000: 7a25 4f3e 663d 733e 9177 a6bd 2ab0 d73e
00000010: 4e23 9bbd b250 423d c853 ebbd 330a 273e
00000020: eb98 803e c121 50be 4f4a 793e 1284 483d
00000030: 96d5 563e 138c 593d f135 003e e9bf f6bc
00000040: 1a58 e13e 5160 9a3d 8808 efbd 0902 813d
00000050: 17ff 05be ab43 f6bc d067 e5bd 380d 3c3e
00000060: f989 5ebe 2922 08be 661d c1bd ec8f 2ebe
00000070: 3930 183c d39c 05bf 0357 583e 7c59 7dbe
00000080: cd42 513e d1fc 263d 674f bebd 0c1f 2b3e
00000090: 2632 0f3d e8ad 663e aff1 be3c 2f1a 97bd
000000a0: 3eec 9e3d 0ac9 71bd 24f7 b43e 23d9 923e
000000b0: 20e3 2c3e 5f67 07be 8537 273e 62ef 463d
000000c0: c700 113e 9504 2ebe 95dc 8cbe 44bf d1bd
000000d0: 6cfc 85be 797f 793e 0fec 823d 219f f2bd
000000e0: 0a05 103d b534 a3bc 2520 6c3e 101f 47be
000000f0: fdbd b33c 5d98 41be 315e c53d 568e ccbd
00000100: 7510 c33d 6cc3 81bd 1d57 743e f868 26be
00000110: 3278 cabe 0403 36be da0d 823e d55f c93d
00000120: 503c 8b3e 7600 72be e2f1 87be 55a7 5ebe
00000130: e07f 38be 284c ec3d 713f af3d 4b7b 763e
00000140: fa8b 20be 2f18 e3be fd62 d23d c6a2 fcbd
00000150: 3a3c 2f3e 6193 7fbd c3e7 273e d16c 59be
00000160: a5dc 04be 2292 ae3d c96c 833d 8a20 61bd
00000170: 94df 2b3e b422 4d3e a031 103d 50b1 fcbd
00000180: 68d4 833e a70b abbd 2659 bfbd 84cb 89be
00000190: 60d8 20be a479 a93d 5cee 3abd 5171 4abe
000001a0: 0bde 65bc f8e5 32be 303d 7cbe 8826 cdbe
000001b0: ee51 93be cb8e 42be d2a5 993e 607b 7f3d
000001c0: 0657 b43d 3c25 80be 3fda 2bbe 1262 bdbd
000001d0: df65 5d3d 062c 79be 94b7 febd 80c3 29be
000001e0: b507 7c3e 24eb acbd dda5 adbc d178 39be
000001f0: 5f66 40be f87e 2ebe 67ec c6bd e04b 6cbe
00000200: 2d4b 5e3e d037 88bd 0827 853e c10a d63d
00000210: 44e9 64be 04e3 663e 8e5d adbd 0fe1 b2bd
00000220: 37c5 58be 518d 82be 6174 d03d 7eba 06bd
00000230: 4a39 033e 805e 57be 3f82 673e 80e8 40be
00000240: 3d6b 10bd d11a 9e3d c683 c33e 1d64 833e
00000250: d118 883e ac23 4fbe 5da6 aa3d 46b0 f3bd
00000260: db52 acbc bd59 4dbe 7a15 813e 136a 45be
00000270: 9cdc 283e bea8 ca3d b406 dc3d d62b c63d
00000280: ab33 953e 9181 963d 7994 743d fc5b 75be
00000290: 41f4 e83d 4bb6 19bd b452 fcbd 541f 753e
000002a0: 9c5c 883d c931 17be 150f 1abe 99f8 75ba
000002b0: 599c d6bc 00cf 86bd 3f1e 1ebe ae9e ffbd
000002c0: 9eb1 57be 7c49 aa3d c762 583e e4d8 8abe
000002d0: de57 893d 88f6 063e 12f2 733d 5691 c6bd
000002e0: 759f 1a3e b915 be3e 03df 003e cd83 2abd
000002f0: 876b 62bd 2cdc 013d 0b33 1dbd 4427 a6bd
00000300: f9dd 403e 08d5 703e 1138 abbc 4c07 31bd
00000310: 6318 d8bb 50fe 873b f01d dcbd c22f ca3d
00000320: 43cf 76be 0ec5 dfbd 1218 713e 0c11 c53d
00000330: a945 19bc d093 2ebe 439a 26be ad8f 82be
00000340: 3717 9bbd 2840 d43d 798f 413e f21c b53e
00000350: 5e7e 5fbe 8611 20be f023 1cbd 2df9 8a3e
00000360: a83e 3e3d cb6f 8cbd a844 fc3d 9afa d8bd
00000370: 0b24 2dbe e516 413e 05c5 f0bd f648 86bd
00000380: 2efa 06bf 3cba 1a3e be5a 4f3e bb0b bc3d
00000390: c74b 45be fd94 8cbe f026 65be 5fc4 513e
000003a0: 8040 0d3e 46d6 6f3e 85c9 f23c 42b6 b83d
000003b0: 1d65 33bd d61e b3bd e902 91be 96c4 a4be
000003c0: 60a3 493e d71d 13be 2e18 c7bd e6eb 34be
000003d0: 3092 f4bc 672c 75be 6a36 34be 596e f43d
000003e0: 1001 a3bd 5cb0 453e 935a 0e3e 6484 25be
000003f0: 489c 06bd e19c 09be 6b14 a2bd a27d 87be

se1.bias f4 [304]
-0.06495771 -0.1239526 0.2799876 0.12509458 -0.029541526 0.008575468 0.037785787 -0.17216994
0.09967844 -0.23239979 0.027621314 -0.05197769 -0.12103862 0.2539377 0.070655525 0.1351615
-0.18738228 0.057658292 0.03907157 0.1392815 -0.08543062 -0.056934323 -0.23999359 0.18026352
0.17478721 0.14293718 0.15395416 0.1772835 0.27328706 0.10968668 0.096703894 0.10084436
-0.14113495 0.078051955 0.07583808 -0.22288474 -0.08545087 -0.16729261 -0.18443519 0.19607677
0.2257043 -0.023920793 0.0821572 -0.07959296 0.05624498 -0.029626874 -0.13580735 -0.12469024
0.28082058 0.045179274 -0.14455523 0.028304817 -0.2833433 0.006090164 0.20655185 0.04578271
0.0715194 -0.26223034 -0.04707098 0.15999694 -0.20253015 -0.10813928 0.19129282 0.0735907
0.14810623 -0.2573906 0.18826956 -0.068165965 0.04399259 0.23487413 -0.25855574 0.09750227
-0.26041105 0.19858013 0.0854239 0.024970492 -0.103202835 0.11060863 -0.15594508 0.06310574
0.24137717 -0.20863679 -0.08483141 0.077216506 0.04256291 -0.0040558046 0.25178087 -0.08458489
0.08167947 0.1473505 -0.035880517 0.19523008 0.19434328 0.13512865 -0.06284553 0.22752546
-0.14928271 0.090065174 0.049396176 0.18501277 -0.22794572 0.0632377 -0.14533907 0.16650589
0.090595275 -0.19925205 -0.00890465 0.06276698 0.12284295 0.2428008 0.13084406 0.053654637
0.16026258 -0.26738602 0.18800181 -0.040215082 0.16685793 0.07199828 -0.004620357 0.20814061
-0.1729086 0.089919984 0.10992054 -0.10223943 0.107696116 -0.2877202 -0.15013611 0.12653892
0.15329866 -0.24145679 0.0877931 0.032908954 0.2609834 -0.27055123 -0.077553004 -0.17293404
-0.16500397 -0.05554644 -0.2710169 0.22743915 -0.09146201 0.0891294 -0.15732026 0.009088698
-0.18491955 0.23171766 0.24250214 0.2360325 -0.09964112 0.1738025 -0.2423194 0.14066203
-0.026579838 -0.23473242 -0.23629864 -0.27451777 0.04457521 -0.09446347 -0.13147607 0.27608073
-0.09978551 0.08790031 -0.033471838 0.16154015 0.09040375 0.18988147 0.08276268 -0.022265457
0.26651636 -0.026796034 -0.17290269 0.085564025 -0.026976228 -0.21609248 0.0469318 -0.04448747
-0.12245039 -0.11907481 -0.10169154 -0.1031462 0.025656171 0.25725752 -0.17088209 -0.12391661
-0.20233697 0.0013059372 0.019351333 -0.20015207 0.13319513 -0.2537409 0.26058385 0.06732389
-0.034046195 -0.10454177 0.13787422 0.21312574 -0.18525356 -0.078780234 0.21834184 -0.047456093
-0.19981691 -0.09307947 0.019016534 -0.05798276 -0.1611665 -0.18986154 0.06470737 0.18419197
0.2572172 -0.027415514 0.10622244 -0.20969817 0.1525691 0.2720067 0.14112885 -0.11603687
0.221648 -0.27280256 -0.026886264 -0.075922266 -0.28191692 -0.1685584 -0.19301623 0.08793687
-0.0114422 0.11908065 -0.056899164 0.23171271 0.059332687 0.240785 0.23500495 -0.24625458
-0.19170272 0.15766653 0.27342656 -0.23443285 -0.004822632 -0.097107954 0.27294964 0.24285679
0.21027309 0.15671198 -0.032091647 0.26913327 -0.117079794 0.029933004 -0.083396055 -0.21133497
-0.12538478 0.08137326 -0.017663913 -0.18783732 -0.07140207 0.03963266 -0.17866033 0.16879587
00000000: 8c08 85bd dcda fdbd 895a 8f3e cb18 003e
00000010: 1201 f2bc 1f80 0c3c 45c5 1a3d 514d 30be
00000020: 3624 cc3d 36fa 6dbe 1846 e23c 8fe6 54bd
00000030: 19e3 f7bd 1f04 823e d8b3 903d c767 0a3e
00000040: 24e1 3fbe 1a2b 6c3d 8309 203d cf9f 0e3e
00000050: 40f6 aebd f733 69bd e1c0 75be 0097 383e
00000060: 6bfb 323e 205e 123e 29a6 1d3e ce89 353e
00000070: 48ec 8b3e 69a3 e03d b10c c63d 7d87 ce3d
00000080: ae85 10be b4d9 9f3d ff50 9b3d e63b 64be
00000090: de00 afbd c14e 2bbe 94dc 3cbe 59c8 483e
000000a0: 071f 673e 8af5 c3bc 0942 a83d a201 a3bd
000000b0: 2361 663d 0fb4 f2bc 1511 0bbe 995d ffbd
000000c0: b7c7 8f3e e70d 393d 4906 14be 81df e73c
000000d0: 5f12 91be 0090 c73b 5482 533e a786 3b3d
000000e0: c378 923d 0e43 86be 80cd 40bd 3dd6 233e
000000f0: 1064 4fbe 2078 ddbd 44e2 433e b9b6 963d
00000100: 29a9 173e b3c8 83be bcc9 403e 999a 8bbd
00000110: 9331 343d d882 703e 6b61 84be 45af c73d
00000120: 9954 85be 9758 4b3e baf2 ae3d eb8e cc3c
00000130: 025c d3bd c786 e23d 11b0 1fbe 953d 813d
00000140: 942b 773e e2a4 55be 17bc adbd b023 9e3d
00000150: 7256 2e3d 8ee6 84bb 6ce9 803e d83a adbd
00000160: 9147 a73d 0de3 163e 73f7 12bd 65ea 473e
00000170: ed01 473e 2a5f 0a3e 28b5 80bd 6ffc 683e
00000180: 91dd 18be 1774 b83d a553 4a3d fd73 3d3e
00000190: 9a6a 69be c482 813d c4d3 14be 8580 2a3e
000001a0: 048a b93d bb08 4cbe cfe4 11bc f98b 803d
000001b0: 1695 fb3d c6a0 783e fcfb 053e f7c4 5b3d
000001c0: e01b 243e d2e6 88be 8c83 403e 92b8 24bd
000001d0: cedc 2a3e d673 933d 5d66 97bb d022 553e
000001e0: f40e 31be f827 b83d 051e e13d e862 d1bd
000001f0: c88f dc3d 1050 93be 48bd 19be 6b93 013e
00000200: 53fa 1c3e 7340 77be decc b33d 8acb 063d
00000210: 9e9f 853e b185 8abe 1cd4 9ebd 9f15 31be
00000220: cdf6 28be aa84 63bd bac2 8abe cfe5 683e
00000230: 6f50 bbbd 7a89 b63d 9018 21be c3e8 143c
00000240: 8d5b 3dbe 6547 6d3e 7b52 783e 81b2 713e
00000250: a510 ccbd 48f9 313e 9422 78be b509 103e
00000260: f6bd d9bc b25d 70be 45f8 71be 988d 8cbe
00000270: 7f94 363d 1076 c1bd aaa1 06be 745a 8d3e
00000280: 585c ccbd 1405 b43d c419 09bd c86a 253e
00000290: 9a25 b93d 4a70 423e 7b7f a93d 0c66 b6bc
000002a0: d574 883e 5b83 dbbc 670d 31be 313c af3d
000002b0: 40fd dcbc 5947 5dbe 8f3b 403d 7e38 36bd
000002c0: 45c7 fabd 7edd f3bd a743 d0bd 513e d3bd
000002d0: e42c d23c 42b7 833e b7fb 2ebe fec7 fdbd
000002e0: 6c31 4fbe fb2b ab3a b086 9e3c aaf4 4cbe
000002f0: 4e64 083e 54ea 81be 3f6b 853e 1ce1 893d
00000300: 0674 0bbd ff19 d6bd e62e 0d3e a23d 5a3e
00000310: 1cb3 3dbe 8857 a1bd 0195 5f3e 5261 42bd
00000320: ce9c 4cbe 73a0 bebd 90c8 9b3c 557f 6dbd
00000330: d508 25be 106b 42be 4c85 843d d29c 3c3e
00000340: f9b1 833e 8096 e0bc 278b d93d 1ebb 56be
00000350: 133b 1c3e 7644 8b3e 1584 103e bda4 edbd
00000360: b1f7 623e c7ac 8bbe 9540 dcbc 227d 9bbd
00000370: 6a57 90be 939a 2cbe 0ca6 45be 3f18 b43d
00000380: 1178 3bbc 8ee0 f33d 190f 69bd 1946 6d3e
00000390: d506 733d 5890 763e 23a5 703e 292a 7cbe
000003a0: b84d 44be 5673 213e 91fe 8b3e 2a0f 70be
000003b0: 2b07 9ebb 89e0 c6bd 0ec0 8b3e 73af 783e
000003c0: d451 573e 1b79 203e 8872 03bd d6cb 893e
000003d0: 88c7 efbd 0f36 f53c 8dcb aabd 3268 58be
000003e0: de64 00be 06a7 a63d e9b3 90bc 6d58 40be
000003f0: 403b 92bd db55 223d bcf2 36be d3d8 2c3e

se2.weight f4 [304, 11]
0.20087898 0.20169571 -0.02353395 0.35921523 0.02427967 -0.15152259 -0.15573804 0.21266119
-0.11538792 0.2040311 -0.3081427 0.03783452 -0.19459793 0.117017806 0.3164243 0.13568242
-0.07616204 -0.2801544 -0.12315228 -0.15502274 0.30685803 -0.13831791 0.108162284 0.25258374
0.14406218 -0.29789853 -0.01942815 -0.09434523 0.21129306 -0.037170704 -0.011138271 0.27805558
0.076988675 0.12790518 -0.1004025 0.15249836 0.09890931 -0.06921393 0.0507591 -0.24151695
0.001106468 0.12072105 -0.31036916 -0.16758066 0.18529084 0.014578302 -0.040282905 -0.007952107
-0.1363651 0.23741463 -0.015939279 -0.121755555 0.17973071 -0.26650208 -0.06272162 0.039096884
-0.0778081 0.17678888 -0.35946885 -0.06488479 -0.117458016 0.29913238 0.11476306 -0.22905779
0.13138315 0.0026950901 0.2756672 0.16084222 -0.25277552 0.29649752 -0.0731872 -0.06586898
0.10577417 0.29922888 0.104121126 -0.28243053 -0.09621778 0.26343447 -0.0958168 -0.18148088
-0.31758898 -0.16326821 -0.17569971 0.101253435 0.11056919 0.3013402 0.2109873 0.013630908
0.15935373 0.18428078 -0.24754547 0.24695352 -0.1951187 0.24725395 -0.1266539 0.058031812
-0.0025414207 0.15368617 0.040571835 -0.2224168 0.122528285 0.1450724 -0.16382964 -0.19441617
-0.22326057 -0.12752919 -0.0368045 0.025804799 -0.013282422 -0.0766088 0.20927727 0.026086902
-0.12900545 -0.010458257 -0.16048199 -0.10316939 -0.28266993 0.070761584 -0.22470911 0.12099278
0.20856722 -0.23401482 -0.15899825 -0.23385246 0.13284211 0.061389253 -0.14834715 0.169675
0.112668 -0.28054807 -0.011657418 -0.12997703 -0.05166767 0.17990449 0.035927936 -0.20673071
0.2219437 -0.2840194 -0.09710755 0.11385183 0.2707815 0.3100823 -0.07216175 0.08058918
-0.2735141 -0.08299832 -0.08177336 0.07002276 -0.21724212 0.049037762 0.14731432 0.25154176
-0.06424887 0.2819325 -0.25546724 -0.07380314 0.12352532 0.057850145 0.15346463 -0.18827236
0.22124799 -0.2748759 -0.18302597 -0.004886887 -0.2865807 -0.26011583 -0.254035 0.2626177
0.10203237 -0.08002715 0.016987825 -0.26057547 -0.28865218 -0.19680677 -0.2810868 0.22929166
-0.09786012 -0.077683754 -0.33793852 -0.09136209 -0.047095917 -0.21462339 0.21310364 0.25984955
-0.2213413 0.18806179 -0.0388688 0.011847898 0.12669261 -0.03960275 0.26100883 0.18161643
-0.17464672 -0.18825382 -0.28608418 0.12121858 -0.21721478 -0.24407591 -0.169851 -0.2862342
-0.26626956 0.31357065 0.1812746 0.28234056 -0.14452577 -0.10112152 -0.09625009 0.018089712
-0.21695098 0.079880655 -0.18173462 0.049339868 0.3208579 0.06778361 0.25054386 -0.19930677
-0.016620837 -0.1775489 -0.019029908 -0.109744206 -0.17532511 -0.27761033 -0.17461936 0.040259812
-0.04941583 -0.27950183 0.24127464 0.24742815 -0.1562013 0.03801345 0.23523666 -0.2875702
-0.25644422 0.17798595 0.010237203 0.10903303 -0.1204088 0.052023172 0.1896586 -0.085402906
-0.09896669 -0.27746734 -0.045075215 0.20772886 -0.22512804 0.1414669 0.23429784 -0.07945299
-0.113423355 -0.10230998 -0.12728001 0.03364539 -0.2999115 0.14238097 -0.07177096 -0.013916731
00000000: 38b3 4d3e 5289 4e3e 45ca c0bc 0feb b73e
00000010: 29e6 c63c bd28 1bbe cb79 1fbe dbc3 593e
00000020: 8050 ecbd 87ed 503e e1c4 9dbe 5ff8 1a3d
00000030: ae44 47be 08a7 ef3d 5e02 a23e 55f0 0a3e
00000040: d8fa 9bbd 6670 8fbe 4337 fcbd 48be 1ebe
00000050: 7f1c 9d3e 36a3 0dbe 3084 dd3d a852 813e
00000060: 0985 133e 2886 98be c927 9fbc 1238 c1bd
00000070: 355d 583e 4f40 18bd 4b7d 36bc 4d5d 8e3e
00000080: 3dac 9d3d 93f9 023e d39f cdbd 8828 1c3e
00000090: f790 ca3d 08c0 8dbd c6e8 4f3d 3850 77be
000000a0: e806 913a 993c f73d b5e8 9ebe 449a 2bbe
000000b0: e2bc 3d3e d5d9 6e3c b0ff 24bd 8e49 02bc
000000c0: 4ba3 0bbe d21c 733e 1793 82bc fa5a f9bd
000000d0: 540b 383e f672 88be 3174 80bd 0e24 203d
000000e0: da59 9fbd 2508 353e 4d0c b8be 51e2 84bd
000000f0: d48d f0bd e127 993e e508 eb3d 208e 6abe
00000100: 4e89 063e 1ca0 303b 4024 8d3e d3b3 243e
00000110: cb6b 81be 86ce 973e 2ce3 95bd 51e6 86bd
00000120: 21a0 d83d 8734 993e 753d d53d bc9a 90be
00000130: d40d c5bd e2e0 863e 993b c4bd 20d6 39be
00000140: 069b a2be c82f 27be a0ea 33be f65d cf3d
00000150: 1972 e23d 4349 9a3e 0e0d 583e 2c54 5f3c
00000160: a02d 233e 1ab4 3c3e 8f7c 7dbe 62e1 7c3e
00000170: 32cd 47be 2430 7d3e 8fb1 01be c4b2 6d3d
00000180: f78d 26bb e85f 1d3e a72e 263d 3bc1 63be
00000190: 1cf0 fa3d dc8d 143e f5c2 27be 0815 47be
000001a0: 6b9e 64be 0397 02be 51c0 16bd 9664 d33c
000001b0: 849e 59bc 13e5 9cbd c84c 563e 33b4 d53c
000001c0: 011a 04be 1c59 2bbc 6455 24be 794a d3bd
000001d0: 1dba 90be 73eb 903d 251a 66be 10cb f73d
000001e0: a592 553e 95a1 6fbe 70d0 22be 0577 6fbe
000001f0: c307 083e 4c73 7b3d 51e8 17be 48bf 2d3e
00000200: 7bbe e63d ffa3 8fbe c1fe 3ebc b318 05be
00000210: 7ba1 53bd e238 383e 2c29 133d 37b1 53be
00000220: 3645 633e fe6a 91be 53e0 c6bd 262b e93d
00000230: dfa3 8a3e 1bc3 9e3e 8ac9 93bd f10b a53d
00000240: 0a0a 8cbe 06fb a9bd cb78 a7bd 1868 8f3d
00000250: b874 5ebe d2db 483d 91d9 163e 15ca 803e
00000260: e994 83bd 7559 903e 9acc 82be 1a26 97bd
00000270: d8fa fc3d 46f4 6c3d d525 1d3e 78ca 40be
00000280: d58e 623e 89bc 8cbe 296b 3bbe 2e22 a0bb
00000290: b5ba 92be e72d 85be e010 82be d475 863e
000002a0: 59f6 d03d 46e5 a3bd 0d2a 8b3c 266a 85be
000002b0: 38ca 93be b787 49be 9cea 8fbe 6fcb 6a3e
000002c0: e36a c8bd a918 9fbd 4706 adbe 0c1c bbbd
000002d0: a6e7 40bd 3cc6 5bbe d737 5a3e 000b 853e
000002e0: 4ba7 62be 4593 403e e434 1fbd b01d 423c
000002f0: b5bb 013e 7e36 22bd f3a2 853e a8f9 393e
00000300: 97d6 32be 9cc5 40be a079 92be 7241 f83d
00000310: 8d6d 5ebe 09ef 79be 6ced 2dbe 4a8d 92be
00000320: 7c54 88be 558c a03e 0ca0 393e f18e 903e
00000330: 90fe 13be cd18 cfbd c41e c5bd e030 943c
00000340: 6628 5ebe 7898 a33d a418 3abe 9a18 4a3d
00000350: 7d47 a43e 22d2 8a3d 4947 803e 1317 4cbe
00000360: 6c28 88bc 61cf 35be 9ce4 9bbc 92c1 e0bd
00000370: 6d88 33be f122 8ebe 6bcf 32be 79e7 243d
00000380: 4168 4abd dd1a 8fbe b310 773e ce5d 7d3e
00000390: 3cf3 1fbe feb3 1b3d e1e1 703e 673c 93be
000003a0: a84c 83be f341 363e f1b9 273c b64c df3d
000003b0: e498 f6bd 4016 553d dd35 423e b8e7 aebd
000003c0: 0caf cabd 3310 8ebe caa0 38bd e0b6 543e
000003d0: f787 66be b3dc 103e c6eb 6f3e 40b8 a2bd
000003e0: 814a e8bd e587 d1bd b155 02be c0cf 093d
000003f0: 008e 99be 51cc 113e a7fc 92bd 0003 64bc

se2.bias f4 [304]
0.26299948 0.15226476 -0.19353117 -0.3129312 0.08919621 -0.05740572 0.1825155 -0.23194784
-0.02171766 -0.22339597 -0.14177565 -0.20984378 -0.072272986 -0.03833498 0.331603 0.31214383
0.23198314 0.10974302 0.024912639 0.33518684 -0.21892153 -0.30067107 -0.16702202 0.26670918
0.2957915 -0.12832467 -0.201546 -0.2836534 0.16135149 -0.152416 0.25871876 -0.103456736
0.30265078 0.1934469 0.21180084 0.15960506 -0.22692108 0.055709507 -0.21497604 -0.08014792
0.2032629 -0.12745234 0.21111073 0.04575344 -0.16650033 -0.11661758 -0.34447086 0.10788284
0.012251093 0.28433982 0.101225145 0.107393175 -0.03134241 0.14545554 -0.023545632 0.14530368
-0.16581976 0.20587784 0.11879859 0.17382784 0.023716206 0.15519594 0.27829605 0.046395987
0.24648854 -0.28949356 -0.011200725 -0.26528922 0.04049995 0.07228871 0.09218165 -0.14661552
0.18605998 -0.15938124 -0.095204175 0.23245908 -0.27452826 0.06610132 -0.2961184 0.15369575
-0.24720185 -0.30580348 -0.08601114 0.24393798 0.1777948 0.2140089 -0.07138611 0.29893103
-0.14868316 -0.008567013 -0.304989 0.008497085 0.07529948 -0.28770402 0.26975095 0.053475335
0.31191352 -0.14460267 0.054213975 -0.088448524 0.27056772 -0.16702285 0.1824186 -0.22844012
0.25571993 -0.30363038 -0.16606484 -0.12570244 -0.06144558 0.0042461883 0.074433364 0.28843743
0.18604177 -0.1678382 0.2963785 -0.04187679 -0.184894 0.1360794 -0.07293163 0.28333032
0.022363428 0.22517556 0.06575821 -0.22216544 0.08545184 -0.1647375 -0.07505538 -0.09314389
-0.25338203 0.15410951 0.24647494 -0.2879445 0.16502516 -0.20405626 -0.30994135 0.09399033
-0.020659192 -0.20576905 0.31036678 0.052553665 -0.19516754 0.17654748 0.04426038 -0.02041751
-0.22498348 -0.0036807864 0.16198404 -0.16041775 0.17189136 -0.28613478 -0.09244407 -0.07414021
-0.27667907 0.11341747 -0.267249 0.15626265 0.05957113 0.013652742 -0.20034899 -0.10772974
0.09931526 0.31553006 -0.1362199 -0.22539525 -0.150987 -0.18908598 -0.037713632 -0.21896827
0.25748494 0.210671 -0.17268665 0.29489017 0.045077857 -0.20141646 0.09275891 -0.296276
-0.18842147 -0.2655541 -0.17546484 -0.08736759 0.06022421 0.08545861 -0.31951654 -0.3046728
-0.04166433 0.28503805 0.09023522 0.2573201 -0.15304235 0.07319863 -0.28350106 0.18138233
0.00165739 -0.020878812 -0.1864479 -0.29081532 -0.13546374 -0.021908337 -0.17059857 0.15105243
-0.055512566 0.01998611 -0.29470214 0.092051186 -0.13857256 -0.24397448 -0.12960657 -0.28287548
-0.24027964 0.21649688 0.2627567 -0.22761235 0.070896976 -0.161427 0.3065463 0.20332336
0.14573199 -0.2938353 -0.13171513 -0.07805271 -0.2783566 -0.19135168 0.087069996 -0.2735446
0.101584144 -0.02668545 -0.020858465 -0.11240284 -0.1552291 -0.30407962 -0.24479501 0.23455808
-0.009856108 0.29782823 0.009577488 -0.049034595 0.15890743 -0.31304732 -0.19847439 0.19783665
-0.07245889 0.24355055 -0.029756187 0.22466272 0.031549435 0.044204824 -0.2433817 -0.13307633
-0.006277422 0.17797711 0.08831847 -0.035363454 0.016944965 0.26592115 0.22640043 0.12620002
00000000: dea7 863e 4beb 1b3e 092d 46be 8538 a0be
00000010: 81ac b63d 4322 6bbd 58e5 3a3e bc83 6dbe
00000020: 3ce9 b1bc eac1 64be a32d 11be 4ae1 56be
00000030: dc03 94bd 2405 1dbd dec7 a93e 51d1 9f3e
00000040: fd8c 6d3e f3c0 e03d 9715 cc3c 9c9d ab3e
00000050: f72c 60be 8ff1 99be d207 2bbe 1b8e 883e
00000060: fc71 973e 8b67 03be 1362 4ebe 053b 91be
00000070: 5339 253e f112 1cbe c976 843e 20e1 d3bd
00000080: 0bf5 9a3e f216 463e 52e2 583e 826f 233e
00000090: 005e 68be a72f 643d ae22 5cbe 9824 a4bd
000000a0: 2624 503e de82 02be 692d 583e f667 3b3d
000000b0: 107f 2abe 33d5 eebd 7c5e b0be aef1 dc3d
000000c0: cfb8 483c fd94 913e 214f cf3d f4f0 db3d
000000d0: e660 00bd 4cf2 143e c5e2 c0bc 7dca 143e
000000e0: a8cc 29be a4d1 523e ad4c f33d edff 313e
000000f0: 7d48 c23c afeb 1e3e d27c 8e3e b809 3e3d
00000100: 7e67 7c3e 8038 94be 3f83 37bc fdd3 87be
00000110: 47e3 253d 1a0c 943d bcc9 bc3d 6122 16be
00000120: 8286 3e3e d634 23be 68fa c2bd c109 6e3e
00000130: f88e 8cbe 2160 873d d59c 97be 6b62 1d3e
00000140: 7b22 7dbe 4692 9cbe 9c26 b0bd e1ca 793e
00000150: d70f 363e 2625 5b3e e132 92bd 7d0d 993e
00000160: 6640 18be a85c 0cbc 8527 9cbe 5c37 0b3c
00000170: 9d36 9a3d f14d 93be cc1c 8a3e f408 5b3d
00000180: 21b3 9f3e b912 14be 790f 5e3d 8024 b5bd
00000190: da87 8a3e 0a08 2bbe f1cb 3a3e 35ec 69be
000001a0: b9ed 823e 7175 9bbe e70c 2abe 24b8 00be
000001b0: 5cae 7bbd 9c23 8b3b 8570 983d 12ae 933e
000001c0: bc81 3e3e c7dd 2bbe ecbe 973e ff86 2bbd
000001d0: da54 3dbe 6658 0b3e 2e5d 95bd ac10 913e
000001e0: 8233 b73c 6c94 663e 3eac 863d 567f 63be
000001f0: 6001 af3d f2b0 28be a3b6 99bd 39c2 bebd
00000200: 4abb 81be e2ce 1d3e ed63 7c3e 766d 93be
00000210: 5bfc 283e 20f4 50be a2b0 9ebe 017e c03d
00000220: 773d a9bc 1fb5 52be 65e8 9e3e 8342 573d
00000230: 00da 47be ddc8 343e 5f4a 353d 9f42 a7bc
00000240: 1262 66be 5939 71bb 25df 253e 8d44 24be
00000250: 4a04 303e 4280 92be 5153 bdbd d3d6 97bd
00000260: e1a8 8dbe 6b47 e83d dcd4 88be 5103 203e
00000270: db00 743d c0af 5f3c 4928 4dbe 69a1 dcbd
00000280: cd65 cb3d 288d a13e 3b7d 0bbe 03ce 66be
00000290: 569c 1abe c19f 41be 9c79 1abd 3839 60be
000002a0: 11d5 833e 23ba 573e c5d4 30be d8fb 963e
000002b0: 8fa3 383d 1e40 4ebe 62f8 bd3d 7db1 97be
000002c0: 8ff1 40be b5f6 87be 0ead 33be c7ed b2bd
000002d0: a9ad 763d ec04 af3d ac97 a3be 13fe 9bbe
000002e0: 37a8 2abd 82f0 913e 3ecd b83d 76bf 833e
000002f0: 22b7 1cbe 2ae9 953d 0d27 91be 4abc 393e
00000300: c83c d93a 0b0a abbc 33ec 3ebe bfe5 94be
00000310: 02b7 0abe 1d79 b3bc 64b1 2ebe 7dad 1a3e
00000320: 2561 63bd e9b9 a33c 33e3 96be 5585 bc3d
00000330: f7e5 0dbe 72d4 79be 96b7 04be 0ed5 90be
00000340: de0b 76be 5cb1 5d3e 0c88 863e 3613 69be
00000350: 6f32 913d 1f4d 25be a3f3 9c3e 0034 503e
00000360: c43a 153e 9571 96be 55e0 06be 19da 9fbd
00000370: c284 8ebe b2f1 43be c151 b23d 0a0e 8cbe
00000380: 590b d03d 729b dabc 5fdf aabc 7633 e6bd
00000390: 61f4 1ebe 53b0 9bbe 8bab 7abe fe2f 703e
000003a0: 837b 21bc f17c 983e e5ea 1c3c 80d8 48bd
000003b0: a1b8 223e bd47 a0be df3c 4bbe b195 4a3e
000003c0: 5465 94bd 5165 793e 3fc3 f3bc fc0d 663e
000003d0: fb39 013d 1e10 353d 0d39 79be 2945 08be
000003e0: d5b2 cdbb a23f 363e 50e0 b43d 45d9 10bd
000003f0: 2bd0 8a3c d126 883e 84d5 673e 943a 013e

e1.weight f4 [152, 304]
-0.055315357 0.025787136 0.05141536 0.034363013 -0.06616498 0.06807721 -0.036607664 -0.024082903
-0.041336384 -0.023279345 0.0006358063 -0.014400209 0.05540192 0.027900927 -0.093736075 -0.012606618
0.033855364 -0.0145959 -0.0046953275 -0.050836172 -0.004926086 -0.026192836 -0.014822354 -0.039759386
0.018853681 -0.036083303 0.015688295 -0.016191255 -0.008996638 0.008142252 -0.057806745 0.027252216
-0.0015965764 -0.042844914 0.03762811 0.042916786 -0.024756016 -0.017146057 -0.0045958036 0.07398582
-0.01069341 -0.061345585 0.008190151 0.029227939 0.006805327 -0.033539265 0.012674666 0.02464509
0.021757586 -0.026969485 0.030280432 0.02890184 0.039105102 0.012667543 -0.04474792 -0.05555797
0.018488133 -0.0114322 -0.07632621 0.019698197 -0.013360086 -0.034181178 0.02789966 -0.008362447
-0.07374405 0.03883927 -0.06362819 -0.0068627405 -0.05685412 0.000867162 -0.043953042 0.06044227
-0.04710169 0.04175968 0.049867272 -0.05118625 -0.008230385 0.00900366 -0.041684657 0.06635512
0.04060512 0.038772374 -0.013566793 0.040018577 -0.07173655 -0.021386936 -0.02609422 -0.077751845
0.028343474 -0.050153613 -0.039961763 0.0018186021 -0.0043519484 0.012956708 -0.025364941 -0.03113607
-0.040040884 -0.004653838 -0.046566475 0.043598052 -0.017843693 -0.008437354 -0.031512864 -0.029989243
-0.05047136 0.04623261 0.014597734 0.028682385 0.0039821877 -0.065982305 0.0397953 -0.07731978
-0.063681416 0.0461617 -0.014078948 0.035794158 0.05288556 0.03682279 -0.02132277 -0.010685302
0.036661796 -0.01957755 0.009444403 -0.0650289 -0.03850609 0.07762181 0.0037861096 -0.020002596
0.075054035 -0.01728 -0.06663307 0.086129524 -0.05400089 0.003111381 0.087974936 -0.01139558
-0.014483535 0.08801109 -0.021800848 -0.07671006 -0.005193333 -0.035662055 -0.0071204263 -0.045655183
-0.026107142 0.01496019 -0.053147797 -0.035717748 0.0010935813 0.026417797 -0.04092063 -0.069591716
0.049303472 0.055593193 -0.01956187 0.037809562 0.047480207 0.05741237 -0.020805163 0.0036538793
0.024053875 -0.032451317 -0.036748447 0.046172652 0.11610595 -0.037330188 -0.063523896 -0.04342267
-0.040859472 -0.03354127 -0.02914076 -0.12639031 0.047353435 0.1238931 0.044688094 0.05704554
0.03545027 -0.0097222375 -0.052554805 -0.0064586005 0.029647399 -0.003315358 0.03102364 0.009136413
-0.03455717 -0.053248584 -0.0012927131 -0.011752739 0.020573135 -0.018744836 0.0008953645 -0.098829135
0.027440602 -0.047891963 0.034882676 -0.038301267 -0.017545786 0.050409015 0.02459322 -0.018478507
0.038460992 -0.06440343 -0.0019695584 0.009521734 0.040884 -0.011735908 -0.03796055 -0.04509539
-9.684883e-05 0.041452933 -0.023676433 0.043967936 0.021485502 -0.027116347 0.037927918 0.017689036
-0.05752869 0.057202227 0.043748796 0.08455089 0.060130164 0.03376468 -0.0051555345 0.0027441827
-0.0064766407 0.046324145 0.05212031 0.016935516 -0.017503968 0.07254029 0.030236432 0.05265941
-0.019249503 0.010927617 0.031084197 0.015957203 -0.049466647 0.06277697 -0.023692645 0.030904125
-0.05594977 -0.0031760167 0.006670162 -0.057680268 0.015749749 -0.011172544 0.0036542176 -0.003736658
0.028795015 0.0072542815 -0.0061637852 0.037866965 0.024395382 0.0144709125 0.01864454 0.02604995
00000000: 5b92 62bd 8b3f d33c ea98 523d 3bc0 0c3d
00000010: 8181 87bd 106c 8b3d ebf1 15bd 8249 c5bc
00000020: 5750 29bd 53b4 bebc 3dac 263a dbee 6bbc
00000030: 20ed 623d 7c90 e43c b3f8 bfbd fd8b 4ebc
00000040: ecab 0a3d a423 6fbc 43db 99bb 9739 50bd
00000050: 016b a1bb 5c92 d6bc 75d9 72bc bdda 22bd
00000060: 0973 9a3c 16cc 13bd bd84 803c 86a3 84bc
00000070: a266 13bc 1567 053c c4c6 6cbd 0a40 df3c
00000080: 3744 d1ba 267e 2fbd ef1f 1a3d 83c9 2f3d
00000090: 21cd cabc e375 8cbc 6598 96bb e185 973d
000000a0: 6a33 2fbc 8245 7bbd fc2f 063c 6e6f ef3c
000000b0: 38ff de3b 7860 09bd 67a9 4f3c 80e4 c93c
000000c0: f73c b23c 1cef dcbc ab0e f83c 8dc3 ec3c
000000d0: ac2c 203d 878b 4f3c 9849 37bd c190 63bd
000000e0: 6d74 973c 1f4e 3bbc ea50 9cbd 1d5e a13c
000000f0: 43e4 5abc 9001 0cbd d48d e43c a502 09bc
00000100: 1f07 97bd ed15 1f3d 7f4f 82bd d7e0 e0bb
00000110: dedf 68bd 4252 633a 1b08 34bd 5092 773d
00000120: b4ed 40bd 330c 2b3d a041 4c3d aca8 51bd
00000130: bdd8 06bc 1684 133c 88bd 2abd 31e5 873d
00000140: 8e51 263d c8cf 1e3d 4147 5ebc 85ea 233d
00000150: 9dea 92bd a833 afbc 8cc3 d5bc 5c3c 9fbd
00000160: 9330 e83c e06d 4dbd f2ae 23bd 295e ee3a
00000170: ca9a 8ebb 5f48 543c 23ca cfbc 1211 ffbc
00000180: e901 24bd 397f 98bb 7dbc 3ebd df93 323d
00000190: f02c 92bc d43c 0abc a213 01bd 00ac f5bc
000001a0: 0fbb 4ebd 685e 3d3d 562b 6f3c 52f7 ea3c
000001b0: 037d 823b bb21 87bd 6600 233d d559 9ebd
000001c0: 676b 82bd 0d14 3d3d 63ab 66bc e59c 123d
000001d0: 879e 583d 7ed3 163d 17ad aebc 6811 2fbc
000001e0: ae2a 163d 1961 a0bc b3bc 1a3c df2d 85bd
000001f0: 90b8 1dbd 2ff8 9e3d 6120 783b 7cdc a3bc
00000200: eeb5 993d c98e 8dbc eb76 88bd ad64 b03d
00000210: 0a30 5dbd 50e8 4b3b 342c b43d 87b4 3abc
00000220: 594c 6dbc 293f b43d b197 b2bc 2a1a 9dbd
00000230: d62c aabb 6012 12bd 7752 e9bb ee00 3bbd
00000240: a5de d5bc 961b 753c 81b1 59bd c64c 12bd
00000250: 8056 8f3a 236a d83c 649c 27bd 1a86 8ebd
00000260: 70f2 493d b0b5 633d 3740 a0bc 33de 1a3d
00000270: 9b7a 423d 3c29 6b3d 976f aabc ec75 6f3b
00000280: a20c c53c aceb 04bd 8a85 16bd 891f 3d3d
00000290: f5c8 ed3d 8ae7 18bd d118 82bd f8db 31bd
000002a0: 435c 27bd 9262 09bd 9ab8 eebc 766c 01be
000002b0: adf5 413d aabb fd3d dd0a 373d 96a8 693d
000002c0: 4d34 113d 054a 1fbc b543 57bd aba2 d3bb
000002d0: 1adf f23c 7a46 59bb 4a25 fe3c e5b0 153c
000002e0: d28b 0dbd 301b 5abd 4170 a9ba 8f8e 40bc
000002f0: fe88 a83c c58e 99bc e5b6 6a3a ee66 cabd
00000300: 1dcb e03c 5d2a 44bd 23e1 0e3d cae1 1cbd
00000310: 2ebc 8fbc af79 4e3d b877 c93c 3d60 97bc
00000320: 4689 1d3d f2e5 83bd b513 01bb 0c01 1c3c
00000330: fb75 273d f747 40bc 867c 1bbd f2b5 38bd
00000340: 521b cbb8 8dca 293d 14f5 c1bc b917 343d
00000350: 5d02 b03c 1a23 debc 4e5a 1b3d 99e8 903c
00000360: 34a3 6bbd e24c 6a3d f031 333d 0429 ad3d
00000370: 0c4b 763d d54c 0a3d c2ef a8bb bfd7 333b
00000380: 003a d4bb 63be 3d3d 1b7c 553d 5abc 8a3c
00000390: 7b64 8fbc 0190 943d 65b2 f73c 65b1 573d
000003a0: 22b1 9dbc bf09 333c 49a4 fe3c aeb8 823c
000003b0: 8a9d 4abd 3691 803d 1417 c2bc a62a fd3c
000003c0: 962b 65bd b824 50bb 6091 da3b 2542 6cbd
000003d0: 9e05 813c 0c0d 37bc 997b 6f3b b8e2 74bb
000003e0: 86e3 eb3c 53b5 ed3b 94f9 c9bb 641a 1b3d
000003f0: d3d8 c73c 6817 6d3c 6fbc 983c b466 d53c

e1.bias f4 [152]
-0.020734608 0.043060727 -0.00063531037 0.025476443 -0.0044784257 -0.029487234 -0.06409454 -0.020545574
0.0025895475 0.05679996 4.566934e-05 -0.035310164 -0.0082217315 -0.0018403733 -0.030287893 -0.023383621
0.016034145 0.04908955 -0.00063555816 -0.057608962 -0.07555341 -0.010439825 0.017143663 -0.06866627
-0.05450978 0.03553954 -0.01054821 -0.006292188 0.040756308 -0.024294319 -0.008176966 0.044532828
0.017898643 0.00758931 -0.009680476 -0.011990479 0.008974147 0.0075007873 0.061734483 0.01355155
0.07267491 0.035084657 -0.036563575 -0.055349093 0.05271514 0.06977012 0.0077225626 -0.045159355
0.039624818 -0.028537521 0.002476543 0.020047877 0.047252648 -0.049564585 0.017366199 -0.049899593
0.0029065392 0.0606641 0.017725704 -0.033201132 -0.033045087 0.02502839 0.012171564 0.033042993
0.066148214 -0.016366104 0.041562956 0.07295721 0.058760364 0.037611727 -0.012044971 -0.026454395
-0.002663241 0.06338066 0.059513576 -0.06688761 0.07286108 0.02931145 -0.035169642 -0.06535499
0.053483136 -0.013291787 0.026700703 -0.030913506 0.029194964 0.002456983 0.053638928 0.047395278
-0.004146234 0.06606833 -0.006717611 0.03808741 0.0077518444 -0.054031543 -0.043120734 -0.032658197
0.040916447 -0.035641193 0.00038881 0.005133543 0.037392277 0.0146971885 0.006523169 0.044832636
-0.006011688 0.025101595 0.035588156 0.021985842 -0.066349655 -0.0329909 -0.028288288 -0.013684311
0.04780373 -0.0067078006 0.0010571575 -0.0149051 0.030124526 -0.006311398 0.028939364 0.07519749
-0.04675697 0.00596912 0.0031162149 -0.0021898244 -0.0036871072 -0.011641077 0.038429163 0.043894224
-0.0642951 0.0286343 0.033155948 0.0038575053 0.017377678 -0.021789419 0.017033571 0.04696764
0.035998605 0.0722057 -0.014965399 -0.044844862 0.026443046 -0.03816806 0.0047941306 0.024680657
0.010751803 -0.009739439 -0.016117718 0.0037177077 -0.034755856 0.0036078116 0.07410717 -1.0262472e-05
00000000: a0db a9bc 7260 303d f58a 26ba f9b3 d03c
00000010: c2bf 92bb 368f f1bc 0044 83bd 314f a8bc
00000020: 66b5 293b 13a7 683d 158d 3f38 64a1 10bd
00000030: 71b4 06bc ae38 f1ba 511e f8bc 028f bfbc
00000040: 0a5a 833c 2012 493d 969b 26ba 60f7 6bbd
00000050: bfbb 9abd cd0b 2bbc de70 8c3c e7a0 8cbd
00000060: a645 5fbd e991 113d 66d2 2cbc b32e cebb
00000070: 16f0 263d e104 c7bc aef8 05bc 0e68 363d
00000080: 2da0 923c bfaf f83b dc9a 1ebc b773 44bc
00000090: 4d08 133c 2ac9 f53b 4cdd 7c3d 5207 5e3c
000000a0: 95d6 943d eeb4 0f3d b0c3 15bd bbb5 62bd
000000b0: d5eb 573d a3e3 8e3d 8d0d fd3b 04f9 38bd
000000c0: a24d 223d 85c7 e9bc 7f4d 223b 723b a43c
000000d0: fe8b 413d 3c04 4bbd 8f43 8e3c 8463 4cbd
000000e0: a37b 3e3b eb7a 783d 7f35 913c e9fd 07bd
000000f0: 495a 07bd 5708 cd3c 3d6b 473c 1758 073d
00000100: b778 873d 3512 86bc eb3d 2a3d 976a 953d
00000110: b5ae 703d c10e 1a3d 4558 45bc e3b6 d8bc
00000120: c589 2ebb b8cd 813d 82c4 733d 5ffc 88bd
00000130: 3138 953d 911e f03c 0b0e 10bd d6d8 85bd
00000140: 2211 5b3d ccc5 59bc 6fbb da3c 523e fdbc
00000150: 472a ef3c 5605 213b 7eb4 5b3d 8d21 423d
00000160: 22dd 87bb d54e 873d 681f dcbb 8b01 1c3d
00000170: 2f03 fe3b 2e50 5dbd 5e9f 30bd 9ac4 05bd
00000180: 0198 273d 80fc 11bd 32d9 cb39 4837 a83b
00000190: a528 193d 7acc 703c 4fc0 d53b 6da2 373d
000001a0: b2fd c4bb dca1 cd3c e3c4 113d a71b b43c
000001b0: 54e2 87bd 7721 07bd d7bc e7bc 2934 60bc
000001c0: d8cd 433d 1ccd dbbb 5290 8a3a 8534 74bc
000001d0: b6c7 f63c d8cf cebb 3f12 ed3c 2401 9a3d
000001e0: 3d84 3fbd 9c98 c33b 6939 4c3b 2883 0fbb
000001f0: 65a3 71bb 37ba 3ebc e667 1d3d 6eca 333d
00000200: 26ad 83bd 7b92 ea3c 88ce 073d 33ce 7c3b
00000210: a25b 8e3c b97f b2bc fd89 8b3c 2461 403d
00000220: 4673 133d 95e0 933d 6f31 75bc 3faf 37bd
00000230: 169f d83c 1d56 1cbd 1518 9d3b 172f ca3c
00000240: 5528 303c 2b92 1fbc 4e09 84bc c9a4 733b
00000250: 285c 0ebd 0971 6c3b 80c5 973d fb2c 2cb7

e2.weight f4 [19, 152]
-0.0016400305 0.05365645 -0.0058596833 -0.019684646 0.030519659 0.032659393 -0.023386924 -0.017950231
-0.019325169 0.0482372 0.04526629 -0.06876081 0.0020763269 0.051482078 -0.03152 -0.030355787
-0.024843596 0.025645217 0.06847923 -0.07083347 -0.01861644 0.00563004 -0.009232183 -0.0048152413
0.024199149 0.019397696 -0.01026553 0.019266628 -0.039803743 -0.045962032 0.073489316 -0.011688466
-0.0591768 0.008744149 -0.03443334 -0.05576334 -0.004942681 0.02374012 0.07698742 -0.041279264
-0.062303696 -0.023433452 -0.020729646 -0.08590841 -0.010497492 0.004462388 -0.015706193 -0.055898692
-0.07293236 0.055287104 0.051020026 0.08138279 0.065227576 0.06207867 0.044639796 0.034112915
-0.058514804 -0.036550917 -0.031601712 0.057481658 -0.059230283 0.047653295 -0.03774167 0.0440383
-0.031935267 -0.041272525 0.07754821 0.0045480053 -0.06916863 0.045668136 -0.07072534 0.07814787
-0.02612584 -0.009288537 -0.06077591 -0.012877814 -0.009912602 0.03284947 0.045808483 0.003714795
-0.0836684 0.014145237 -0.0156141035 0.008354172 -0.06399776 0.042638153 -0.042986847 -0.039143395
-0.052348323 0.08833361 0.049598344 0.04921434 0.0081565 -0.047217406 -0.051763926 0.0016807141
0.02891144 -0.06015213 -0.05210653 0.06281057 -0.071857534 -0.054227147 0.087005846 -0.042962346
0.046775345 -0.039048657 -0.023182116 0.104059055 -0.07038838 0.034676787 -0.042770416 0.05480257
0.014451254 0.06970816 -0.05096254 0.055133045 0.023591861 -0.027127096 -0.05257887 0.010812952
0.03432369 -0.0073177554 0.008533976 0.03454727 -0.060362805 -0.05566604 -0.015851678 0.0050861873
-0.04785545 -0.063250385 -0.059104066 -0.02483182 0.07611876 -0.004809433 0.07009978 -0.0521428
-0.03348701 -0.028824536 0.09731767 0.040105123 0.027034847 -0.0013635644 0.050493237 0.017175108
0.058375154 0.009741514 0.0497941 -0.014973977 0.0024664323 0.05141794 0.0062282076 0.0067723366
0.025309704 -0.013060762 0.015650498 -0.044996377 -0.08463295 0.01567188 0.056196336 -0.0022938806
0.0720372 -0.046553303 0.049311623 0.03248928 -0.039365023 0.040656973 -0.02332659 -0.037253663
-0.05393288 0.05641028 -0.09426279 -0.01635963 -0.09269401 0.004493416 -0.07160883 -0.061186336
0.009903268 -0.044884417 0.074635394 -0.08188152 0.0743526 -0.062041868 -0.041121572 -0.012515092
-0.022557015 -0.04458882 -0.02754714 -0.06371442 -0.060951218 0.048823804 0.07932615 0.039468326
0.005402764 -0.061435707 -0.025651954 -0.018186932 0.055050835 0.08621136 0.049471892 -0.067124486
0.022817502 -0.050077874 -0.043189395 -0.08398056 0.040277686 -0.11621501 0.082234256 0.027691616
0.0043769507 0.085740045 -0.035083704 -0.031630933 -0.0843053 -0.083625995 0.09414035 -0.01686192
-0.100440964 0.0605993 -0.06850662 0.02954495 0.08164953 0.021723533 0.060770378 0.059677906
0.011600287 0.063416176 0.069735445 -0.1069953 0.06407304 0.10297928 -0.011926707 -0.09355603
0.0034842126 -0.03591227 0.05595808 -0.06118189 -0.047523264 0.07933628 0.019477664 0.08629697
0.013049088 0.058029518 0.013238794 -0.028855594 0.09814935 -0.045910783 -0.02528837 -0.023933271
-0.08170105 -0.0057601957 -0.012995568 -0.073291324 -0.021308426 0.05867731 0.029151045 -0.05255362
00000000: 4bf6 d6ba dec6 5b3d 9602 c0bb b241 a1bc
00000010: 5d04 fa3c dbc5 053d ef95 bfbc 5d0c 93bc
00000020: d14f 9ebc 5f94 453d 2569 393d 78d2 8cbd
00000030: fc12 083b dfde 523d 1e1b 01bd b3ac f8bc
00000040: cc84 cbbc eb15 d23c d73e 8c3d 2311 91bd
00000050: 8181 98bc 337c b83b 9542 17bc 2cc9 9dbb
00000060: 4b3d c63c ebe7 9e3c c130 28bc 0cd5 9d3c
00000070: 4009 23bd af42 3cbd 9181 963d fb80 3fbc
00000080: 5f63 72bd 9e43 0f3c f909 0dbd 1a68 64bd
00000090: 37f6 a1bb a47a c23c 95ab 9d3d 7214 29bd
000000a0: 2932 7fbd 83f7 bfbc 38d1 a9bc c0f0 afbd
000000b0: acfd 2bbc 3939 923b 46aa 80bc 07f6 64bd
000000c0: 905d 95bd bb74 623d 60fa 503d 05ac a63d
000000d0: 0996 853d 3446 7e3d 38d8 363d fcb9 0b3d
000000e0: 38ad 6fbd 6ab6 15bd cc70 01bd e371 6b3d
000000f0: 749b 72bd 1a30 433d 0297 1abd 8161 343d
00000100: 8ece 02bd 610d 29bd 99d1 9e3d 6f07 953b
00000110: 48a8 8dbd 830e 3b3d 72d8 90bd fe0b a03d
00000120: dc05 d6bc f32e 18bc 29f0 78bd 77fd 52bc
00000130: 7768 22bc 2a8d 063d ada1 3b3d eb73 733b
00000140: 575a abbd 6dc1 673c 4cd2 7fbc f0df 083c
00000150: 4211 83bd 58a5 2e3d fa12 30bd d354 20bd
00000160: 326b 56bd 40e8 b43d a227 4b3d fa94 493d
00000170: d7a2 053c 0a67 41bd 6906 54bd 684b dc3a
00000180: afd7 ec3c 1462 76bd a86d 55bd d4a2 803d
00000190: 0b2a 93bd 491d 5ebd 1f30 b23d 49f9 2fbd
000001a0: 8197 3f3d 7cf1 1fbd 6ce8 bdbc ea1c d53d
000001b0: c827 90bd 3f09 0e3d 0830 2fbd a978 603d
000001c0: f4c4 6c3c 27c3 8e3d 19be 50bd 30d3 613d
000001d0: b843 c13c a539 debc f15c 57bd cf28 313c
000001e0: ff96 0c3d c8c9 efbb 17d2 0b3c 7081 0d3d
000001f0: fd3e 77bd 1302 64bd 61db 81bc 08aa a63b
00000200: 1404 44bd 6b89 81bd 1b17 72bd 1a6c cbbc
00000210: 27e4 9b3d 7398 9dbb 7990 8f3d b093 55bd
00000220: ad29 09bd 6f21 ecbc 7d4e c73d 4545 243d
00000230: 2f78 dd3c a1b9 b2ba ffd1 4e3d d0b2 8c3c
00000240: c91a 6f3d df9a 1f3c e6f4 4b3d 6955 75bc
00000250: dea3 213b 9e9b 523d fe15 cc3b 7aea dd3b
00000260: 4c56 cf3c cefc 55bc 7935 803c 1f4e 38bd
00000270: 0a54 adbd 5162 803c 212e 663d ee54 16bb
00000280: 3d88 933d adae 3ebd fcfa 493d 7b13 053d
00000290: 383d 21bd ed87 263d 6817 bfbc 4c97 18bd
000002a0: b9e8 5cbd 770e 673d da0c c1bd a104 86bc
000002b0: 5bd6 bdbd 813d 933b a6a7 92bd 869e 7abd
000002c0: 5141 223c b9d8 37bd 71da 983d 80b1 a7bd
000002d0: 2d46 983d 9d1f 7ebd 186f 28bd 1a0c 4dbc
000002e0: 7dc9 b8bc c4a2 36bd 8aaa e1bc b57c 82bd
000002f0: fca7 79bd 78fb 473d c075 a23d 8aa9 213d
00000300: ab09 b13b 02a4 7bbd 0c24 d2bc c3fc 94bc
00000310: fc7c 613d 958f b03d 0aa3 4a3d 9078 89bd
00000320: c5eb ba3c 751e 4dbd 5de7 30bd 00fe abbd
00000330: 37fa 243d 2302 eebd 6f6a a83d 87d9 e23c
00000340: 866c 8f3b 7a98 af3d eeb3 0fbd 708f 01bd
00000350: 42a8 acbd 1b44 abbd a8cc c03d 0222 8abc
00000360: feb3 cdbd f936 783d 334d 8cbd 4008 f23c
00000370: de37 a73d 8df5 b13c 5cea 783d d270 743d
00000380: 210f 3e3c 57e0 813d 75d1 8e3d 5a20 dbbd
00000390: ba38 833d cde6 d23d 3c68 43bc 4e9a bfbd
000003a0: 6357 643b bf18 13bd 4d34 653d dd99 7abd
000003b0: c1a7 42bd 0f7b a23d 9f8f 9f3c 77bc b03d
000003c0: d8cb 553c 5cb0 6d3d 87e7 583c 9162 ecbc
000003d0: 8702 c93d f20c 3cbd 8e29 cfbc b50f c4bc
000003e0: e152 a7bd 06c0 bcbb 5deb 54bc c319 96bd
000003f0: 028f aebc 9e57 703d 2cce ee3c 7742 57bd

e2.bias f4 [19]
0.06742269 -0.0007876755 -0.06156317 -0.017091434 0.015959153 -0.05631463 -0.013926222 0.058177378
-0.012026421 0.077800974 -0.0009961434 -0.008497259 0.019458994 -0.0065222736 -0.015163448 0.07436014
-0.05046644 -0.01770492 -0.03059858
00000000: e814 8a3d 027c 4eba aa29 7cbd 5603 8cbc
00000010: c5bc 823c 2baa 66bd cf2a 64bc 674b 6e3d
00000020: 770a 45bc 1e56 9f3d 0791 82ba 1638 0bbc
00000030: 7868 9f3c ccb8 d5bb 1c70 78bc 214a 983d
00000040: e6b5 4ebd e909 91bc e0a9 fabc

e3.weight f4 [19, 152]
0.07329541 0.022677382 0.013190685 -0.011233651 -0.03517041 0.08853871 -0.023088843 0.026190042
0.022704856 0.012449362 0.0437241 0.024924805 -0.03668339 -0.00077294646 0.009940093 0.009510001
-0.0012333008 0.04020669 0.044640217 0.051507693 -0.021411546 0.059466265 -0.027998397 -0.07459259
0.016917136 -0.0009873239 -0.032620028 0.032933228 -0.023501761 0.048614778 -0.048577975 -0.02809644
-0.014670486 -0.083286434 0.04027652 -0.037110306 0.055585977 0.0670048 -0.06754837 -0.031541713
0.032290556 0.0558489 0.058022782 -0.05432147 -9.4479314e-05 0.08942111 -0.00820931 -0.05648151
0.07398501 0.0825635 -0.020852357 -0.03229009 0.056102134 0.026745407 -0.035336114 0.030309236
-0.06844756 0.014108944 0.058010284 0.011029485 0.050768096 0.076138906 -0.038961373 -0.04342233
-0.0031652101 0.04292443 0.017580267 -0.081517145 0.009236351 0.06216823 -0.08025261 -0.060040828
-0.038368005 0.015790107 0.06734149 -0.029640386 -0.005515802 -0.014838647 -0.08215771 0.054448906
0.036413047 0.035708576 0.038771912 0.032656733 0.050492946 -0.046588585 0.05468047 -0.016810965
0.04327222 0.027063455 0.05283395 0.071036614 0.046929464 0.07819323 -0.04955296 -0.014110025
-0.018254708 -0.010671756 -0.0036254192 -0.03755573 -0.02903681 0.068576425 -0.05025795 0.061182518
-0.025034824 -0.07015975 0.047443714 0.015728056 0.0035585952 0.057419486 -0.024770766 -0.051525548
0.017277831 0.042448837 -0.018996878 -0.0031727706 0.039189436 0.04665488 -0.08106447 -0.0030517704
0.026764113 -0.062397975 -0.013798873 0.044638593 -0.072940305 0.05427616 -0.06165547 -0.06462934
0.013853085 -0.08291755 0.051595002 0.038552053 0.06268614 -0.046043884 -0.016713247 -0.054480758
0.054059297 -0.079896785 0.03423686 -0.07515446 -0.018943962 -0.018498397 -0.02741133 -0.022420496
0.08433763 -0.04430985 0.05721444 -0.040018793 0.056566633 0.075556174 0.02913359 0.07099531
-0.05643204 -0.009489621 0.082430154 0.011844027 0.0062741726 0.11264695 0.03351063 -0.08366014
-0.011496878 0.038939923 0.08798516 0.048005097 0.025700174 0.0062119993 0.044360656 -0.03752592
0.04395903 -0.042935707 0.047444474 0.053437855 0.09814745 0.00082386966 -0.039536495 0.026797324
-0.046616673 -0.037585806 -0.0010368531 -0.022563785 0.036401186 -0.050783984 0.0021199824 0.014432327
0.025455706 0.06220323 0.042960804 0.008916029 0.03439545 0.061801948 0.056121126 -0.009697678
-0.08965964 -0.004821555 0.0036014114 0.061932553 -0.08959174 0.04123131 -0.028906608 0.014957654
0.009810635 0.105154365 -0.009260408 -0.023614824 -0.009968458 0.010781319 0.1077615 -0.022220641
0.06060305 -0.024341006 -0.02266478 -0.016866673 -0.0041904114 -0.0050883614 0.084966734 0.037015934
-0.0066055623 -0.01650396 -0.07006952 0.010290828 -0.054673728 0.011272817 -0.049530096 -0.048400335
-0.04719982 0.06524503 -0.06779724 -0.018284597 -0.06954648 -0.06900627 0.0038813327 0.0706404
0.0012424383 -0.044411033 0.07488442 -0.08434439 0.010297205 0.014909576 0.008853027 -0.046144757
-0.02892804 -0.014361593 0.05858897 -0.0069757486 0.052697875 0.10234102 0.06887468 0.0044727116
0.021013083 0.11001438 -0.05153416 -0.016033772 0.05549871 0.022980468 0.048833296 0.06706571
00000000: e71b 963d ebc5 b93c be1d 583c 590d 38bc
00000010: d90e 10bd c853 b53d d024 bdbc 808c d63c
00000020: 89ff b93c 69f8 4b3c 0b18 333d 1b2f cc3c
00000030: 5341 16bd 8f9f 4aba c6db 223c d6cf 1b3c
00000040: b5a6 a1ba c5af 243d a9d8 363d bbf9 523d
00000050: 4467 afbc e692 733d e55c e5bc 00c4 98bd
00000060: ce95 8a3c 1869 81ba 949c 05bd fee4 063d
00000070: c486 c0bc 4a20 473d b3f9 46bd 812a e6bc
00000080: 7a5c 70bc 1492 aabd fef8 243d fa00 18bd
00000090: 1fae 633d d039 893d cd56 8abd e231 01bd
000000a0: 1a43 043d d1c1 643d 4ca9 6d3d 3180 5ebd
000000b0: 3223 c6b8 6a22 b73d 5780 06bc 2859 67bd
000000c0: 7485 973d 0d17 a93d 90d2 aabc 9d42 04bd
000000d0: 5acb 653d 2f19 db3c 9abc 10bd 134b f83c
000000e0: 3c2e 8cbd 3329 673c 319c 6d3d 03b5 343c
000000f0: 35f2 4f3d b7ee 9b3d f695 1fbd 9ddb 31bd
00000100: 6a6f 4fbb 87d1 2f3d 7e04 903c 76f2 a6bd
00000110: 1054 173c 1da4 7e3d 7b5b a4bd 5fed 75bd
00000120: c527 1dbd 415a 813c 56ea 893d 65d0 f2bc
00000130: e7bd b4bb cc1d 73bc 4d42 a8bd d105 5f3d
00000140: d925 153d 2843 123d 4ccf 1e3d 11c3 053d
00000150: b1d1 4e3d acd3 3ebd a1f8 5f3d 26b7 89bc
00000160: 363e 313d 2eb4 dd3c 6968 583d a57b 913d
00000170: 1c39 403d c623 a03d 0bf8 4abd bc2d 67bc
00000180: e68a 95bc 97d8 2ebc 7198 6dbb 0ad4 19bd
00000190: 9bde edbc cc71 8c3d 48db 4dbd 859a 7a3d
000001a0: d515 cdbc eaaf 8fbd 5754 423d 20d8 803c
000001b0: 5237 693b b230 6b3d 10ec cabc 740c 53bd
000001c0: 3d8a 8d3c d5de 2d3d 579f 9bbc 42ee 4fbb
000001d0: 1a85 203d 3019 3f3d 2105 a6bd 3600 48bb
000001e0: 6a40 db3c 0595 7fbd ab14 62bc f5d6 363d
000001f0: ba61 95bd ae50 5e3d 728a 7cbd 635c 84bd
00000200: 0df8 623c add0 a9bd 4855 533d c2e8 1d3d
00000210: 9761 803d 8398 3cbd 38ea 88bc 3727 5fbd
00000220: 486d 5d3d eda0 a3bd f33b 0c3d 95ea 99bd
00000230: 5e30 9bbc f389 97bc ba8d e0bc 30ab b7bc
00000240: 35b9 ac3d 3f7e 35bd b059 6a3d bfea 23bd
00000250: 6ab2 673d 32bd 9a3d 91a9 ee3c fd65 913d
00000260: 4825 67bd 5b7a 1bbc 24d1 a83d 730d 423c
00000270: 9397 cd3b 72b3 e63d 7142 093d 0256 abbd
00000280: 675d 3cbc 787f 1f3d 9031 b43d fea0 443d
00000290: 2c89 d23c 078e cb3b 85b3 353d c7b4 19bd
000002a0: 620e 343d 5add 2fbd 2355 423d a7e1 5a3d
000002b0: 8801 c93d f5f8 573a 05f1 21bd 1086 db3c
000002c0: 20f1 3ebd 93f3 19bd 04e7 87ba b0d7 b8bc
000002d0: 6919 153d de02 50bd 67ef 0a3b 9175 6c3c
000002e0: 7c88 d03c d0c8 7e3d abf7 2f3d 8914 123c
000002f0: 3ee2 0c3d 0a24 7d3d 44df 653d 02e3 1ebc
00000300: 799f b7bd 23fe 9dbb a805 6c3b fdac 7d3d
00000310: e07b b7bd 2ae2 283d 8dcd ecbc f310 753c
00000320: c9bc 203c 2c5b d73d f7b8 17bc e073 c1bc
00000330: be52 23bc 21a4 303c 10b2 dc3d 1008 b6bc
00000340: e73a 783d ca66 c7bc 7dab b9bc fa2b 8abc
00000350: b84f 89bb 45bc a6bb 0a03 ae3d 059e 173d
00000360: 7973 d8bb 5033 87bc 9c80 8fbd dc9a 283c
00000370: 8ff1 5fbd 9fb1 383c 12e0 4abd 6e3f 46bd
00000380: 9954 41bd 309f 853d 48d9 8abd 94c9 95bc
00000390: 636e 8ebd 2953 8dbd f55d 7e3b eaab 903d
000003a0: 50d9 a23a 58e8 35bd 015d 993d c0bc acbd
000003b0: 9cb5 283c 4b47 743c 490c 113c 4902 3dbd
000003c0: 7ffa ecbc e34c 6bbc fdfa 6f3d d294 e4bb
000003d0: bad9 573d 2b98 d13d 2b0e 8d3d d38f 923b
000003e0: a123 ac3c 384f e13d 7c15 53bd 4259 83bc
000003f0: 9e52 633d 8941 bc3c 6c05 483d bf59 893d

e3.bias f4 [19]
-0.026688874 0.016719237 -0.037007015 -0.07702185 -0.05229076 0.017410045 -0.067941986 0.043437414
0.03924186 -0.04688007 -0.079100035 0.036125936 -0.018917106 -0.025177987 -0.06639096 -0.028038375
-0.050305143 -0.014296183 0.009015518
00000000: a0a2 dabc c8f6 883c ab94 17bd a2bd 9dbd
00000010: d62e 56bd 839f 8e3c 2b25 8bbd 6eeb 313d
00000020: 13bc 203d 5105 40bd 33ff a1bd caf8 133d
00000030: 0cf8 9abc 1142 cebc fcf7 87bd bcb0 e5bc
00000040: c40c 4ebd 8a3a 6abc d3b5 133c
