carla/self_explaining_model/catalog/vcnet/library/vcnet_tabular_data_v1/save_models/vcnet_model_immutable_give_me_some_credit.pt (torch, 785891 bytes, 19 tensors)

se1.weight f4 [296, 10]
-3.4891605 0.2879658 -0.9920753 0.48125798 -0.07401521 0.028483713 -0.49066725 0.4805101
0.15568773 -0.29389635 3.555975 0.09369505 0.42987442 0.1885156 0.09426847 -0.010402083
2.0103872 0.011025197 1.4041187 0.14589268 -11.381802 0.034818165 -1.5200113 0.36603108
-0.24833895 -0.29366902 -2.9000928 -0.33021665 -1.689123 -1.4960756 1.9361117 -0.243294
0.47130948 0.13070774 -0.017736522 -0.013137568 6.1602695e-05 0.083676554 -0.12857716 -0.06527019
-0.18892229 -0.12573767 0.3711541 0.6162986 0.22832188 -0.078149825 1.2883269 0.05005749
1.2113011 -0.069812864 -2.0884373 -0.01051762 -0.8865507 0.2842892 0.01122472 0.11351719
0.65589875 0.011354161 1.4724617 0.025163285 -0.75330305 -0.014262222 0.078000404 -0.05038033
-0.01809908 0.016760172 0.4005342 -0.0033072417 -0.41234055 0.012193321 1.6117191 0.26586297
-0.0032587638 -2.6094904 -0.34625232 0.027081989 -0.27468297 0.14735441 0.30300957 0.00047499593
2.6099417 -0.0017827584 0.02754823 -0.073722854 0.051522482 0.014312625 0.10313923 -0.012494589
-0.22648567 -0.0012578976 -0.47537562 -0.022542587 0.19519994 0.29936743 -0.16183001 0.034458168
0.21939647 0.012592392 0.020972745 -0.014355679 -11.249452 0.15591873 -0.3310074 -0.33397654
-0.037572302 -0.1527372 -2.8728921 -0.11309459 -1.7512026 -0.27711502 -0.56535506 0.0019286929
0.0065459744 -0.17052333 -0.018841255 0.006966822 0.030959057 -0.0002083835 -0.063974164 0.01072608
-0.6208106 -0.08811117 0.04897145 -1.1956583 -0.12516546 -0.055352867 -0.34379572 -0.42445132
0.12455128 0.0871593 -11.000916 0.19569786 -2.0174716 0.13572592 -0.0034188095 -0.22910999
-1.2723674 -0.4549986 -1.0208467 -0.25428224 0.19229445 -0.39736488 -0.14070778 -0.0387517
0.0073305224 0.1611491 0.34266216 0.44231126 1.2231319 -0.15434642 0.23411272 -0.10129135
-0.12657253 -0.47968462 0.11269551 -0.10836236 1.0505333 0.07411406 0.83990836 0.019956054
0.54799885 0.038959455 -0.2871701 0.19266489 0.105493315 -0.041722577 -1.7881103 0.1094788
-0.27938578 -0.023758397 -1.3022631 0.00020787577 0.8654972 -0.5900893 -0.20397942 0.1753684
-0.10762706 0.077271104 0.42347634 -0.046574105 -0.6211546 -0.053635426 0.9609888 0.29191908
0.018095158 0.16337532 0.5179677 -0.40932876 -0.7024457 -0.18092427 1.1951466 -0.16417158
0.7851341 0.23858191 -0.016929701 -0.055876907 1.5590743 -0.17733887 0.8290851 0.057561494
0.083220184 -0.046317972 1.2071491 -0.4935056 -0.0030827 0.043167487 -0.3082555 -0.29706797
-1.6341231 0.010829753 0.45436877 -0.07056994 -1.3654602 -0.01667122 -0.20936775 0.024731077
-0.028453432 0.09011186 -0.32996175 -0.0021963029 -9.833343 0.22797383 -3.8427052 0.4862677
-0.39531922 0.025155744 -0.784788 -0.17809317 -1.7234973 -4.4786167 -14.466029 0.13372824
0.69866407 0.6675072 0.054369155 0.071473725 -0.14477314 -0.2074344 -1.4280632 -0.0929904
1.694759 -0.008113803 -0.25006747 -0.12838186 0.01090461 -0.054278985 -0.21965736 0.042439293
0.027121646 -0.0018267502 0.36040634 -0.22036757 0.15066944 -1.1357167 -0.07776404 -0.21901958
00000000: 684e 5fc0 4170 933e a6f8 7dbf 7267 f63e
00000010: 4995 97bd ad56 e93c bd38 fbbe 6b05 f63e
00000020: 9b6c 1f3e 9579 96be 1895 6340 31e3 bf3d
00000030: 8018 dc3e 3c0a 413e d40f c13d 806d 2abc
00000040: 2faa 0040 07a3 343c 29ba b33f e464 153e
00000050: dc1b 36c1 7e9d 0e3d bb8f c2bf 6d68 bb3e
00000060: 914c 7ebe c95b 96be 1f9b 39c0 2812 a9be
00000070: 2f35 d8bf 687f bfbf 82d2 f73f 1022 79be
00000080: 7a4f f13e 40d8 053e 2f4c 91bc f43e 57bc
00000090: b230 8138 9d5e ab3d bba9 03be 61ac 85bd
000000a0: d874 41be 60c1 00be e907 be3e bfc5 1d3f
000000b0: 36cd 693e 040d a0bd e5e7 a43f 1509 4d3d
000000c0: ea0b 9b3f 0cfa 8ebd f5a8 05c0 1852 2cbc
000000d0: fdf4 62bf 5b8e 913e e3e7 373c b37b e83d
000000e0: fbe8 273f ce06 3a3c a079 bc3f 3c23 ce3c
000000f0: 78d8 40bf 18ac 69bc adbe 9f3d 9b5b 4ebd
00000100: 8644 94bc a14c 893c d212 cd3e 4fbe 58bb
00000110: 4d1e d3be 7fc6 473c d04c ce3f 311f 883e
00000120: fc90 55bb e401 27c0 fc47 b1be 0cdb dd3c
00000130: 3fa3 8cbe 13e4 163e 1224 9b3e e008 f939
00000140: 4909 2740 72ab e9ba d3ac e13c 02fc 96bd
00000150: 3d09 533d 807f 6a3c a93a d33d 1bb6 4cbc
00000160: dceb 67be 0ae0 a4ba 6f64 f3be 3bab b8bc
00000170: 7ee2 473e b046 993e c4b6 25be 0224 0d3d
00000180: 78a9 603e 5250 4e3c 09cf ab3c 1534 6bbc
00000190: c1fd 33c1 29a9 1f3e cd79 a9be f9fe aabe
000001a0: 6ae5 19bd 2467 1cbe 77dd 37c0 239e e7bd
000001b0: 6827 e0bf 05e2 8dbe 1cbb 10bf 32cc fc3a
000001c0: 9d7f d63b ab9d 2ebe fa58 9abc f049 e43b
000001d0: d99d fd3c 8581 5ab9 e304 83bd 71bc 2f3c
000001e0: 72ed 1ebf a173 b4bd 4a96 483d 550b 99bf
000001f0: 602b 00be b0b9 62bd fe05 b0be af51 d9be
00000200: be14 ff3d 9380 b23d c003 30c1 0565 483e
00000210: 411e 01c0 bcfb 0a3e 1b0e 60bb cf9b 6abe
00000220: efdc a2bf 94f5 e8be 1bab 82bf 4831 82be
00000230: d6e8 443e 6973 cbbe b315 10be 1aba 1ebd
00000240: e134 f03b 4504 253e 6a71 af3e 9f76 e23e
00000250: 968f 9c3f fd0c 1ebe 3fbb 6f3e d771 cfbd
00000260: 3b9c 01be 3999 f5be e7cc e63d 16ed ddbd
00000270: e077 863f 1dc9 973d 3c04 573f e17a a33c
00000280: a749 0c3f f393 1f3d f607 93be f249 453e
00000290: e10c d83d 4be5 2abd cce0 e4bf 6c36 e03d
000002a0: a70b 8fbe f8a0 c2bc 8fb0 a6bf 3af9 5939
000002b0: 3991 5d3f 1810 17bf fbdf 50be c693 333e
000002c0: 936b dcbd 5040 9e3d e4d1 d83e 7dc4 3ebd
000002d0: fd03 1fbf d2b0 5bbd 5d03 763f 6b76 953e
000002e0: 4c3c 943c dc4b 273e 8899 043f 8a93 d1be
000002f0: 7bd3 33bf 3644 39be 90fa 983f 981c 28be
00000300: 8cfe 483f d14e 743e 28b0 8abc 2fdf 64bd
00000310: bf8f c73f 5298 35be ec3e 543f 9ac5 6b3d
00000320: 586f aa3d eab7 3dbd dd83 9a3f c4ac fcbe
00000330: 2007 4abb 64d0 303d aad3 9dbe 4b19 98be
00000340: f22a d1bf 476f 313c 06a3 e83e f986 90bd
00000350: 66c7 aebf 1592 88bc 8064 56be d498 ca3c
00000360: 2c17 e9bc 918c b83d bff0 a8be d9ef 0fbb
00000370: 5f55 1dc1 f971 693e e2ee 75c0 14f8 f83e
00000380: 4867 cabe 6b13 ce3c dee7 48bf 0e5e 36be
00000390: 8f9b dcbf d450 8fc0 db74 67c1 0ef0 083e
000003a0: a6db 323f c0e1 2a3f 31b2 5e3d d160 923d
000003b0: 693f 14be af69 54be c6ca b6bf c071 bebd
000003c0: dded d83f c2ef 04bc d808 80be 8976 03be
000003d0: 40a9 323c a453 5ebd dced 60be d3d4 2d3d
000003e0: 372e de3c 916f efba 2e87 b83e 09a8 61be
000003f0: 1749 1a3e 2a5f 91bf c142 9fbd ab46 60be

se1.bias f4 [296]
-0.16627853 -0.099723384 0.08166001 0.08556026 -0.029483987 -0.001868183 0.006873149 -0.16106537
-0.0063480767 -0.007895692 0.20346703 -0.0031803234 -0.0087097855 -0.09930709 -0.2834284 0.03593382
-0.016985394 -0.11336502 0.096442685 0.11101133 0.003357852 0.13166949 -0.057805102 0.01772254
0.015488336 0.15994263 0.021707773 0.023607215 -0.20546767 0.006368045 -0.006467299 0.19495645
0.05008625 -0.003233832 0.025673946 -0.15519965 0.020743486 -0.0027532289 -0.016206194 -0.08093891
0.17955025 -0.06522907 0.1445232 0.043246742 0.01460982 0.10842701 -0.080215275 -0.008904149
-0.016198196 -0.255369 0.0048292237 0.22667304 0.0056385985 0.1546205 0.03687804 -0.12338172
0.103004985 0.22337206 0.15798332 0.034004435 -0.009816379 0.18613212 0.18172148 -0.064724475
0.06839127 0.073751785 0.04126082 -0.07898739 -0.12621129 -0.08600877 0.12562865 0.20811158
-0.037655916 0.17809767 0.064006895 0.0018769804 0.05755512 0.05706515 -0.0017224976 -0.054089244
-0.13814043 -0.024000531 -0.11485332 0.071503684 -0.0012272387 0.13216914 0.03789391 -0.04189946
-0.014775686 0.15265894 -0.0923424 -0.047632575 0.1237933 0.036779802 0.11159745 0.053594027
0.018177954 -0.041462496 -0.013760344 0.055743758 0.08014825 0.21048161 0.09204213 0.1655533
-0.10999584 -0.0073987683 -0.04408887 -0.16889061 0.047394138 0.16852675 -0.11411124 0.06133404
-0.05223766 0.009970715 0.02974684 -0.20552269 -0.1477463 -0.006104937 0.04574755 -0.09475997
0.018373152 0.08311113 -0.027248021 -0.081912614 -0.103846475 0.021001905 0.13289224 -0.0013810678
0.07474488 -0.025351578 0.10351189 -0.107791856 -0.21517035 0.04281535 0.07965577 0.02742136
0.055727735 0.029787552 0.011620088 -0.04088688 0.052063107 0.014062125 -0.11392559 -0.046151
0.08291925 0.19458121 -0.04567661 -0.044690438 0.061573815 0.009737356 0.005840875 -0.067596145
-0.04739811 0.056865368 -0.13398956 0.0007706565 -0.20380121 -0.0007884332 0.108257346 -0.020864137
-0.021161588 0.033972736 0.16923787 0.05080314 0.015954277 0.021005724 -0.21260224 0.12254786
0.015761226 0.037552014 -0.028086824 -0.007407915 0.091614015 -0.062684864 -0.011487422 -0.14399207
-0.10198897 0.019837769 0.04271234 0.012341404 -0.124422126 0.23987767 -0.07813964 0.05123278
-0.022570858 0.012705646 0.11874708 -0.17317955 0.051334 -0.15422758 0.09269425 -0.0038834475
0.021565378 0.23191324 0.28115863 0.014335188 -0.039980058 0.12985271 0.0833447 -0.16650333
0.0016170461 0.06656034 -0.1773661 -0.01460222 -0.11054808 -0.03609664 -0.04820956 -0.011478844
0.08537605 -0.05989825 0.0015881769 0.038782164 0.27198467 -0.008259155 0.11666622 0.002572159
-0.02402189 0.13867584 0.07334894 -0.0025758287 -0.044779234 -0.13344416 -0.002794331 0.022322359
0.018780107 0.019243792 0.20693137 -0.08024694 0.043945663 -0.01527788 -0.015907688 0.13049413
-0.014400093 0.2785545 0.008926897 -0.08218791 0.09222478 -0.070534594 0.2938106 0.010594232
0.06646754 -0.031526618 0.063140765 0.13052969 0.0059001944 0.00999176 0.17376706 0.16163996
-0.038853906 -0.16412921 0.24656929 0.008332088 0.011056945 0.03022184 0.19538675 0.11138843
00000000: eb44 2abe c63b ccbd 5d3d a73d 383a af3d
00000010: 6788 f1bc d2dd f4ba 2738 e13b 52ee 24be
00000020: 8703 d0bb ef5c 01bc a959 503e f96c 50bb
00000030: 7db3 0ebc 8461 cbbd 871d 91be 572f 133d
00000040: f424 8bbc eb2b e8bd be83 c53d e859 e33d
00000050: 690f 5c3b 5ed4 063e 0bc5 6cbd dc2e 913c
00000060: cac2 7d3c 00c8 233e 80d4 b13c eb63 c13c
00000070: 1e66 52be 09ab d03b a3eb d3bb aaa2 473e
00000080: 3d27 4d3d b3ee 53bb 2b52 d23c a8ec 1ebe
00000090: 3eee a93c 846f 34bb dac2 84bc 4dc3 a5bd
000000a0: 05dc 373e d296 85bd e4fd 133e 7f23 313d
000000b0: 075e 6f3c fb0e de3d e847 a4bd b5e2 11bc
000000c0: 14b2 84bc babf 82be 773e 9e3b fa1c 683e
000000d0: fec3 b83b d654 1e3e 6d0d 173d 8eaf fcbd
000000e0: 47f4 d23d a5bb 643e 61c6 213e 3c48 0b3d
000000f0: e1d4 20bc 6b99 3e3e 3215 3a3e 448e 84bd
00000100: b910 8c3d 2d0b 973d 1b01 293d 24c4 a1bd
00000110: 883d 01be 5e25 b0bd cca4 003e 341b 553e
00000120: 173d 1abd 3c5f 363e 0c16 833d 0305 f63a
00000130: ebbe 6b3d 26bd 693d 6ec5 e1ba af8c 5dbd
00000140: af74 0dbe c39c c4bc 3838 ebbd 8670 923d
00000150: 4cdb a0ba 5957 073e a536 1b3d c59e 2bbd
00000160: b815 72bc a052 1c3e 031e bdbd 601a 43bd
00000170: 5787 fd3d 6ba6 163d 348d e43d 6985 5b3d
00000180: efe9 943c 94d4 29bd 1173 61bc 9153 643d
00000190: c424 a43d 7e88 573e 9680 bc3d ce86 293e
000001a0: 8045 e1bd 5e71 f2bb 8896 34bd a9f1 2cbe
000001b0: 5b20 423d 4792 2c3e 27b3 e9bd 6739 7b3d
000001c0: 28f7 55bd 365c 233c a5af f33c 8a74 52be
000001d0: ce4a 17be ec0b c8bb c861 3b3d 8411 c2bd
000001e0: 4b83 963c 2b36 aa3d 3e37 dfbc cdc1 a7bd
000001f0: 76ad d4bd 300c ac3c e714 083e f204 b5ba
00000200: d813 993d 1dae cfbc 0bfe d33d fac1 dcbd
00000210: 9e55 5cbe 265f 2f3d 9022 a33d c3a2 e03c
00000220: c442 643d 0605 f43c 2e62 3e3c 0079 27bd
00000230: 2040 553d d464 663c d251 e9bd d508 3dbd
00000240: 91d1 a93d 4c40 473e 6617 3bbd 520d 37bd
00000250: d334 7c3d 6e89 1f3c d064 bf3b d96f 8abd
00000260: 8524 42bd a9eb 683d 8f34 09be e205 4a3a
00000270: 44b1 50be dbae 4eba 07b6 dd3d 44eb aabc
00000280: 115b adbc ff26 0b3d b14c 2d3e f416 503d
00000290: 8bb2 823c 3214 ac3c 67b4 59be 5ffa fa3d
000002a0: b01d 813c 24d0 193d 5716 e6bc 18be f2bb
000002b0: 21a0 bb3d ec60 80bd bd35 3cbc a872 13be
000002c0: 98df d0bd d182 a23c 22f3 2e3d 9a33 4a3c
000002d0: 07d1 febd 7ea2 753e ad07 a0bd 77d9 513d
000002e0: 85e6 b8bc 582b 503c ab31 f33d fb55 31be
000002f0: 9a43 523d d6ed 1dbe 7cd6 bd3d 7081 7ebb
00000300: e0a9 b03c aa7a 6d3e 06f4 8f3e 23de 6a3c
00000310: 21c2 23bd 1cf8 043e a0b0 aa3d d97f 2abe
00000320: 10f3 d33a ca50 883d 759f 35be 263e 6fbc
00000330: 0867 e2bd 12da 13bd 6377 45bd c311 3cbc
00000340: a3d9 ae3d de57 75bd 602a d03a 0cda 1e3d
00000350: 9341 8b3e 6851 07bc b3ee ee3d ab91 283b
00000360: 8ec9 c4bc 0a01 0e3e f837 963d 3ccf 28bb
00000370: 6e6a 37bd 96a5 08be 1821 37bb 61dd b63c
00000380: bdd8 993c 28a5 9d3c d1e5 533e 8258 a4bd
00000390: 5e00 343d 1350 7abc d750 82bc 41a0 053e
000003a0: 5eee 6bbc b29e 8e3e 1f42 123c 2352 a8bd
000003b0: 58e0 bc3d 7174 90bd 586e 963e 6e93 2d3c
000003c0: 2220 883d 0e22 01bd f24f 813d 93a9 053e
000003d0: 6b56 c13b 7bb4 233c feef 313e f284 253e
000003e0: 4625 1fbd 7d11 28be a97c 7c3e 4f83 083c
000003f0: 3028 353c cb93 f73c 7713 483e 9e1f e43d

se2.weight f4 [296, 9]
0.01375525 -0.0041495576 0.0010252052 -0.0026110583 -0.0013108379 0.01881767 0.00014644714 0.0037911048
-0.00048243394 -0.025947196 0.006110471 0.00033623655 0.001400587 0.0046969987 0.01867749 -0.0075326036
-0.009802453 5.034666e-05 -0.0057419366 0.007470045 -0.008458607 -0.0034400746 0.00025993426 -0.010601094
0.0015305838 0.008332303 -0.0019927705 0.0013551101 0.004856288 0.0054719932 -0.0062511167 -0.00034910874
-0.005280008 0.00083511474 0.006621979 0.005325354 0.020736355 0.0054200077 -0.0010836221 0.0057807495
-0.004128258 0.022276301 0.0007503817 -0.012298188 -0.0016741378 -0.0014299294 0.013725526 0.0033453908
-0.0025481428 0.0009889437 -0.0056129945 0.001699105 0.0162732 0.0005645909 -0.014741308 0.006657172
0.003729731 -0.0018323353 -0.0011326539 -0.011109881 -0.0019043401 0.013192188 0.004079081 -0.0016828696
-0.00042655884 -0.006397213 0.0008848366 -0.0052579436 -0.020736802 0.0040653087 0.008831295 -0.0007459711
-0.0061892634 0.009622641 0.001382002 -0.0035697937 -0.00028432495 -0.0068750298 0.001417579 -0.0008331324
-0.0026856258 -0.022192884 -0.0029494234 0.00960179 0.00043434586 0.002380516 0.016466903 -0.0021031306
-0.020712271 0.00047896817 0.004934969 -0.0050973487 -0.0018023421 0.0033536062 -0.0019737736 0.0112742465
-0.0013416625 -0.019363996 0.0050507924 -0.018647563 0.0036506562 0.009108649 0.011861877 -0.0025194502
0.0009655298 0.0015748398 -0.0018194889 0.00015680198 0.014291389 -0.005887536 -0.006274163 -0.0008322602
-0.0008986333 0.02849536 0.00035237355 -0.008972259 0.0016688877 -0.0043853126 0.0055456595 0.0029359933
0.0059064347 -0.0022388415 0.007421688 -0.00046188498 0.004503637 -0.0014995758 0.011763031 0.009595351
-0.00096985226 0.0013942608 -0.0036284057 0.010624447 -0.0015729049 -0.003449942 0.0021359497 -0.0174543
0.011156079 -0.0036658107 0.00197923 -0.00027123443 -0.02728057 0.004527723 -0.01281211 0.0027150419
0.01883747 0.0147993695 -0.0009672039 0.00025205815 -0.0009986626 0.0034214146 0.0030935109 -0.010094715
-0.0038774754 -0.036020014 -0.008527396 0.00025387612 0.0013174661 0.002918982 -0.027045924 0.0023261812
0.022419782 -0.0026727673 -0.029320246 0.0057381745 0.005321584 -0.0016831143 0.0029714438 -0.019771209
0.0006283317 0.006828928 0.0008574646 -0.0333494 0.0049782004 0.0024380998 -0.0016748914 -0.0030148756
-0.01622118 -0.0003794957 0.01718747 0.0030643707 -0.0144724045 0.013426812 0.012032269 0.0051813307
0.006651887 -0.016356416 -2.2148277e-05 0.0054493775 -0.00049951795 -0.014885367 0.0083392225 -0.00037480984
0.0018184679 0.0017907167 -0.010014462 0.0010293692 0.00053729134 0.00028720195 -0.008933892 0.0052288612
-0.0046549984 -0.0015337515 -0.00230301 -0.018927777 0.0038728458 -0.012434118 8.094065e-05 0.011634922
0.014619727 -0.0010349987 -0.00017608822 0.0025112994 -0.003856647 -0.00051460223 -0.00018366898 0.002048742
0.021179123 0.011860281 -0.002004135 0.003684826 -0.001631742 -0.00967343 -0.00031303964 -0.004163145
-0.0006314601 0.0013182831 -0.001794416 -0.0035031964 5.262799e-05 0.0033218684 -0.02050332 8.855364e-05
-0.004754979 0.0013749084 0.0049163136 -0.011221003 -0.0044099344 -0.001916662 -0.0008563988 -0.003456254
0.0019009967 0.0023658075 3.838219e-05 0.0077511356 -0.0053248066 -0.011500064 0.0022031004 -0.0056051165
-0.015915684 -0.00040788102 0.002359801 0.0012612261 0.01130327 -0.011122212 0.009529561 0.0014482883
00000000: b35d 613c 03f9 87bb 2e60 863a 4a1e 2bbb
00000010: 6cd0 abba 8427 9a3c 9b8f 1939 2f74 783b
00000020: 30ef fcb9 378f d4bc 593a c83b e848 b039
00000030: e793 b73a 48e9 993b 8901 993c 0fd4 f6bb
00000040: 789a 20bc 512b 5338 db26 bcbb 47c7 f43b
00000050: f895 0abc e072 61bb c947 8839 36b0 2dbc
00000060: df9d c83a 3684 083c 2499 02bb f39d b13a
00000070: 7f21 9f3b 684e b33b 2bd6 ccbb 9508 b7b9
00000080: eb03 adbb 9aeb 5a3a 30fd d83b 4f80 ae3b
00000090: 4adf a93c 529a b13b 5308 8eba 716c bd3b
000000a0: 5746 87bb ca7c b63c 43b5 443a 577e 49bc
000000b0: be6e dbba 786c bbba 07e1 603c 583e 5b3b
000000c0: befe 26bb 729f 813a 36ed b7bb 81b4 de3a
000000d0: 604f 853c 0e01 143a 8785 71bc 6824 da3b
000000e0: 816e 743b f82a f0ba 8f75 94ba 3806 36bc
000000f0: 0d9b f9ba 0c24 583c d0a9 853b bc93 dcba
00000100: c2a3 dfb9 b69f d1bb 61f4 673a d44a acbb
00000110: 3ae0 a9bc 4836 853b 23b1 103c 468d 43ba
00000120: 4ecf cabb 48a8 1d3c 4b24 b53a 33f3 69bb
00000130: 7311 95b9 ee47 e1bb 0fce b93a 9266 5aba
00000140: 5301 30bb dacd b5bc 1d4b 41bb d450 1d3c
00000150: eab8 e339 6e02 1c3b 99e5 863c add4 09bb
00000160: c8ac a9bc 051e fb39 85b5 a13b a907 a7bb
00000170: 913c ecba 2dc8 5b3b 6d5a 01bb 9eb7 383c
00000180: b9da afba 3ea1 9ebc 1e81 a53b c6c2 98bc
00000190: d93f 6f3b 713c 153c 5158 423c 5c1d 25bb
000001a0: 9c1b 7d3a db6a ce3a eb7b eeba 366b 2439
000001b0: 6e26 6a3c 3bec c0bb 7e97 cdbb 092c 5aba
000001c0: 4392 6bba 1a6f e93c c7be b839 6200 13bc
000001d0: 94be da3a abb2 8fbb 5db8 b53b cb69 403b
000001e0: c48a c13b 87b9 12bb a231 f33b 2729 f2b9
000001f0: 3f93 933b 6a8d c4ba bab9 403c d235 1d3c
00000200: af3d 7eba a1bf b63a 8cca 6dbb 2912 2e3c
00000210: ee29 ceba 6c18 62bb 4afb 0b3b 52fc 8ebc
00000220: fdc7 363c 193e 70bb f8b5 013b 7834 8eb9
00000230: 807b dfbc 4b5d 943b e2e9 51bc d8ee 313b
00000240: 0a51 9a3c 0e79 723c f48b 7dba ac26 8439
00000250: 8ee5 82ba d039 603b 80bc 4a3b 4e64 25bc
00000260: 3e1d 7ebb b989 13bd 7eb6 0bbc ad1a 8539
00000270: d4ae ac3a 644c 3f3b 6a8f ddbc d872 183b
00000280: b1a9 b73c 9829 2fbb 0331 f0bc 4c07 bc3b
00000290: af60 ae3b f29b dcba 8ebc 423b 3bf7 a1bc
000002a0: a0b6 243a 33c5 df3b 7ac7 603a 6199 08bd
000002b0: 2c20 a33b 87c8 1f3b 0888 dbba 3895 45bb
000002c0: 48e2 84bc 0df7 c6b9 bdcc 8c3c 9cd3 483b
000002d0: aa1d 6dbc 22fc 5b3c fe22 453c 27c8 a93b
000002e0: 13f8 d93b e4fd 85bc 10cb b9b7 b190 b23b
000002f0: 15f2 02ba c1e1 73bc 3ca1 083c 2082 c4b9
00000300: a859 ee3a 7bb6 ea3a b313 24bc e6eb 863a
00000310: 03d9 0c3a 9893 9639 755f 12bc de56 ab3b
00000320: f588 98bb 2908 c9ba 19ee 16bb 6d0e 9bbc
00000330: 92cf 7d3b 79b8 4bbc aebe a938 66a0 3e3c
00000340: 9487 6f3c cba8 87ba 52a4 38b9 9d94 243b
00000350: cdbf 7cbb 5fe6 06ba 4497 40b9 3044 063b
00000360: d77f ad3c a051 423c ce57 03bb 1f7d 713b
00000370: 2de0 d5ba 4e7d 1ebc 781f a4b9 fe6a 88bb
00000380: 9288 25ba 3eca ac3a 9c32 ebba e295 65bb
00000390: e0bc 5c38 b4b3 593b 94f6 a7bc e0b5 b938
000003a0: a8cf 9bbb 4536 b43a 0719 a13b 4cd8 37bc
000003b0: 3681 90bb 8138 fbba f37f 60ba 5282 62bb
000003c0: dd2a f93a aa0b 1b3b 90fc 2038 3dfd fd3b
000003d0: b77b aebb c46a 3cbc e461 103b 20ab b7bb
000003e0: 9c61 82bc ddd8 d5b9 e4a6 1a3b ba4f a53a
000003f0: 5a31 393c f039 36bc e021 1c3c 7ed4 bd3a

se2.bias f4 [296]
0.0012564888 0.00029636204 0.00090866955 8.5536594e-05 0.0017681485 -0.001057061 0.0012976119 0.0012378399
-0.00035018413 -0.0010979237 0.00088083406 -0.0026510933 0.0018099438 -0.0005633527 0.002035163 -0.0018315363
0.0006793211 -0.0026378674 -0.0019593933 0.0014180756 -0.006181967 -0.0021881314 8.0107544e-05 -0.0009529328
0.00039788114 -0.0014189759 -0.00018207495 0.0031290085 -0.00064225186 0.00027507544 -0.0016340382 -0.00093798654
0.0031297505 -0.0024007955 0.001140965 0.0031001354 0.0005594086 -0.0012194384 0.00012707806 0.00070152513
0.0008662515 -0.0025244807 0.0005183007 0.00016136888 -0.0025523878 -0.0022943537 -0.00069893635 0.0017548628
-0.0015508685 0.0031741774 -0.00062015443 -0.00013231394 -0.00086563546 -0.001980241 0.0010141159 0.003607151
-4.9178707e-06 0.00061029097 -0.00094732194 -5.5878212e-05 0.00021504815 -0.000114831215 0.0010277557 -0.0015969403
0.004677226 0.003506182 0.003626826 0.0012960014 0.0011797731 -0.0016698436 -0.0018943469 -0.001326317
0.005851479 -0.0017038833 0.00016362662 -0.00035627506 -0.0012171736 0.0021785842 -0.0014293336 -0.0016114111
0.006016624 0.0013831793 -0.003076843 0.0020008446 0.0027291714 -0.0012539433 0.00011171712 -0.0021634803
-0.0016638782 0.0002504015 -4.2054053e-05 0.0012904535 -3.2016418e-05 0.0026508027 0.00078851293 0.0010279885
0.0021905655 0.0016341006 0.0001160305 -0.00045717935 0.0005888459 -0.002117648 0.0012115686 -0.000485485
0.0024520392 -0.0025649641 -0.0008235112 0.00018026438 -0.0020490584 0.00068976526 -0.003975336 -0.0014398904
-0.0011395024 0.00028385856 0.0008215836 0.0017858472 0.0006231489 -0.001057532 0.0026521822 0.004082311
0.0023817106 0.0029643825 -0.0016327093 0.0002550014 -0.0019910473 -0.0041430937 0.00048317475 -0.00063404825
0.0011306747 0.0002896718 -0.0038938925 -0.0006664608 -0.00167989 0.0013260592 0.00039827786 -0.0015478481
0.0035098433 -0.003081492 0.00070869765 0.00073708873 -0.0009396223 0.00016538874 -0.0010377528 -0.0009644007
-0.0010602296 -0.0037079498 -0.0023244256 0.0011668458 0.00048169386 0.0010479797 0.0047659012 0.0033001415
-0.0039007377 0.003234242 0.0016312003 1.4229732e-05 -0.001142682 0.0022139477 0.0011476263 0.0015537062
0.00085501064 -0.0016727785 0.0014623571 0.00069265364 -0.0032778957 -0.0004963739 0.0003036655 0.0037228907
0.00026008097 -0.0010218368 -0.0010326726 -0.0027379063 0.0014555426 0.003037578 0.00073516933 0.00012540445
0.0018614513 -0.0020256967 -0.0029279422 -0.0020611763 -0.0023510193 -0.0015792518 -0.00070363993 0.0022933928
0.0001751327 -0.0023269318 0.00020560164 0.002178046 -0.001480361 0.0023863707 -0.01040035 -4.8699105e-05
-0.0011706267 -0.0015480287 0.0016087895 0.0002198031 0.00044562668 0.001193709 -0.0021739288 -0.00034255735
7.908288e-05 0.0017483644 -0.0034780724 0.0015993286 0.0013128273 0.0009817198 0.0013333809 -0.00048637507
-0.0011688158 -0.0013772502 0.002115759 -0.0010048317 0.0024238075 -0.00059721986 0.0023708916 0.0012374173
-0.00040078728 -0.00278999 -0.0018080863 -0.0007053199 0.0014386702 0.001994828 0.00095712766 -0.0022205678
-0.00016795547 0.0005334273 -0.0021595426 0.0001179738 0.0016801534 0.003930579 -0.00022262456 -0.0012179647
-0.0022647183 0.0024348467 -0.00031427873 -8.7112996e-05 -0.0005991756 0.0033039958 0.0012863836 -0.0020495297
-0.0005477191 0.00072278344 -7.714128e-05 0.0032939068 0.00042577888 -0.0004259442 0.0023079799 0.0010592812
0.0013482622 -0.0010411183 0.0013414414 0.00015322189 0.0031092917 -0.00013471974 -0.0040554674 -0.00564371
00000000: c5b0 a43a 0a61 9b39 c833 6e3a 1c62 b338
00000010: 38c1 e73a 158d 8aba a114 aa3a 043f a23a
00000020: eb98 b7b9 35e8 8fba c6e7 663a f7bd 2dbb
00000030: a33b ed3a f6ad 13ba 5f60 053b 2910 f0ba
00000040: 7814 323a 12e0 2cbb 2a69 00bb b9de b93a
00000050: 1992 cabb c166 0fbb 69ff a738 3dce 79ba
00000060: b49a d039 eefc b9ba 5feb 3eb9 0d10 4d3b
00000070: cb5c 28ba 0038 9039 392d d6ba 36e3 75ba
00000080: 801c 4d3b aa56 1dbb 6f8c 953a a42b 4b3b
00000090: 47a5 123a 90d5 9fba 4240 0539 8ee6 373a
000000a0: 2715 633a c271 25bb 92de 073a 2135 2939
000000b0: f645 27bb de5c 16bb d338 37ba 6d03 e63a
000000c0: 8346 cbba dc05 503b dc91 22ba c1bd 0ab9
000000d0: d0eb 62ba eec6 01bb 15ec 843a f465 6c3b
000000e0: 3004 a5b6 effb 1f3a b355 78ba c65e 6ab8
000000f0: 8c7e 6139 8ad1 f0b8 c2b5 863a 6d50 d1ba
00000100: 6a43 993b f9c7 653b 0bb0 6d3b 97de a93a
00000110: 9ea2 9a3a a7de daba bc4b f8ba d0d7 adba
00000120: c3bd bf3b d654 dfba 3093 2b39 6eca bab9
00000130: 9289 9fba 94c6 0e3b 7a58 bbba fc35 d3ba
00000140: 1a27 c53b cc4b b53a dca4 49bb 9a20 033b
00000150: e6db 323b 5b5b a4ba ac49 ea38 2dc9 0dbb
00000160: 7d16 daba 5248 8339 3263 30b8 6f24 a93a
00000170: 5e49 06b8 17b9 2d3b 35b4 4e3a 92bd 863a
00000180: 978f 0f3b 512f d63a 6655 f338 93b1 efb9
00000190: c85c 1a3a 3dc8 0abb 7fcd 9e3a b288 feb9
000001a0: 64b2 203b f518 28bb e7e0 57ba 5a05 3d39
000001b0: 7f49 06bb 5dd1 343a 8943 82bb b4ba bcba
000001c0: 5b5b 95ba dad2 9439 8b5f 573a 1713 ea3a
000001d0: d15a 233a e39c 8aba 3cd0 2d3b e8c4 853b
000001e0: 7916 1c3b 1646 423b a200 d6ba b5b1 8539
000001f0: 3b7c 02bb cac2 87bb 9e52 fd39 4236 26ba
00000200: 2633 943a 17df 9739 ad30 7fbb 6db5 2eba
00000210: c12f dcba 2acf ad3a f3cf d039 2ae1 caba
00000220: 6605 663b dbf2 49bb e5c7 393a 3039 413a
00000230: fc50 76ba 346c 2d39 3505 88ba d6cf 7cba
00000240: 67f7 8aba 1301 73bb 6455 18bb d9f0 983a
00000250: db8b fc39 5d5c 893a 472b 9c3b 3047 583b
00000260: 85a3 7fbb 94f5 533b 00ce d53a 3cbc 6e37
00000270: 0cc6 95ba e117 113b f36b 963a bba5 cb3a
00000280: cb22 603a 2241 dbba 90ac bf3a 3393 353a
00000290: f7d1 56bb 171f 02ba 4b35 9f39 befb 733b
000002a0: 7a5b 8839 27ef 85ba be5a 87ba 726e 33bb
000002b0: e8c7 be3a 1a12 473b 61b8 403a 007f 0339
000002c0: f1fb f33a 8dc1 04bb b8e2 3fbb cd14 07bb
000002d0: 8f13 1abb e6fe ceba 7a74 38ba bf4c 163b
000002e0: d4a3 3739 707f 18bb c596 5739 8cbd 0e3b
000002f0: ac08 c2ba a864 1c3b 3b66 2abc 4442 4cb8
00000300: b76f 99ba 39e7 caba 05de d23a f27a 6639
00000310: 00a3 e939 3a76 9c3a 7978 0ebb 4599 b3b9
00000320: 4cd9 a538 6029 e53a 5ff0 63bb 90a0 d13a
00000330: 2d13 ac3a 0dad 803a d7c4 ae3a 2800 ffb9
00000340: f332 99ba d984 b4ba 8ca8 0a3b 8fb4 83ba
00000350: bed8 1e3b bf8e 1cba f660 1b3b d630 a23a
00000360: c220 d2b9 44d8 36bb 4ffd ecba 38e5 38ba
00000370: c391 bc3a a9bb 023b c0e7 7a3a f286 11bb
00000380: 341d 30b9 b3d5 0b3a 1d87 0dbb b468 f738
00000390: 9838 dc3a 16cc 803b 5370 69b9 1da4 9fba
000003a0: ab6b 14bb f391 1f3b c7c5 a4b9 6fb0 b6b8
000003b0: fe11 1dba da87 583b df9b a83a 6751 06bb
000003c0: ce94 0fba 2d79 3d3a e9c6 a1b8 96de 573b
000003d0: 133b df39 4351 dfb9 7a41 173b 94d7 8a3a
000003e0: 2cb8 b03a 2276 88ba 4ed3 af3a 30aa 2039
000003f0: 42c5 4b3b 8e43 0db9 bae3 84bb dfee b8bb

e1.weight f4 [148, 296]
-0.00013604073 0.00020699548 0.0119403 -0.0058686254 -0.00188556 -0.00035990152 0.0088620335 0.0079915365
0.00668089 -0.008294523 0.00030670632 -0.0140440725 0.010369905 0.0022623215 0.006883602 0.0069387057
0.0011565622 0.0069198003 -0.017049355 0.006219305 -0.017492121 -0.004916539 -0.0014144112 -0.0004588982
-0.0022544588 0.0032610833 0.007621411 0.006606577 -0.0026911518 -0.0005089592 -0.015821889 -0.0034443077
0.005158503 -0.009418252 0.0004109305 0.0026254705 0.0049381605 -0.0063106264 0.0047207107 0.0004966402
0.0033236933 -0.009783702 -0.0063551124 -0.0017112779 -0.012024163 0.00796214 0.001670098 0.011554155
0.0112804845 -0.0058180946 -0.002086234 0.011083379 0.00084353203 -0.009129259 -0.0045648394 0.016092777
-0.008541605 0.0023151173 -0.0045921155 0.008980707 0.002064588 -0.012848293 0.0036816786 0.004878245
0.03508254 0.018371942 0.004206038 0.0037672087 -0.004304581 -0.0012610123 -0.007531752 -0.009287501
0.017446445 -0.002486128 -0.004978575 -0.00056723994 -0.0020704858 0.0020007093 0.0012541246 -0.0017928586
0.0139621915 0.000622506 -0.014841094 0.0050273035 0.015233779 -0.006635115 -0.0040879534 0.002708311
-0.006397146 0.004189465 -0.0065441206 0.0041576326 0.01870689 0.026252052 -0.0015061405 0.009418849
0.00062968483 0.0033569774 0.00033732297 -0.011556517 -0.0053736544 -0.009001002 0.022027018 0.0040639234
-0.00013394252 -0.00573307 0.008873271 -0.008726038 -0.007818069 0.0064716856 -0.0037538845 0.007043888
-0.00837071 -0.01321715 0.019349007 -0.005012839 1.8072249e-05 0.00691966 -0.0063717226 0.0095765125
-0.0005440861 0.017484449 -0.014271602 0.009281895 0.0037754325 -0.0023404201 -0.0010756052 -0.006003683
0.013664897 0.010080292 0.008857837 0.001118378 0.0021819896 -0.004021499 -0.0020454372 -0.009745207
0.0044253604 -0.030753342 0.0043761507 -0.0010595593 -0.003683026 0.0018474017 -0.00085719867 -0.005672094
-0.010022392 -0.012294173 0.00055180857 0.0045566554 0.0034718825 -0.005689768 0.01542703 0.002929971
-0.01228129 0.004206323 0.008620261 0.0041222745 0.00047097242 0.0085029 0.012512193 -0.003672509
0.0074020494 0.008871486 0.0010988341 -0.00088280847 -0.0142934015 0.0027505788 -0.0023720332 0.009093316
-0.007866662 0.003305362 0.0021739341 -0.010477778 0.004852317 0.0102957385 0.0031799613 -0.0092256
0.00062520854 -0.0018919209 0.00069236854 -0.008272022 0.0040272996 -0.0063314326 0.0032842103 0.005961737
0.00089057256 -0.0039922344 0.0020176212 -0.0033999793 -0.005425242 -0.01917773 -0.018385421 -0.0047343033
-0.0037044967 -0.0070761717 6.8552e-06 0.0035818776 -0.015539539 0.0055601024 -0.008316349 0.0041081663
0.0038427813 -0.0017357594 0.0036192064 0.0042460095 0.004552462 -0.0051331427 0.0030881127 -0.0055220635
-0.005704462 0.0063283723 0.001330977 0.002051475 0.010249503 -0.008080909 0.004391533 0.010173694
-0.01029774 -0.004701932 -0.010145529 0.0007581923 0.0035789625 0.007844921 0.007116439 -0.0008851364
-0.008528192 -0.005243309 0.00066501286 -0.0043657906 -0.009176411 0.027138682 -0.00080456503 -0.009132419
-0.0019815585 0.0005146866 0.00088853005 0.0010318542 -0.0022552968 0.003902762 0.0125256665 0.0012432297
0.0021146596 0.011332081 0.0042319964 0.0075673647 0.0011418144 -0.005474751 -0.001086332 -0.010694657
-0.0062954132 0.006423409 -0.014412293 -0.001701026 0.00897906 -0.0035933435 -0.007921882 -0.020427654
00000000: 28a6 0eb9 ed0c 5939 40a1 433c 994d c0bb
00000010: e524 f7ba 2ab1 bcb9 1032 113c efee 023c
00000020: 5eeb da3b c0e5 07bc 6dcd a039 1c19 66bc
00000030: 89e6 293c 7543 143b d78f e13b 155e e33b
00000040: ca97 973a 7ebf e23b 17ab 8bbc 50cb cb3b
00000050: a34b 8fbc eb1a a1bb c463 b9ba 4698 f0b9
00000060: 8bbf 13bb e6b7 553b 07bd f93b fc7b d83b
00000070: 095e 30bb ac6b 05ba e89c 81bc e5b9 61bb
00000080: a908 a93b 034f 1abc 2872 d739 1610 2c3b
00000090: 4bd0 a13b 5fc9 cebb 31b0 9a3b f630 023a
000000a0: 52d2 593b d24b 20bc 8c3e d0bb f54c e0ba
000000b0: ff00 45bc a373 023c 31e7 da3a a34d 3d3c
000000c0: c8d1 383c b7a5 bebb 33b9 08bb 1097 353c
000000d0: 7a20 5d3a e392 15bc a694 95bb 00d5 833c
000000e0: 17f2 0bbc 39b9 173b 7579 96bb d123 133c
000000f0: 0a4e 073b a681 52bc 5148 713b afd9 9f3b
00000100: b6b2 0f3d c180 963c ced2 893b 46e3 763b
00000110: 710d 8dbb 8d48 a5ba eacc f6bb 9a2a 18bc
00000120: d9eb 8e3c 4eee 22bb 5023 a3bb d4b2 14ba
00000130: fdb0 07bb 551e 033b 7061 a43a 5afe eaba
00000140: adc1 643c ac2f 233a 0f28 73bc 14bc a43b
00000150: 1a97 793c 616b d9bb 3df4 85bb eb7d 313b
00000160: 269f d1bb c847 893b 1070 d6bb c03c 883b
00000170: 313f 993c 8b0e d73c b069 c5ba 8451 1a3c
00000180: 6f11 253a bc00 5c3b b9da b039 8c57 3dbc
00000190: 7b15 b0bb f078 13bc 0172 b43c a92a 853b
000001a0: ec72 0cb9 7adc bbbb 3261 113c a8f7 0ebc
000001b0: 5c17 00bc 6f10 d43b bb03 76bb 6ad0 e63b
000001c0: 4d25 09bc bf8c 58bc cf81 9e3c be42 a4bb
000001d0: dc99 9737 51be e23b e2c9 d0bb cee6 1c3c
000001e0: 00a1 0eba 8c3b 8f3c 70d3 69bc 1713 183c
000001f0: 3f6d 773b bc61 19bb 52fb 8cba 8bba c4bb
00000200: bbe2 5f3c cf27 253c 7620 113c 8a96 923a
00000210: b6ff 0e3b c7c6 83bb be0c 06bb 5caa 1fbc
00000220: 9d02 913b 6fee fbbc d065 8f3b e9e0 8aba
00000230: ec5e 71bb 8424 f23a a1b5 60ba f9dc b9bb
00000240: f534 24bc 806d 49bc 3fa7 103a ff4f 953b
00000250: 8688 633b 3c71 babb a7c1 7c3c c204 403b
00000260: 7737 49bc 32d5 893b ff3b 0d3c 2514 873b
00000270: d9ec f639 bf4f 0b3c f1ff 4c3c 7aae 70bb
00000280: e48c f23b b659 113c c106 903a 466c 67ba
00000290: df2e 6abc 0e43 343b 1d74 1bbb 22fc 143c
000002a0: 2ce3 00bc c69e 583b 9078 0e3b fcaa 2bbc
000002b0: 2f00 9f3b 75af 283c e666 503b f926 17bc
000002c0: 09e5 233a 55fa f7ba 1180 353a 6087 07bc
000002d0: 70f7 833b e877 cfbb e83b 573b ad5a c33b
000002e0: 5075 693a 4ad1 82bb 113a 043b 30d2 5ebb
000002f0: 3ac6 b1bb 9d1a 9dbc 069d 96bc 3722 9bbb
00000300: 24c7 72bb 3bdf e7bb b805 e636 efbd 6a3b
00000310: 8d99 7ebc 8531 b63b 4c41 08bc cc9d 863b
00000320: 2cd7 7b3b 6c82 e3ba 3530 6d3b 1c22 8b3b
00000330: d22c 953b ec33 a8bb ef61 4a3b 6df2 b4bb
00000340: 7fec babb 3c5e cf3b 2d74 ae3a 0a72 063b
00000350: 88ed 273c ca65 04bc d9e6 8f3b 91af 263c
00000360: dab7 28bc aa12 9abb 6f39 26bc 6dc1 463a
00000370: 078d 6a3b fc87 003c 0431 e93b 8008 68ba
00000380: d4b9 0bbc 10d0 abbb 4254 2e3a e80e 8fbb
00000390: a858 16bc f151 de3c 72e9 52ba 24a0 15bc
000003a0: 09dd 01bb 08ec 063a 3eec 683a 483f 873a
000003b0: 9acd 13bb 7bc5 7f3b 7438 4d3c def3 a23a
000003c0: 1a96 0a3b 31aa 393c 8fac 8a3b a8f7 f73b
000003d0: efa8 953a 8a65 b3bb 4163 8eba a538 2fbc
000003e0: c149 cebb 767b d23b 8a21 6cbc f6f4 deba
000003f0: e81c 133c 4d7e 6bbb c8ca 01bc e557 a7bc

e1.bias f4 [148]
0.0013791965 0.0003448603 -0.00022546377 -0.0009911653 0.0003366702 0.001158578 0.0006464588 0.00037337327
0.00012133251 -0.00044584816 0.0002820387 -0.00014175211 2.7321832e-05 0.0003961407 -0.001245746 0.00013828118
0.00065105525 2.6084312e-05 0.00012797292 0.00030195626 0.00028673123 0.00034893007 0.00043128373 0.0005503474
-0.00050101476 -0.0010090441 0.0008182451 0.0010237424 0.0002722058 -0.0013330897 -0.00080528285 0.00020697262
-0.00019170661 0.0005532879 0.00079077884 -0.0007710694 -0.00015823907 -0.0012569701 -0.000996091 0.00048716957
0.00049953937 -0.0010835488 0.0004483541 0.00036921483 -0.0008303669 0.00082566653 -0.0007569002 -3.1446827e-05
-0.0005814933 -0.0002104363 -0.0004960766 0.0007481679 8.143038e-05 0.00081887835 -0.00028578046 -0.0008214975
9.086897e-05 0.0007586102 -0.00069055293 0.00040470014 0.00051359955 -6.290282e-05 9.170175e-05 -2.7909977e-05
-0.0003913709 -7.6287666e-05 -0.00035240932 -0.00071225263 -0.0009846837 4.927956e-05 0.000720478 -0.0006767561
0.00057176966 0.0005490109 -0.00042851956 -0.00035659992 0.00033406937 0.0005615959 -3.1113887e-06 -0.0005672269
0.00059221016 -0.0012749254 0.00032594823 0.00060954667 -0.0008674091 -1.6605001e-05 -0.0006051989 0.000120509634
0.0013057336 -0.00079105323 0.00031183026 0.0005632547 0.0003984606 -1.2195796e-05 -0.00048095157 -0.00065928313
-0.0002959997 -0.00050254696 0.0001819277 -0.00020194004 0.00042663596 -0.00081446505 0.00048344393 0.00029461083
-0.000636995 0.0009797367 -0.0007372164 0.00033702084 -2.2576514e-05 0.00024607516 0.00044196303 -0.0013815109
-0.00047370346 0.0004284242 0.0003869477 0.00030408392 0.00013947772 0.00024064264 0.0007224439 0.00052884157
0.0003089411 -0.00016605697 -9.6414165e-05 -0.0010624685 -0.00016031635 0.00015130421 0.00034663186 0.0010517433
-0.00060452847 -0.000100748206 0.0006856619 7.844143e-05 -0.0008471981 -1.5248243e-05 -0.00067500444 0.0009175458
-0.00012578443 0.00024686192 0.0011287369 -0.00070807576 -0.00040005683 -0.0006191028 0.00095580035 0.00068256824
-0.0013038424 7.644121e-07 0.00027789117 0.0011340703
00000000: 28c6 b43a 5ece b439 786a 6cb9 fde9 81ba
00000010: 1c83 b039 6ddb 973a 1e77 293a 50c1 c339
00000020: e573 fe38 bac0 e9b9 98de 9339 4ba3 14b9
00000030: 3031 e537 1bb1 cf39 4d48 a3ba 92ff 1039
00000040: 94ab 2a3a a2cf da37 7830 0639 e24f 9e39
00000050: 6a54 9639 9af0 b639 ec1d e239 3045 103a
00000060: 8856 03ba e741 84ba 807f 563a 182f 863a
00000070: d8b6 8e39 11bb aeba 9e19 53ba ca06 5939
00000080: da04 49b9 860a 113a 454c 4f3a 9721 4aba
00000090: faec 25b9 ebc0 a4ba 458f 82ba cb6a ff39
000000a0: 85f3 023a dd05 8eba 1211 eb39 2d93 c139
000000b0: fbac 59ba 8b71 583a b66a 46ba c6e5 03b8
000000c0: 5b6f 18ba 90a8 5cb9 230b 02ba b320 443a
000000d0: 9ac5 aa38 ffa9 563a ced4 95b9 c459 57ba
000000e0: e890 be38 78dd 463a 3906 35ba ef2d d439
000000f0: 15a3 063a b2ea 83b8 0150 c038 3820 eab7
00000100: ea30 cdb9 a1fc 9fb8 94c3 b8b9 77b6 3aba
00000110: 8110 81ba 86b1 4e38 76de 3c3a 5568 31ba
00000120: d0e2 153a 7feb 0f3a ecaa e0b9 08f6 bab9
00000130: 0826 af39 1038 133a 40cd 50b6 f4b1 14ba
00000140: 8d3e 1b3a 661b a7ba 08e4 aa39 fcc9 1f3a
00000150: d762 63ba f84a 8bb7 36a6 1eba 1eba fc38
00000160: 2625 ab3a af5e 4fba 267d a339 62a7 133a
00000170: 7ae8 d039 8c9c 4cb7 3a28 fcb9 bed3 2cba
00000180: 6830 9bb9 5bbd 03ba d8c3 3e39 debf 53b9
00000190: 1cae df39 d381 55ba bf76 fd39 ff75 9a39
000001a0: 03fc 26ba 826a 803a c141 41ba 2cb2 b039
000001b0: b262 bdb7 a603 8139 46b7 e739 d013 b5ba
000001c0: 675b f8b9 1f9e e039 3edf ca39 746d 9f39
000001d0: c440 1239 0455 7c39 6462 3d3a f5a1 0a3a
000001e0: 5ff9 a139 941f 2eb9 f631 cab8 8742 8bba
000001f0: 981a 28b9 6aa7 1e39 24bc b539 a6da 893a
00000200: 3879 1eba c848 d3b8 febd 333a ec80 a438
00000210: 8116 5eba b4d2 7fb7 c8f2 30ba 7587 703a
00000220: 00e5 03b9 3f6d 8139 20f2 933a 299e 39ba
00000230: b8be d1b9 494b 22ba ad8e 7a3a 61ee 323a
00000240: b1e5 aaba 0032 4d35 ecb1 9139 16a5 943a

e2.weight f4 [21, 148]
-0.0028412174 0.0003199986 0.005968804 -0.0022905213 -0.004235249 0.0038151501 -0.009462264 -0.0069032484
0.003570592 0.00835068 0.004598371 -0.0077619986 0.009140408 0.00042662316 0.0054144855 0.0042911354
-0.0018542252 -0.0020215623 -0.0016640569 -0.003720636 -0.00022944319 0.008272891 -0.006885411 0.005838774
0.001824469 0.0037629467 0.0035361033 -0.0022719894 0.007941052 0.0011458052 -0.001875702 0.0016724521
-0.0011940387 0.00830969 -0.003326738 0.00082863687 0.0033694021 0.008060762 0.008399155 -0.00833552
-0.0076421537 -0.0029423586 -0.005746604 0.0040089637 -0.0014220136 -0.008261779 -0.0051032067 -0.0049550747
0.007176905 0.008300372 0.0023403924 -0.0042281095 -0.00026434634 -0.003755942 0.00025105974 -0.0020280369
0.0041314266 -0.0030940883 0.005735121 0.001175029 0.00073638605 -0.0031841318 0.00500332 0.00507405
0.0011221516 -0.012748966 -0.010043886 0.013422563 0.00034185936 -0.0043106168 -0.0018647251 -0.006157918
0.0011565934 -0.007247772 0.006810668 -0.0044840723 0.0008167268 -0.010404474 0.010581618 0.0010880652
-0.008936188 0.0023439813 -0.0039589363 0.004930838 0.0042378064 -0.007662653 0.00046617977 0.006299884
-0.013730559 -0.004359594 -0.0056357114 0.0011466093 -0.0047141938 -0.0029720447 0.006791863 0.00012436244
-0.0066674757 -0.00067073706 0.004450067 -8.9400375e-05 -0.005064316 -0.0009875825 -0.0045415387 0.0028550853
-0.0032375455 -0.0011713882 0.016782926 -0.007350002 -0.00095999456 0.0018385681 -0.004975723 0.0031993347
0.0014330869 -0.0022691342 0.0018019414 -0.00306454 0.008901156 0.0017215089 0.0396545 0.003850623
0.004905724 0.00859446 0.012738316 -0.010208936 0.004747534 0.0037244493 0.0036871056 -0.0002920696
0.0038293088 -0.008336201 0.010153351 0.0046919878 -0.0023506181 -0.00066770386 -0.00021338798 -0.0045723263
-0.0023630518 -0.0022839028 -0.005219117 -0.0011559308 -0.0034105047 0.0056273765 0.00033397294 -0.0027918024
-0.006626395 -0.00092667266 0.004128913 0.009435175 -0.0018703288 0.003495846 0.0012938307 -0.00020548239
-0.0037838847 -0.0023996122 -0.0023219464 0.0002921413 -0.0017561332 -0.0049839006 0.01040853 -0.00047485947
0.0006248319 0.0008082115 -0.002306751 -0.0036523733 0.004493171 -0.004036517 0.0026747186 -0.005717512
0.004099344 -0.0036211961 -0.00019578196 -0.0034278135 -0.0009514685 -0.0026984003 -0.004834267 0.005252268
0.0076358295 -0.00020523502 -0.0025001885 0.0002569827 0.0029197568 -0.00070848904 -0.0056789997 0.0036949764
-0.0039217663 -0.0036441102 -0.00332793 -0.0021139348 0.0020171201 -0.003490947 -0.002580034 0.0020472002
-0.0041080173 -0.0032268364 -0.0036895324 -0.0009403677 -0.007094651 -0.0023590997 -0.0013710724 0.0068108207
-0.0010724321 -0.00095505174 0.0007130165 0.0038881325 -0.00047291783 0.0007553337 -0.0003812582 0.0026059477
-0.0042421315 -0.0028597468 0.0043753823 0.0014907096 -0.0007180526 0.00057984394 -0.00089884736 0.006379193
-0.0041584643 0.00090456504 -0.0015135274 -0.0044707595 0.0008293154 0.0005215462 -0.0063527166 0.0026206991
0.002031466 -0.0047850595 0.0019574154 -0.0029359048 0.006184239 -0.0007382255 0.0043365746 -0.0074912403
-0.0074621993 -0.0028318935 -0.000366364 0.0012471185 0.005289392 -0.0034375247 -0.0028799411 -0.0016273786
0.0030801743 0.0008252045 0.002738187 -0.0013769994 0.0016904238 -0.0034919363 0.0011914744 0.0027507679
0.0054863323 -0.004184217 -0.002731892 0.0007874681 0.0024354386 0.003107859 -0.004998777 -0.00078768656
00000000: b833 3abb 7cc5 a739 f595 c33b 921c 16bb
00000010: d8c7 8abb 9907 7a3b 9d07 1bbc a534 e2bb
00000020: 9800 6a3b 4ad1 083c efad 963b 5d58 febb
00000030: a6c1 153c 64ac df39 ff6b b13b a79c 8c3b
00000040: 7909 f3ba 307c 04bb 7c1c daba ead5 73bb
00000050: b096 70b9 058b 073c 049f e1bb 3053 bf3b
00000060: 0523 ef3a c59b 763b f8bd 673b a8e5 14bb
00000070: 301b 023c d82e 963a 1dda f5ba 2e36 db3a
00000080: 4a81 9cba 5e25 083c 6705 5abb e138 593a
00000090: 30d1 5c3b 4911 043c 9c9c 093c b491 08bc
000000a0: 086b fabb 96d4 40bb 024e bcbb a05d 833b
000000b0: dc62 baba 6a5c 07bc cd38 a7bb 2e5e a2bb
000000c0: 3e2c eb3b 49fe 073c 4561 193b f48b 8abb
000000d0: f797 8ab9 4026 76bb aba0 8339 d0e8 04bb
000000e0: eb60 873b 30c6 4abb afed bb3b 6e03 9a3a
000000f0: 080a 413a deac 50bb e4f2 a33b 3744 a63b
00000100: 2915 933a 0ae1 50bc 1c8f 24bc 4fea 5b3c
00000110: 963b b339 1340 8dbb cb69 f4ba 5cc8 c9bb
00000120: d698 973a b87e edbb 062c df3b 20ef 92bb
00000130: 9c19 563a 8777 2abc 865e 2d3c 699d 8e3a
00000140: 1769 12bc 7b9d 193b f7b9 81bb de92 a13b
00000150: 4cdd 8a3b fe16 fbbb 9769 f439 426f ce3b
00000160: 23f6 60bc edda 8ebb c6ab b8bb d349 963a
00000170: 8679 9abb a3c6 42bb 478e de3b 4a67 0239
00000180: d77a dabb 67d4 2fba ded1 913b 767c bbb8
00000190: 90f2 a5bb c571 81ba 30d1 94bb 621c 3b3b
000001a0: 002d 54bb 4489 99ba 597c 893c 49d8 f0bb
000001b0: 25a8 7bba 1cfc f03a 640b a3bb eeab 513b
000001c0: 6bd6 bb3a c1b5 14bb 1f2f ec3a 73d6 48bb
000001d0: 27d6 113c 41a4 e13a c26c 223d bc5a 7c3b
000001e0: 32c0 a03b c7cf 0c3c 5fb4 503c 6243 27bc
000001f0: 3491 9b3b e415 743b 5ea3 713b eb20 99b9
00000200: 24f5 7a3b 9094 08bc 3e5a 263c 3fbf 993b
00000210: d40c 1abb d908 2fba e6c0 5fb9 74d3 95bb
00000220: 6edd 1abb 88ad 15bb 2005 abbb 9a82 97ba
00000230: c682 5fbb db65 b83b 1719 af39 acf6 36bb
00000240: 3b22 d9bb f3eb 72ba d54b 873b fe95 1a3c
00000250: d225 f5ba 901a 653b c195 a93a c276 57b9
00000260: 0dfb 77bb d042 1dbb cc2b 18bb 8b2a 9939
00000270: 0d2e e6ba fd4f a3bb 8a88 2a3c 8ff6 f8b9
00000280: c2cb 233a 28de 533a dc2c 17bb a85c 6fbb
00000290: 733b 933b c244 84bb 554a 2f3b f859 bbbb
000002a0: ca53 863b 9751 6dbb d24a 4db9 2ba5 60bb
000002b0: f86b 79ba a5d7 30bb c568 9ebb 381b ac3b
000002c0: fb35 fa3b 5b34 57b9 34da 23bb a2bb 8639
000002d0: 6459 3f3b e5b9 39ba e716 babb 6b27 723b
000002e0: 2982 80bb 06d2 6ebb 6719 5abb f189 0abb
000002f0: a931 043b 5fc8 64bb ca15 29bb 522a 063b
00000300: 8c9c 86bb 5579 53bb 15cc 71bb 0283 76ba
00000310: 3f7a e8bb 209b 1abb 8eb5 b3ba 4e2d df3b
00000320: da90 8cba 705c 7aba bae9 3a3a 0ad0 7e3b
00000330: f5f1 f7b9 9601 463a 9ce3 c7b9 8cc8 2a3b
00000340: 9401 8bbb 976a 3bbb 5e5f 8f3b ea63 c33a
00000350: b23b 3cba ab00 183a a0a0 6bba 8d08 d13b
00000360: ba43 88bb 5520 6d3a 8d61 c6ba 737f 92bb
00000370: 6a66 593a 5fb8 083a 732a d0bb 09c0 2b3b
00000380: 5822 053b fdcb 9cbb fb47 003b 4f68 40bb
00000390: 28a5 ca3b 7a85 41ba d319 8e3b 1479 f5bb
000003a0: 7785 f4bb 4a97 39bb 8b14 c0b9 5a76 a33a
000003b0: a352 ad3b 1848 61bb 65bd 3cbb c44d d5ba
000003c0: c0dc 493b 8952 583a 2873 333b 6f7c b4ba
000003d0: 3691 dd3a f8d8 64bb 3f2b 9c3a 3a46 343b
000003e0: b1c6 b33b c21b 89bb 8b09 33bb 176e 4e3a
000003f0: e19b 1f3b 39ad 4b3b c8cc a3bb c07c 4eba

e2.bias f4 [21]
0.0004703278 0.0008534087 -0.0007309227 0.00037613267 -0.0002641843 9.134243e-05 -5.5941502e-05 0.00026125312
0.0002119306 0.00016736919 -0.00047988564 0.001314026 -0.00058272807 0.00013063049 -0.0005768934 7.537475e-05
-8.322895e-06 -7.355104e-05 7.811887e-05 -2.0391766e-05 0.0007178463
00000000: 5496 f639 4ab7 5f3a 649b 3fba ac33 c539
00000010: 3782 8ab9 188f bf38 bba2 6ab8 cdf8 8839
00000020: b039 5e39 d37f 2f39 2999 fbb9 653b ac3a
00000030: 38c2 18ba dbf9 0839 a93a 17ba 8312 9e38
00000040: 90a2 0bb7 6a3f 9ab8 c0d3 a338 fc0e abb7
00000050: da2d 3c3a

e3.weight f4 [21, 148]
0.014143517 -0.005173425 0.0023190822 0.0018476854 0.00788216 0.011303024 0.016632797 -0.0031541735
0.0054643694 0.0020879207 0.0031288892 0.0040528756 0.0069939326 0.0029484406 -0.0013068735 0.0045886273
0.006514487 -0.0057264795 0.010549233 -0.010890215 -0.008567047 -0.004915611 -0.009253062 0.008738739
-0.00017762289 0.0025166841 -0.005815907 -0.0029387656 0.0035202364 0.002233203 0.00036263495 0.0039719073
0.007705658 -0.009959908 -0.0033041895 -0.0031047964 0.0010954094 0.00647883 0.0048986296 0.0054550874
-0.007515149 -0.009924555 -0.0011150346 0.0047053844 -0.0021568413 0.007417176 -0.0052665547 -0.0044539464
0.006298823 -0.0059037716 -0.00040031224 -0.004132617 0.0048455363 -0.0019018105 0.007653691 0.0052406746
0.02049911 0.00572025 -0.0049161687 0.007621429 0.002658039 -0.0047045806 -0.0014107235 0.0049537043
-0.017827263 -0.0013727127 -0.011356472 -0.005709395 0.0063870503 -0.0101073235 0.011099912 -0.011663599
0.006588382 -0.01234665 0.020610997 -0.008537915 0.006684616 -0.00011767133 0.002618135 0.009551615
0.00010217171 -0.01250699 -0.007067193 0.012139794 -0.006114083 -0.006559012 0.009026307 0.0007939426
-0.005125261 0.00081836816 -0.0037106504 -0.004213651 -0.004182897 -0.00060081197 -0.0015634892 0.004636322
0.0008854233 -0.0038476267 0.0029224937 -0.007183193 0.009280665 0.0036979774 -0.0023954967 0.0073728
-0.006402505 0.0037492039 0.005219953 -0.0014440304 0.0010488343 0.0090342425 0.004874595 0.0070232647
-0.00040211546 -0.0037285225 -0.004185802 -0.0026387474 0.012993953 -0.008752653 -0.015645342 -0.0008822661
-0.004341161 0.0031928597 0.0015050529 0.00048962893 0.012553227 -0.003463877 -0.0060211644 -0.0013103972
0.0007201369 -0.0058335215 0.008751519 0.004586446 -0.0001260959 -0.0056520295 -0.0019330133 0.0045438437
0.012446157 -0.006224399 0.0024124635 -0.010153755 0.0008463886 0.0020735245 0.010459844 0.0017818587
-0.006220475 0.008816779 -0.003443462 0.0054278215 -0.008304305 0.0020200463 -0.0015694811 -0.0052362047
0.002981305 0.019512517 0.0033960564 0.00010019786 0.015561619 0.018864319 0.0064059324 -0.014279814
0.00087157765 0.0051101074 -0.002586546 -0.0025961217 0.002429924 0.0012878942 0.0013618057 -0.018335043
-0.006442332 -0.0023914522 -0.00428065 0.008705982 -0.006272241 0.0050256406 0.014913212 -0.0013647215
-0.00044189047 0.004520691 -0.0067388825 0.016891504 0.006318141 -0.0034641589 0.0014996686 0.002112053
0.016510652 0.00280698 -0.0035705564 0.0030774805 0.0016004348 -0.005572426 0.004022715 -0.0007974496
-9.333918e-05 8.451214e-05 -0.0049447273 -0.0016612533 0.010361729 -0.0047570583 0.0023973216 -0.004466719
0.011385271 -0.0012827688 -0.007682641 -0.0014781203 0.009219239 0.016469741 -0.018116418 0.0069378396
-0.0029833666 -0.002570503 0.0036446857 0.0045247204 -0.013617057 0.00073406816 -0.0039796014 -0.016886739
-0.003424057 -0.01073015 0.0080412 -0.010190285 0.0127699785 -0.0026298773 0.005441324 -0.0055135475
0.00890712 0.0028247682 -0.010376752 0.000972193 0.005563849 -0.012132338 -0.009736396 0.011520044
-0.009517747 -0.004649956 0.011044901 -0.0067171617 0.004949135 -0.006721532 -0.0049595875 -0.0018826793
-7.534901e-05 0.0037002177 0.0017401582 0.017005082 0.00048587305 -0.006555943 0.0056342566 -0.011846755
0.015257164 0.015214752 -0.0070236158 0.0001524669 -0.012928384 0.008784799 0.0077413353 0.005582057
00000000: 36ba 673c d685 a9bb befb 173b 092e f23a
00000010: 2d24 013c 5230 393c 8141 883c 40b6 4ebb
00000020: 740e b33b 7fd5 083b 0d0e 4d3b fccd 843b
00000030: 5c2d e53b a03a 413b 664b abba 325c 963b
00000040: 7a77 d53b 31a5 bbbb b1d6 2c3c df6c 32bc
00000050: cd5c 0cbc 2213 a1bb 289a 17bc ee2c 0f3c
00000060: 4840 3ab9 f4ee 243b 5d93 bebb 4e98 40bb
00000070: c4b3 663b ee5a 123b 0a20 be39 c626 823b
00000080: bf7f fc3b e22e 23bc 1a8b 58bb d779 4bbb
00000090: d793 8f3a 5d4c d43b af84 a03b 97c0 b23b
000000a0: a441 f6bb 9a9a 22bc 5a26 92ba a02f 9a3b
000000b0: cb59 0dbb c80b f33b 1093 acbb 69f2 91bb
000000c0: 5b66 ce3b 6d74 c1bb 00e1 d1b9 e76a 87bb
000000d0: 4ec7 9e3b 2c46 f9ba d0cb fa3b f7b9 ab3b
000000e0: c0ed a73c ef70 bb3b d017 a1bb 2ebd f93b
000000f0: 7f32 2e3b e228 9abb 07e8 b8ba af52 a23b
00000100: 7b0a 92bc 98ec b3ba 7f10 3abc e015 bbbb
00000110: 764a d13b 3099 25bc 68dc 353c ae18 3fbc
00000120: 5be3 d73b 9a49 4abc 65d8 a83c 9ce2 0bbc
00000130: a00a db3b 50c6 f6b8 0495 2b3b 617e 1c3c
00000140: 0545 d638 1eea 4cbc e993 e7bb fde5 463c
00000150: a558 c8bb fbec d6bb 13e3 133c 9620 503a
00000160: cef1 a7bb c287 563a 622e 73bb ab12 8abb
00000170: af10 89bb cf7f 1dba feed ccba 4aec 973b
00000180: c01b 683a 7728 7cbb 4f87 3f3b fe60 ebbb
00000190: ee0d 183c c459 723b c4fd 1cbb 8797 f13b
000001a0: 1bcc d1bb 34b5 753b 240c ab3b 9f45 bdba
000001b0: 0a79 893a 5c04 143c 11bb 9f3b 6a23 e63b
000001c0: 06d3 d2b9 3a5a 74bb 0d29 89bb d6ee 2cbb
000001d0: 97e4 543c 4a67 0fbc a92a 80bc e047 67ba
000001e0: 4c40 8ebb 4c3f 513b 3245 c53a 715a 003a
000001f0: 0dac 4d3c 3602 63bb 304d c5bb a2c1 abba
00000200: 92c7 3c3a 2027 bfbb 8862 0f3c e649 963b
00000210: 9c38 04b9 a934 b9bb 2a5d fdba 86e4 943b
00000220: f7ea 4b3c 0bf6 cbbb 6c1a 1e3b ef5b 26bc
00000230: 2de0 5d3a f8e3 073b c45f 2b3c 428d e93a
00000240: 20d5 cbbb 4074 103c b5ab 61bb dedb b13b
00000250: c80e 08bc c162 043b 0cb7 cdba 7894 abbb
00000260: ff61 433b b7d8 9f3c 5f90 5e3b 5121 d238
00000270: 29f6 7e3c 5889 9a3c dbe8 d13b e2f5 69bc
00000280: 967a 643a b072 a73b 0a83 29bb b223 2abb
00000290: 5c3f 1f3b 8fce a83a 9e7e b23a 5f33 96bc
000002a0: 331a d3bb e9b9 1cbb b244 8cbb 89a3 0e3c
000002b0: 5f87 cdbb 21ae a43b 8b56 743c 74e0 b2ba
000002c0: 89ad e7b9 4e22 943b d8d1 dcbb 0d60 8a3c
000002d0: 6808 cf3b f106 63bb 8790 c43a 5f6a 0a3b
000002e0: 5941 873c 4ff5 373b ffff 69bb 8eaf 493b
000002f0: aec5 d13a e698 b6bb fbd0 833b f00b 51ba
00000300: 17bf c3b8 1c3c b138 6107 a2bb 69be d9ba
00000310: 3ec4 293c 19e1 9bbb 621c 1d3b 8e5d 92bb
00000320: 4a89 3a3c 9422 a8ba aabe fbbb 7dbd c1ba
00000330: 4a0c 173c 8deb 863c e268 94bc d156 e33b
00000340: 9684 43bb e275 28bb aedb 6e3b 1b44 943b
00000350: 141a 5fbc 7b6e 403a 5167 82bb 0f56 8abc
00000360: 2566 60bb 83cd 2fbc 3dbf 033c 27f5 26bc
00000370: 2c39 513c 055a 2cbb 224d b23b fdaa b4bb
00000380: 2bef 113c bf1f 393b 4103 2abc c5da 7e3a
00000390: f350 b63b b7c6 46bc 6885 1fbc 91be 3c3c
000003a0: 53f0 1bbc a85e 98bb acf5 343c a31b dcbb
000003b0: 5a2c a23b 4c40 dcbb 0984 a2bb 3cc4 f6ba
000003c0: b104 9eb8 5a7f 723b 0516 e43a 3e4e 8b3c
000003d0: c7bc fe39 3cd3 d6bb 929f b83b e418 42bc
000003e0: 2ff9 793c 4c47 793c 5c26 e6bb 86df 1f39
000003f0: 93d1 53bc 1eee 0f3c 07ab fd3b b0e9 b63b
