carla/self_explaining_model/catalog/vcnet/library/vcnet_tabular_data_v0/save_models/vcnet_model_adult_dataset.pt (torch, 835811 bytes, 19 tensors)

se1.weight f4 [304, 13]
00000000: 28fd 5f3e d49f 623e 0194 a1bd 1505 a63e
00000010: c77e a0bd a4b2 533d 337a 0fbe 666f 473e
00000020: 534b 7d3e d70e 52be 8ec4 773e 01b5 653d
00000030: 69a6 563e 20ba 503d 4e90 013e e6f9 c5bc
00000040: d753 ad3e 1321 103e b874 e4bd de74 b63d
00000050: 5677 09be 5656 8ebc fe3e c3bd 0848 443e
00000060: d842 5abe 5563 f8bd 8e6c cebd b5d0 2cbe
00000070: 828b 543c fb66 02bf fd2a 0f3e 5640 7dbe
00000080: e722 453e 0ccc 743d 3d48 b0bd c435 3b3e
00000090: c662 163d c0d2 693e 4cb9 1d3d 7604 aabd
000000a0: 9e28 773d b531 b9bd 6c6d 533e 8510 873e
000000b0: 1f3a 103e 58c6 1abe 2482 2b3e d8a0 753d
000000c0: 1867 163e 5b05 36be d76e 8cbe fc5a ebbd
000000d0: 8e5b 60be bd76 673e 4495 b23d 25bd d03d
000000e0: 6da2 0a3e 8fad 07b9 4a73 6d3e 6f74 4fbe
000000f0: 1cf9 bb3c ac62 41be 942d c23d f0bf e9bd
00000100: 7870 b03d 845d 76bd 5213 723e 0e98 22be
00000110: e701 a4be ba9e 4fbe b0a7 813e 1679 d53d
00000120: bb93 913e 79df 70be bab1 8fbe aec0 54be
00000130: 526d 4fbe 6b99 f03d d22e c43d 8691 793e
00000140: 2df8 14be e564 e2be e8b8 123e e549 e4bd
00000150: c390 3f3e 9d6e 70bd cf07 2f3e d375 64be
00000160: 276d 01be d44a c13d 0460 923d 60b3 16bd
00000170: 19ce 423e 89a4 653e a619 85bd b218 07be
00000180: 3835 8f3e 1084 acbd 05bb cbbd 5740 92be
00000190: 719b 11be 15a7 a93d 8cb7 afbc 4d95 56be
000001a0: de35 6dbc 3e6f 3dbe 438f 72be 7ce8 e1be
000001b0: b681 9ebe 9fb2 3dbe b795 9b3e 920e 8a3d
000001c0: 8377 b03d 3dd4 7ebe 990d 26be 1f3e dfbd
000001d0: 70b4 7e3d 72a5 79be 160a ffbd e062 38be
000001e0: ec7f 403d 552a f0bd 2064 15bd f23e 42be
000001f0: 9a62 48be e822 39be 463d e6bd dd5c 7bbe
00000200: 5273 4d3e f921 76bd b831 763e f90f d73d
00000210: 3b49 6fbe 31e8 3e3e 7fcc f7bc 9b09 cbbd
00000220: 8cb4 5abe 94e0 89be e080 e53d 8f9e 36bd
00000230: f9e2 043e 7820 5cbe 7087 6e3e b0e4 49be
00000240: e337 30bd eaf8 6c3d 30a8 1e3e e0d3 5f3e
00000250: 1ac2 7f3e f702 69be 3336 913d bd3b f3bd
00000260: dcdf f0bc 683e 57be 78a0 863e fb6e 58be
00000270: bf38 303e 4ee0 ee3d 7b96 cb3d 8f98 a8bd
00000280: 2aae be3e bb33 8e3d f986 483d 8164 7ebe
00000290: d9c7 f73d 075a 3fbd d1f2 09be 9508 843e
000002a0: 2b88 983d 45ea 30be 3c81 14be 6453 a7bc
000002b0: 8eaf 7b3d 4e6e cdbd fce2 2ebe 7e11 e2bd
000002c0: df0d 6bbe 2b06 e13d 3480 633e 9f27 91be
000002d0: f6d8 873d e6aa 163e b463 4d3d acff cebd
000002e0: 1292 103e 0a46 843e 971e 813d 2b91 65bd
000002f0: 93f6 82bd 3295 313d 51f1 4fbd c44c 97bd
00000300: 929d 3e3e 27a0 813e 932f ddbc 6e07 4abd
00000310: e4c6 8cbc 2d2d aebc 3f42 1f3d 2147 4b3d
00000320: c449 86be ae0c f6bd 9352 7e3e 35cf f93d
00000330: 527a 81bc 5d5c 2ebe 3f70 25be 669c 8dbe
00000340: 1ba0 a9bd ad6a c03d 8e63 433e cad1 4f3e
00000350: 5c2d a2be 8e1c 1dbe b24f f8bc b876 8d3e
00000360: 169e c93c 8760 64bd 400c 063e 4882 eabd
00000370: ef1d 39be 214d 563e 5a45 e1bd 1b08 4fbd
00000380: e9ad acbe 8964 693e 9af8 583e e026 cb3d
00000390: 4d98 52be 1251 90be 8d9a 6cbe 0a8d 5f3e
000003a0: 4bd7 033e ac63 6f3e 8c9c 1d3e 3e1e 863d
000003b0: 5b63 983c bd22 a7be 6b49 75be a3f7 82be
000003c0: 06a0 073e 1583 03be 7289 66bd 3576 20be
000003d0: 0cd2 4bbd b7f3 4cbe f11c 34be 0a7a bb3d
000003e0: 102d 7fbd 15cd 323e 39c6 93bd 8c19 91be
000003f0: 5929 4cbd a0dd 0cbe bb84 98bd 3cf3 85be
0.21873915 0.22131282 -0.07889558 0.32425752 -0.07836681 0.051684037 -0.14011459 0.19476089
0.24735765 -0.20513473 0.24196073 0.056080822 0.20961918 0.050958753 0.12652704 -0.024167012
0.33853027 0.14075117 -0.11155075 0.089090094 -0.1342443 -0.017375153 -0.09533499 0.19168103
-0.21314561 -0.12128321 -0.10079299 -0.1687649 0.012972714 -0.50938386 0.13981242 -0.24731573
0.19251595 0.059764907 -0.08607528 0.18282229 0.03671529 0.22834301 0.03850679 -0.08301632
0.06034147 -0.09042684 0.2064721 0.2637979 0.14084671 -0.15114725 0.16748863 0.059967846
0.14687765 -0.1777548 -0.27428314 -0.11491963 -0.21909925 0.22603889 0.087198764 0.101923265
0.13538523 -0.00012939259 0.2318851 -0.2025926 0.022945933 -0.18885297 0.094813496 -0.11413562
0.08615202 -0.060147777 0.23640183 -0.15878317 -0.320327 -0.20275393 0.25323248 0.10423486
0.28433022 -0.23522748 -0.28065282 -0.20776626 -0.20256546 0.11748012 0.09579243 0.24371919
-0.14547797 -0.442176 0.14328349 -0.11146907 0.18707566 -0.05869924 0.17092822 -0.22310571
-0.12639295 0.094381005 0.0714722 -0.03679216 0.19023933 0.22426046 -0.06499033 -0.13193014
0.2797029 -0.084236264 -0.099477805 -0.28564712 -0.14219452 0.082838215 -0.021449827 -0.20955391
-0.014478175 -0.18499467 -0.23687463 -0.44122684 -0.30958337 -0.1852517 0.3038766 0.0674106
0.08616545 -0.2488565 -0.16216125 -0.109005205 0.062183797 -0.24379519 -0.124530956 -0.18006468
0.046996996 -0.11726824 -0.03647244 -0.18969324 -0.19568864 -0.18079722 -0.11242156 -0.24547143
0.20063522 -0.060090993 0.24042404 0.105010934 -0.23367779 0.18643261 -0.030248879 -0.099139415
-0.21357936 -0.26929152 0.112062216 -0.044584807 0.12977208 -0.21496761 0.23293853 -0.19716144
-0.043022048 0.05785457 0.15493846 0.21858168 0.24976388 -0.22755037 0.07090416 -0.118766285
-0.02940362 -0.210199 0.26294303 -0.21136086 0.17209147 0.116638765 0.09940811 -0.08232223
0.37242252 0.069434606 0.048956845 -0.24843027 0.12098665 -0.046716716 -0.13471533 0.25787798
0.07447847 -0.17276867 -0.14502424 -0.020425506 0.06144672 -0.100308046 -0.17078775 -0.110384926
-0.2295451 0.109875046 0.22216874 -0.2835054 0.06633179 0.1471363 0.050143912 -0.10107359
0.14118221 0.25834686 0.06304663 -0.056046646 -0.063946865 0.043355174 -0.050767247 -0.07387689
0.18614796 0.253175 -0.027000224 -0.04932349 -0.017184682 -0.021261776 0.038881537 0.04962838
-0.26228154 -0.12014137 0.24836187 0.12197725 -0.015805397 -0.17027421 -0.161561 -0.27658385
-0.08282491 0.09395347 0.19080946 0.20294872 -0.3167523 -0.15342924 -0.03031144 0.27629638
0.024611514 -0.05575612 0.1309061 -0.114506304 -0.18077825 0.2092786 -0.10999556 -0.05054484
-0.33726433 0.22792257 0.21188584 0.09919524 -0.2056591 -0.28186852 -0.23105831 0.21831146
0.12875096 0.23377866 0.15391749 0.06548737 0.018602064 -0.3264369 -0.23953788 -0.25579557
0.13244638 -0.12842973 -0.05628342 -0.15670092 -0.049760863 -0.20014845 -0.17589165 0.091541365
-0.062298834 0.17461045 -0.07215542 -0.28339803 -0.04984412 -0.13756418 -0.07447191 -0.26162136

se1.bias f4 [304]
00000000: 82eb 9bbd 5389 ccbd 714b 923e 117d 0c3e
00000010: f991 fdbc 2a8d 883b e1eb 293d ed84 1bbe
00000020: 805b b53d 09b7 81be 759f 9d3c a745 1abd
00000030: 7de9 bdbd 1b54 833e ce0d b73d 7cfc 183e
00000040: 9a16 3bbe ce67 9e3d e232 b03d 02b7 1d3e
00000050: 42e5 78bd 63be dcbc f603 6dbe 57c5 323e
00000060: 4503 553e ba5f 113e 0e47 0f3e b92e 413e
00000070: 3ac1 8d3e 83f2 e93d e010 f83d efb6 af3d
00000080: c516 37be e1f9 af3d 4ee2 ed3d f1ce 59be
00000090: f6d0 9cbd 2a51 44be 9d3f 3bbe 5d5e 603e
000000a0: 566e 7f3e 4c81 34bc 1404 ac3d b9c3 8fbd
000000b0: e366 9b3d 2c15 12bd a0d9 debd 015a ecbd
000000c0: 8cc2 983e 91e3 623d 6e27 0fbe de54 b13c
000000d0: 17c8 96be f42e 0bba fe35 6b3e d7e0 4b3d
000000e0: 74e5 8a3d 77fd 84be 220d 25bd bd5a 433e
000000f0: 50e1 78be 2378 fbbd 1bfa 4c3e 7922 863d
00000100: 2246 c83d d5fa 81be 3e0e 513e 6f52 8fbd
00000110: d3e6 b03d f90f 873e ff3e 86be 8348 e43d
00000120: 03ab 8cbe 3e9e 633e e1f4 ac3d 646e 4b3d
00000130: 0ec3 f1bd 155e a83d 4f56 19be fb5c 523d
00000140: 2509 823e 0607 62be ab9e 74bd a591 533d
00000150: b321 063d bffd 0d3c 5dec 7f3e 8471 81bd
00000160: f13d 813d 9989 313e 6e53 74bd d0de 393e
00000170: 2abc 4c3e 9f67 053e a27c 71bd b7b0 883e
00000180: fa7d 31be d600 e73d 83a8 843d 83d8 5e3e
00000190: af19 7abe c7dd 3d3c 670e 38be 145a 303e
000001a0: a1de bb3d a354 5dbe 0544 5fbb 1a3d ba3d
000001b0: e408 083e 29b6 8b3e 9a5b 0b3e a17b 993d
000001c0: 8ef5 293e 0773 8dbe 75d9 5a3e 8a03 2abd
000001d0: e73b 1e3e cff9 c53d 3b95 dcbc b161 5b3e
000001e0: 9808 23be 7759 dd3d b319 393e 3e63 e4bd
000001f0: 0660 d03d 06de 94be a0cf 06be 908e 0e3e
00000200: a34c 233e c6ce 7ebe 7321 9b3d e565 463c
00000210: bfd4 8f3e 00f8 8bbe 0f92 9bbd 7b8d 1abe
00000220: d816 31be bf52 0cbd e42c 97be 64bf 5b3e
00000230: cc69 bdbd e713 a53d 47aa 37be 3987 6a3a
00000240: 2c86 44be 788c 843e d6af 813e 0500 823e
00000250: 22b2 a6bd 2713 373e e0a0 82be 4035 0b3e
00000260: 95c0 34bd 97d5 87be 297c 82be bde4 91be
00000270: af71 c13d 1c39 bfbd 61d1 12be 3b12 8b3e
00000280: e807 85bd 7473 b33d 07dd 7bbd 5374 3b3e
00000290: 621c cb3d a462 443e efa9 b73d a909 babd
000002a0: 6713 923e 3a3c a6bc 5508 38be ef29 d13d
000002b0: 0d41 53bd ff65 76be 8cf2 203b aa4b 0ebe
000002c0: f3d4 03be 964a 12be 10a9 01be b380 08be
000002d0: 2d41 3b3d 835b 943e 7ab8 3dbe f591 0dbe
000002e0: 8353 55be 7c1e 99bb e40c 983c 391d 44be
000002f0: 5fdd da3d 988c 80be c9c5 823e 3101 7b3d
00000300: eb75 91bc 7aa4 d0bd b53c 023e 5b2a 613e
00000310: 99aa 3cbe 1e7d 86bd c3be 613e a7ab 60bd
00000320: 01d7 57be 82c4 bbbd c2a4 fb3b 5f58 0bbd
00000330: 0499 5fbe f308 53be 8040 a93d de86 5c3e
00000340: 8042 8a3e e445 63bc afa6 cf3d 3da7 79be
00000350: 2aba 343e 5db6 9b3e 3805 293e 4225 c2bd
00000360: 3ad7 813e 5d8a 93be 23eb 3cbd 033c b7bd
00000370: e2be 92be e1c3 3cbe d258 63be df9b bc3d
00000380: 158a b9bc 1d05 183e f9da a6bd aacd 793e
00000390: 8767 e13b f928 803e e542 6e3e d23c 8bbe
000003a0: 59e9 2fbe 648d 503e 704e 903e 5959 75be
000003b0: d9ab 063d 1f4e 06be d194 933e a552 8d3e
000003c0: d479 523e 2bf1 423e 5134 39bd 1229 873e
000003d0: 2cba 04be d0de 503d 6014 b5bd cb6e 31be
000003e0: 2f44 19be 16a7 953d 009f 89bc bef3 6fbe
000003f0: be10 44bd 041f a23d 24c3 45be a4a9 5d3e
-0.07613279 -0.0998713 0.28573182 0.13719584 -0.030953394 0.0041672187 0.041484717 -0.15187426
0.08855343 -0.25334957 0.019241074 -0.037664082 -0.0927305 0.25650105 0.0893818 0.14940065
-0.1827034 0.07734643 0.08603455 0.15401843 -0.060765512 -0.026946252 -0.23146042 0.17458092
0.20802028 0.14196673 0.13991949 0.1886548 0.27686483 0.114232086 0.12112594 0.08579814
-0.1787978 0.085925825 0.1161543 -0.21270348 -0.07657044 -0.19171587 -0.18285985 0.21910997
0.24944434 -0.011017155 0.08399215 -0.07019753 0.075879835 -0.035664722 -0.108813524 -0.115406044
0.29835927 0.055392805 -0.13979885 0.021646913 -0.2944953 -0.0005309426 0.22969815 0.04977497
0.06782046 -0.25974628 -0.040295728 0.19077583 -0.243047 -0.12278774 0.20017283 0.06549544
0.09779002 -0.25386682 0.20415589 -0.06998145 0.08637776 0.26379374 -0.26219937 0.11146643
-0.27474222 0.22228333 0.084451444 0.049665824 -0.11804782 0.0822107 -0.1497433 0.051358204
0.25397602 -0.22072992 -0.05972163 0.05165257 0.03274698 0.008666455 0.24992509 -0.063204795
0.063106425 0.17337646 -0.059649877 0.18151402 0.19993654 0.1302781 -0.05895675 0.26697323
-0.17333212 0.11279456 0.064774536 0.2176228 -0.2442386 0.01158852 -0.17974244 0.17221862
0.091733225 -0.21614318 -0.0034067642 0.090936854 0.13284642 0.27287415 0.13609162 0.074942835
0.16597578 -0.2762682 0.21372016 -0.04150728 0.15452538 0.09666788 -0.026926627 0.21423985
-0.15921247 0.1080808 0.1807621 -0.111517414 0.10174565 -0.2907564 -0.1316514 0.13921571
0.15947203 -0.24883565 0.07574739 0.0121092545 0.28092 -0.27337646 -0.07596218 -0.15093033
-0.1729387 -0.0342586 -0.29526436 0.21459728 -0.09248695 0.08060437 -0.1793605 0.00089465413
-0.19191808 0.2588842 0.25329465 0.2539064 -0.08139445 0.178784 -0.25513363 0.13594532
-0.044128973 -0.26530144 -0.25485352 -0.28494826 0.094455115 -0.093370646 -0.14337684 0.27162346
-0.064956486 0.08762255 -0.061490085 0.18306093 0.09917523 0.19178253 0.08967959 -0.09083874
0.28530428 -0.02029239 -0.17971928 0.10213076 -0.05157571 -0.24062346 0.0024558632 -0.13896051
-0.12874202 -0.14286265 -0.12662148 -0.13330345 0.045716453 0.28976068 -0.18527403 -0.1382521
-0.20832638 -0.0046728235 0.018560834 -0.19151773 0.106867544 -0.25107265 0.25541523 0.061280433
-0.017756423 -0.101876214 0.1271847 0.21988814 -0.18424453 -0.06566833 0.22045426 -0.0548512
-0.21078111 -0.0916834 0.007679553 -0.034019824 -0.21835715 -0.20608883 0.082642555 0.21535823
0.2700386 -0.013871644 0.10139214 -0.24380203 0.17649141 0.3041257 0.16505897 -0.094797626
0.25359517 -0.288165 -0.04612268 -0.08946993 -0.28661257 -0.18434097 -0.22201851 0.092094176
-0.02264885 0.148457 -0.081472345 0.24394861 0.0068787965 0.2503126 0.23267706 -0.2719484
-0.17178859 0.20366436 0.28184843 -0.23959865 0.03287873 -0.13115738 0.28824475 0.27602115
0.20554286 0.19037311 -0.04521591 0.26398522 -0.12961644 0.05099374 -0.08841777 -0.1732742
-0.14967416 0.0730726 -0.01679945 -0.23432824 -0.04786753 0.07916072 -0.19312721 0.21646744

se2.weight f4 [304, 13]
00000000: a95a 1b3e 5536 383e e351 0ebd 3192 853e
00000010: e749 903c b832 16be e6c4 1abe 7e16 3f3e
00000020: 4f18 e6bd 6e61 333e e8f0 89be f587 1c3c
00000030: a93b 44be cb7c c93d e7a5 663e 1685 df3d
00000040: 4a4c c3bd fb36 85be f58f 06be 0683 27be
00000050: f499 873e 27b3 18be ca9f db3d a0fd 633e
00000060: 61c7 cc3d a237 79be 3f0c 01bd cf95 a8bd
00000070: 24fd 363e a820 d5bc 31ad 6fbc dda4 7c3e
00000080: 5f2a 873d 0aa7 033e 3ed9 b6bd 9cbb 393e
00000090: cb56 233d 8732 64bd 62ed 5a3d e28d 5fbe
000000a0: 2e16 273c c43f 023e 47f8 84be ccdb 16be
000000b0: a9ef 313e 401a ce3b 51c8 1abc 2edc e73c
000000c0: 76ef febd f8d9 6a3e b247 e1bc b3d1 cebd
000000d0: 847f 153e 6864 6cbe 418b 51bd 13ff e43c
000000e0: 4e47 b0bd 6192 1a3e 938a 72be 28c1 a3bd
000000f0: 12bc eebd 7b66 833e 81af e23d badb 53be
00000100: 4b24 dc3d 07bc c0bb 55fe 813e adbb 1c3e
00000110: 1ede 25be 1729 7d3e 352f 4bbd 8757 81bd
00000120: 03da a93d ef14 8d3e cf62 ab3d 8603 89be
00000130: f152 b5bd 463b 843e a432 c8bd 52a2 08be
00000140: ba60 62be 7ec6 1cbe 7947 1bbe 26a8 873d
00000150: 89ef e23d 3d86 873e 6f62 3a3e 8b49 863b
00000160: de29 193e a155 223e 74f6 74be ed4e 0f3e
00000170: 9347 42be 8950 5b3e b00d f7bd 29b6 6b3d
00000180: 6e67 41bb 4fc3 033e 9fb2 303d 5304 4ebe
00000190: c618 e63d ce88 273e 85e6 13be a63c 38be
000001a0: c863 41be 542f 0abe c139 0fbd e2e1 a93c
000001b0: 6433 00bb b93b 96bd 1a3e 303e de24 703c
000001c0: bce8 24be 1b53 96bd 32fa 26be 2d63 c8bd
000001d0: ccf3 85be 887f 463d 060f 5cbe 15b0 db3d
000001e0: 458e 423e c047 53be 10e1 15be 6867 60be
000001f0: 0396 973d bdd0 5b3d db96 12be 1890 2b3e
00000200: f7b1 eb3d 2f4e 80be 262d 77bc 0586 f4bd
00000210: c9f9 44bd dc22 1e3e ee61 f4bc 143f 45be
00000220: aec7 473e 26cc 81be 0d13 c3bd f3dc da3d
00000230: be07 7b3e f8d1 893e 1170 85bd 448b bd3d
00000240: 666c 79be 5d0c 5dbd 23af b0bd 773e a13d
00000250: ef14 3abe 726f 753d 49ba 123e f756 5d3e
00000260: 7c16 40bd 2dbc 813e 602a 86be d1f5 a0bd
00000270: 9957 d73d 50a7 913d d5bf 053e ac75 3cbe
00000280: 3cdf 2e3e 0746 85be b1bc 42be a484 9abc
00000290: 07f5 89be 6afa 86be 2e1f 7cbe 8a56 643e
000002a0: 6631 793d 953c b5bd e3c1 3abc 9c8b 77be
000002b0: 741d 86be 690f 46be 2161 89be f9d9 3a3e
000002c0: efc3 c6bd f154 99bd 2a92 74be 5a26 3c3d
000002d0: 5771 2abd 1f59 41be 0218 363e 4f64 6f3e
000002e0: 1a6f 4abe 99e9 203e e076 38bd 979a 2bbb
000002f0: 20c6 f13d 211e 4fbd e24d 713e 50bd 2e3e
00000300: 915b 38be f0d5 2cbe 63b2 8cbe c3db b53d
00000310: 3da0 55be 5c0c 6ebe f109 36be 0565 8cbe
00000320: 1540 67be e752 7d3e 53a4 1e3e 1ca3 7b3e
00000330: 24c4 09be acf8 e8bd 2a4c c7bd 607f b13b
00000340: 9dd9 4bbe 318b 263d f904 36be d683 333d
00000350: 1a13 823e acdf 3f3d b92a 4f3e a345 4abe
00000360: fd51 20bd 2f5e 2fbe be13 fcbc 2cf4 e1bd
00000370: 6e41 21be ad2a 89be 7c9d d2bd 8222 183d
00000380: aad9 47bd 0841 84be ec56 553e 4c96 523e
00000390: 553a 2bbe 4cf7 e63c 3795 3c3e 67da 86be
000003a0: bcf2 7abe db95 1d3e 9c00 b4bb 80e0 b43d
000003b0: 0536 ecbd 36f9 4d3d 5d5d 3c3e 85f6 8abd
000003c0: a678 b7bd c536 87be 5b4c 2fbd 13f7 333e
000003d0: ee33 86be 2982 afbc b005 4f3e 881e a2bd
000003e0: e1dc d1bd aa54 abbd 6e22 e6bd 79f7 073d
000003f0: a7b8 88be 130f d93d 7b74 8fbd 1ba3 10bd
0.15171303 0.17989476 -0.034746062 0.26088098 0.017613364 -0.14667785 -0.15114173 0.18660924
-0.11235105 0.17517635 -0.2694161 0.009553899 -0.19163384 0.098382555 0.22524224 0.10914056
-0.09536035 -0.2601851 -0.13140853 -0.16358575 0.26484644 -0.14912091 0.10723837 0.22264719
0.09998966 -0.24337628 -0.03150582 -0.08231699 0.17870003 -0.026016548 -0.014628694 0.24672265
0.065998785 0.12856689 -0.089281544 0.18137974 0.039877694 -0.05571225 0.053449042 -0.21831468
0.010198159 0.12719637 -0.2597067 -0.14732283 0.1737658 0.0062897503 -0.009447173 0.028303232
-0.12448017 0.22934711 -0.027500007 -0.10098591 0.14599425 -0.23085177 -0.051158193 0.02795366
-0.0860735 0.15094902 -0.23685674 -0.07995826 -0.11656965 0.25664124 0.11068631 -0.20689288
0.1074911 -0.0058817896 0.25389352 0.15305968 -0.16198012 0.24722706 -0.049605567 -0.06315523
0.082935356 0.27555034 0.083684556 -0.267605 -0.088537104 0.25826472 -0.09775284 -0.1334317
-0.22107211 -0.15310094 -0.15163983 0.06623869 0.11080844 0.26469603 0.18201612 0.0040981225
0.14957377 0.15852977 -0.2392214 0.13994952 -0.18972616 0.2141744 -0.120631576 0.05754677
-0.0029511112 0.12867473 0.043139096 -0.20118837 0.11235194 0.1636078 -0.14443405 -0.17991886
-0.1888572 -0.13494617 -0.034967188 0.020737592 -0.0019561881 -0.0733561 0.1721119 0.014657227
-0.16104406 -0.0734007 -0.1630638 -0.09784541 -0.26162565 0.048461467 -0.21490106 0.10726944
0.18999584 -0.20632839 -0.14636636 -0.21914446 0.07401659 0.053665865 -0.1431536 0.16754186
0.115085535 -0.2505965 -0.015086448 -0.11939625 -0.048089776 0.15442985 -0.029831853 -0.19262344
0.19509766 -0.25351065 -0.09525118 0.10686674 0.24514672 0.26918006 -0.065155156 0.092550784
-0.24357757 -0.05396687 -0.08627155 0.07873242 -0.18172048 0.059920736 0.14328875 0.21615206
-0.046896443 0.2533888 -0.26204205 -0.07859386 0.10514755 0.071119905 0.1306146 -0.18404263
0.17077345 -0.2602999 -0.19017293 -0.018862076 -0.26944754 -0.26362926 -0.24621269 0.22298637
0.060838126 -0.08849446 -0.011398765 -0.2417435 -0.26194346 -0.19341816 -0.26831916 0.18247212
-0.0970534 -0.074869044 -0.23883882 0.045935012 -0.041611996 -0.18881653 0.17782596 0.23378108
-0.19768944 0.1571411 -0.045035243 -0.0026184672 0.118053675 -0.050565843 0.23564866 0.17064404
-0.1800368 -0.16878486 -0.27479848 0.08879807 -0.20861907 -0.23246902 -0.1777723 -0.27420822
-0.22583039 0.24738656 0.15492372 0.2457394 -0.13453728 -0.113755554 -0.09731324 0.0054167956
-0.19907232 0.040660087 -0.17775334 0.0438269 0.25405198 0.04684417 0.20231141 -0.19753127
-0.03914069 -0.17125772 -0.030771133 -0.110329 -0.15747616 -0.26790372 -0.10283944 0.037142284
-0.048791565 -0.25830865 0.2083394 0.20565146 -0.1672147 0.028194092 0.18416296 -0.26338503
-0.24506658 0.15389197 -0.0054932367 0.088318825 -0.11533741 0.050286494 0.1839499 -0.06785301
-0.08958559 -0.26408973 -0.042797428 0.1757472 -0.26211494 -0.02142437 0.20217013 -0.079159796
-0.102472074 -0.08365758 -0.11237036 0.033194993 -0.2670338 0.10598578 -0.07004639 -0.0353118

se2.bias f4 [304]
00000000: 5ae3 123e f1de 44be 2565 793e 8717 22be
00000010: 3b44 59be fe8b 4b3e f101 673e 0372 c0bd
00000020: 3e02 793e efe1 ff3c 254a ce3d 4750 85bc
00000030: 422b 9bbd 2075 cdbd 0281 73be e747 4f3e
00000040: 5a75 163e 5203 813e c898 8bbe 454d 8c3e
00000050: ee6a 3d3e 42e1 9a3d 6ccc f3bd 8268 483e
00000060: 8b1e 363e e56c 743e 017d 6abe adab 2c3d
00000070: 8b8b cc3d abb0 8bbe aeeb 843e d848 313e
00000080: 5412 64be 1fd3 73be 8461 393c 9dcb 633e
00000090: 26f1 a43d 94be 1f3d 402d 93bc 2d18 8dbe
000000a0: 10f1 2a3e c225 353e 01b2 47be a345 51bd
000000b0: c40d 8a3e bab5 d9bd 6ffe 42be be77 223e
000000c0: 7331 033e 2ca5 743e 2197 f4bd 3e1c 8a3d
000000d0: eabd 883d b014 673e 3b27 1f3e 7e78 853d
000000e0: cdd4 1fbd 4ea7 4abd 6144 19be 38eb ee3d
000000f0: ca09 723e ca5e 10be af13 42be 1478 533e
00000100: 79a3 183d 9ce0 05be f9e9 373e 1267 67be
00000110: de8a 0bbe 7486 b6bd 4cb3 10bc 602b 723d
00000120: 53d2 073e 4256 c6bd e446 dcbc 2f1f 14be
00000130: e9bd 3abe d2dd 773d 1f6c 513e 7d15 753e
00000140: c4a7 5dbe 1965 063e 783e afbd 4674 62bc
00000150: 22a6 3dbc f24e 753e 9cfa 6d3e b2f6 65be
00000160: c45e 763d df16 263e 1265 983d 6190 d2bb
00000170: f411 06be 4f62 48be 13c5 8bbe 5c21 b0bb
00000180: 1428 dbbd ac0d 863d d121 f0bd 00e7 6b3e
00000190: f761 48be cc02 7c3e 9f36 e1bd 9596 2f3d
000001a0: f34a d0bd 4168 ef3d 6b21 603e 86c7 843e
000001b0: bcb3 44be 89f7 423e 5dd8 3b3e 690e 69be
000001c0: 1097 e53d 62a1 5b3d bbe1 1b3e c1d5 783e
000001d0: 60e6 cf3b 7a42 d2bd 4901 00be adb5 123d
000001e0: e4b2 26bd 7268 4bbe 197e fd3b 089f 223e
000001f0: 16a6 163c e98b 323e 3e95 d6bd dabb 5e3e
00000200: 9353 873d 58e4 bebd 94ef 083e 94aa 0b3e
00000210: 058b f3bd 55a3 4ebd 3494 123e 124a 7abe
00000220: f76c d83d 960d 793d 0098 41be fc0d 0cbd
00000230: 5c40 a63d 7a8f 453e c1af 4f3e d934 37be
00000240: 61a9 38be 004e 063e 8719 8c3e cb89 723e
00000250: ccaf df3d bea4 863e b062 02be 019f 00bc
00000260: a2a9 67be 694a 2ebe 7e11 40be 91d0 80be
00000270: d342 a03d fbb7 923d 53ad e43d 7138 3c3e
00000280: 6037 62be 10f0 a3bd b07a 5f3e 9a57 7bbe
00000290: 639c 473e ccea ae3d de90 66be 8516 753d
000002a0: 01ff 113c 9a69 5b3d 75f8 a2bd a38f 003e
000002b0: 8be0 5c3e 69f2 453e d210 dabc b7a0 82be
000002c0: 8405 8b3e cd12 9e3d 7a14 7c3e ca9c cc3d
000002d0: 9466 953b 5ed3 183e 95f1 1e3e e806 93bc
000002e0: 81ec 2d3d 117a 38bc 4099 423e c04b 013e
000002f0: 586c 3dbd 2155 843e d812 883e 32b7 663e
00000300: 448d 4b3d baf6 8a3c 4d4e 14be 380a 4f3e
00000310: 8f0f 4cbe 16ca 74be 4763 ab3d 11d6 84be
00000320: 5417 b53d 20c8 08be 797b 64bb 1fd6 dabd
00000330: eea7 653e 7418 53be 39b1 503d 79d6 803b
00000340: 061f 87be 579b 5b3e 99ae 603d 14e3 63be
00000350: c1ef 8cbe 7f2b fb3d 9e23 693e 7070 81bd
00000360: 93cc a7bd 5f2e 72be 2fc9 3f3e 05fe d5bd
00000370: 408a 02be ba20 d83d 8261 783e 6b72 033e
00000380: 6ad4 a33d 805e 7b3e 3544 413c 07bd 2f3d
00000390: fb02 a6bc 7cf5 31be d8b1 503d 567c 13be
000003a0: e35a 243e 95e6 43be 1d25 68be 327e 5bbd
000003b0: 9afa 523e a2c8 57be 4e06 b5bd 5916 aebc
000003c0: 0b68 f8bd 7a2b 063e c015 783e f1b7 193e
000003d0: 6794 6fbd 09fb 5ebe 927d 6abe 1704 88bd
000003e0: 52f0 b2bd d662 57be 8578 8c3d 4a3b d7bd
000003f0: beb8 a43d 7ad0 16be 64b9 ccbc 38f1 aabd
0.1434454 -0.1922567 0.2435499 -0.15829287 -0.21217434 0.19877622 0.22559334 -0.09396746
0.24317262 0.031235663 0.10072736 -0.01627363 -0.0757661 -0.100321054 -0.23779681 0.20242272
0.14693204 0.25197846 -0.27265 0.27402702 0.18497822 0.07562496 -0.11904225 0.19571117
0.17785089 0.23869665 -0.22899248 0.04215591 0.09987553 -0.27283224 0.2596106 0.17312944
-0.22272617 -0.23811005 0.011314753 0.22245641 0.08053808 0.03900011 -0.017965913 -0.27557507
0.1669352 0.17690185 -0.19501497 -0.0510918 0.26963627 -0.10630365 -0.19042371 0.1586599
0.12811832 0.23891133 -0.11942888 0.06743668 0.06676848 0.22566485 0.15542309 0.06517123
-0.039021302 -0.04947596 -0.1496749 0.11665958 0.23636547 -0.14098659 -0.18952821 0.20651275
0.037265275 -0.13073963 0.17960347 -0.22597912 -0.13627192 -0.08912364 -0.00883181 0.059123397
0.13263826 -0.09684421 -0.026889272 -0.1446502 -0.18236507 0.06051428 0.20451401 0.23933978
-0.21646029 0.13124503 -0.08556837 -0.013821667 -0.011575254 0.23955896 0.23240131 -0.22457388
0.06014897 0.16219662 0.07441153 -0.0064259027 -0.13092786 -0.19568752 -0.27298793 -0.0053750705
-0.10701004 0.065455765 -0.117252 0.23037338 -0.1956862 0.24610442 -0.10996746 0.042868216
-0.101705454 0.11689807 0.21887748 0.25933474 -0.19209188 0.1903974 0.18344255 -0.22759403
0.112104535 0.053620704 0.15222828 0.2430029 0.0063446015 -0.10266586 -0.1250049 0.03581779
-0.040697947 -0.19864061 0.0077359793 0.15880978 0.009194871 0.17436184 -0.104776844 0.21751347
0.066077374 -0.09320897 0.13372642 0.13639289 -0.1189175 -0.050448734 0.14314348 -0.24442318
0.105676584 0.060803972 -0.1890564 -0.034193024 0.08117744 0.19293013 0.20281889 -0.17891254
-0.18033363 0.13115692 0.27363226 0.23685376 0.109222025 0.26297563 -0.12732959 -0.0078504095
-0.22623304 -0.17020573 -0.18756673 -0.25159124 0.07825246 0.07163998 0.111658715 0.18380906
-0.22091436 -0.08004773 0.21824145 -0.24545136 0.1949325 0.08540878 -0.225162 0.05983593
0.008910895 0.053567506 -0.07957546 0.12554793 0.21570031 0.19330753 -0.026619349 -0.2551324
0.27152646 0.0771843 0.24617186 0.09990843 0.0045593474 0.1492438 0.15521844 -0.01794763
0.042461876 -0.011259572 0.19003773 0.12626553 -0.046245903 0.25846198 0.26576877 0.22530821
0.04969527 0.016963352 -0.14482994 0.20218742 -0.1992781 -0.23905215 0.08368545 -0.2594457
0.0884234 -0.13357592 -0.0034863635 -0.106853716 0.22427341 -0.20614797 0.050950263 0.003931817
-0.26390857 0.21445976 0.05485401 -0.22254592 -0.27526668 0.122641556 0.22767493 -0.06320274
-0.08193316 -0.23650502 0.18729089 -0.10448841 -0.1274805 0.10553117 0.24255946 0.12836616
0.07999499 0.24547768 0.011796047 0.04290488 -0.020265093 -0.17378801 0.050950855 -0.14402899
0.16050296 -0.19130929 -0.22670408 -0.053587146 0.2060341 -0.21072629 -0.08839093 -0.02125089
-0.121292196 0.13102522 0.24227047 0.15011574 -0.058491137 -0.2177545 -0.22899464 -0.06641405
-0.08737244 -0.21033797 0.06858925 -0.10509355 0.08043049 -0.14727965 -0.024990745 -0.0834679

e1.weight f4 [152, 304]
00000000: 527e 2cbc dc8d 10bd e616 af3c cdd2 a53b
00000010: 995d 8d3c 949e 4d3d dffd 043d f75a dbbc
00000020: a22b 6b3b 73a9 b63c f010 fabc 103a c7bb
00000030: 182d 03bd 262e 4bbd 3d53 21bd 5a18 ef3b
00000040: a728 cc3c 3d9b 513d e022 1bbd fa75 58bd
00000050: 720b 743d 861d a73c 1994 9c3c 93b9 04ba
00000060: 7db0 e2bc 0be6 08bd a4cd 0a3d 5b12 49bd
00000070: 8a68 42bd b591 d93c 69ec 24bc 491b 943c
00000080: feec 0b3d b94b abbc d7f7 7fbd b039 46bd
00000090: 5b63 19bd 7d21 abbc 68e9 2e3d 641b 1dbc
000000a0: 43f6 4d3d 3d45 cfbc 755d 2eba 9732 38bd
000000b0: 0917 00bd 16ae 623c fef5 febc 900c 453d
000000c0: 0c36 333d db8c 813c 738e 873d c72b ce3c
000000d0: 42cb 753a 02dd b93c 1aa5 6f3d 5580 fdbc
000000e0: 6de1 03bd e71b e1bc ac92 31bc 9e46 29bd
000000f0: 7a38 7abd 5796 1dbd 2f8a 963c f626 073d
00000100: ef7b 09bc 4b32 65bd 86e9 c93c 37b1 443c
00000110: 6b49 04bd ec9e 8a3d edd8 cabc 3b2c 613d
00000120: afa1 113d 333d aa3d e745 3abc fff7 9c3d
00000130: 65fe 4bbb 806f 54bd 2b4e 2e3d ee3f 703d
00000140: 7912 ce3c 68ed e73c ad91 d53c 7409 693c
00000150: 5002 873c 64f4 10bd c954 5f3c 8842 91bc
00000160: fa1d ae3c 6400 3cbd 64b2 3b3c dc22 cd3c
00000170: 6a31 cabc 408e 11bb 3515 46bd 2b13 083d
00000180: fa13 98bd bbf3 1a3d 745b b1bc 58df 6a3c
00000190: 8cd8 eebd 5d34 4f3c d9e3 05bd 2a45 193b
000001a0: 58d7 64bd 5263 58bd 20b3 bc3c bac2 5d3c
000001b0: 51bb 6b3d c99f d73d 482d 383d 69b9 1e3d
000001c0: cc5a c03c 0406 0c3d e8dc a6bc 47b1 dc3c
000001d0: 581f 1f3c c70c a3bc ee4c b5bc f73f df3d
000001e0: 96ea 963c 3cdc 88bb 3a2d e0bc 49ed 30bd
000001f0: c53b 663c 0aa7 19bd e29e 33bd 673e 23bd
00000200: d5c8 a33c 1d2b de3c 5997 c9bb 0d7c 4e3c
00000210: 2c2a 29bd b3ab b6bd 5930 32bd 9ecd 16bd
00000220: daf0 3cbd 6154 1fbd bd6f a5bc 3710 11bd
00000230: 6237 ef3a d459 2ebc 092b 773c 2f2a f73c
00000240: 7f52 70bd 474c 01bc fd0b 1e3c c850 5dbc
00000250: d8b0 0e3d 9768 53bd 59c1 cb3c 0e23 e03d
00000260: 900a 7fbc e483 03bd 4c36 183d fe34 2dbd
00000270: 7f86 75bb 07bc f53c f380 2a3c 119f 3c3b
00000280: be0e d0bc 5638 fb3c 31d4 73bd b07d 8b3c
00000290: b4a4 53bd b431 853c 785b 9ebc 555a 0e3d
000002a0: bed0 7b3b 804d 8b3c a51d 00bd 7332 143c
000002b0: 5481 45bd 2f45 373d 05db 643b e1e1 61bd
000002c0: 601a e7bb e783 c33c 51a5 aebb 4215 5f3d
000002d0: cfab 7c3d 81bc efba a2ae 843d 4577 003d
000002e0: af0e 25bc 930e 293c 61d9 833c 421d e4bc
000002f0: 40fa 273d 2f16 2abd 0c35 b2bc c154 263d
00000300: feb5 49bd 5174 d6bc 8378 0bbd e250 b83c
00000310: c601 4dbc 2d18 42bd 424b 5a3d d95f 04bd
00000320: 8a93 43bd 50ac ae3c 73a3 3dbd 65aa 333c
00000330: 89e5 a4bc cf41 c1bc e097 b1bc 9da9 8e3d
00000340: 35d0 08bd f406 b5bc b9a5 223d 7099 703c
00000350: 8d8e f93c 8071 9f3c c562 8c3d 8e87 bfbc
00000360: 5427 46bd c34b c9bd 15c1 f8bb e43a c03c
00000370: b156 53bd def1 45bd bd18 87bd e6da 0ebd
00000380: 1674 043d 7d51 563c b8f1 3ebd 2ecc 73bd
00000390: 8645 e83c 1cf7 e03b a75f 653d b369 51bd
000003a0: 5de0 90bd 17ee d03b 7ba2 463d aebe 373d
000003b0: f888 903d a735 c03c 6366 1b3d 5c8f 66bc
000003c0: 3976 6c3d 528b cabc e6c7 1b3d ea57 9b3c
000003d0: 850f aebc 2e3d 8cbb 458e ba3a e8c8 403d
000003e0: 9db5 de3c e4c3 c83c cad7 20bd 4add 1d3c
000003f0: a81d 0b3d 71b0 67bc 3cbd 323d f54d d93b
-0.010528164 -0.035291538 0.021373224 0.00506053 0.017256545 0.05020006 0.032468673 -0.026776774
0.0035884161 0.022297597 -0.030525655 -0.0060799196 -0.032025427 -0.049604557 -0.039386023 0.007296604
0.024921728 0.051173437 -0.037875056 -0.052846886 0.059581228 0.02039982 0.019113587 -0.0005063053
-0.027672047 -0.03342251 0.03388752 -0.04908977 -0.047462977 0.026558736 -0.01006613 0.018079417
0.03416156 -0.02091013 -0.062492218 -0.04839486 -0.03744827 -0.020889992 0.042703062 -0.00958905
0.05028368 -0.02530157 -0.00066514994 -0.04497012 -0.031271968 0.013835451 -0.031123158 0.048107684
0.043752715 0.015814235 0.06618967 0.025167359 0.0009376296 0.022688393 0.058507062 -0.030944983
-0.032197405 -0.027479125 -0.010838192 -0.04132711 -0.061089016 -0.038473453 0.018376438 0.03299614
-0.0083913645 -0.055956166 0.024647485 0.012005142 -0.03229658 0.06768593 -0.024761641 0.054973822
0.035554584 0.08312454 -0.011369205 0.07664489 -0.0031126973 -0.051864147 0.042555016 0.058654718
0.025155293 0.028311446 0.02607044 0.014223445 0.016480595 -0.03538932 0.013631054 -0.01773192
0.021254528 -0.04589881 0.011456106 0.025041036 -0.024681766 -0.0022210032 -0.04836007 0.033221405
-0.07425685 0.037830096 -0.021650054 0.014335476 -0.11662397 0.012646762 -0.032687996 0.0023387172
-0.05586943 -0.052829094 0.023034632 0.013535196 0.057551686 0.105285235 0.04496506 0.03875104
0.023480795 0.034185424 -0.020369008 0.026940001 0.009712063 -0.019903554 -0.02213141 0.10900872
0.018422406 -0.0041766446 -0.027365316 -0.043195043 0.014052336 -0.037512816 -0.043852694 -0.039854433
0.019993225 0.027120167 -0.0061520752 0.012602818 -0.041299984 -0.08919468 -0.04350314 -0.036817186
-0.04612813 -0.03889883 -0.020194883 -0.035415854 0.0018250758 -0.010641534 0.015085944 0.030171482
-0.058672424 -0.007891721 0.009646413 -0.013508029 0.03483662 -0.051613417 0.024872469 0.10944186
-0.015566483 -0.032108203 0.037161157 -0.042286865 -0.00374642 0.029996885 0.01040672 0.0028781334
-0.025397655 0.030666512 -0.059528533 0.017027706 -0.051670745 0.016259052 -0.019330725 0.034754116
0.003842398 0.017004728 -0.03127827 0.009045231 -0.04821904 0.044743713 0.0034920585 -0.055147056
-0.0070527047 0.023866607 -0.005329766 0.054463632 0.061687287 -0.0018290431 0.06478621 0.031363744
-0.010074302 0.010318416 0.016094865 -0.027845982 0.04101014 -0.041525062 -0.02175381 0.04060817
-0.049245827 -0.02617851 -0.034050476 0.022499505 -0.01251263 -0.047386337 0.053294428 -0.03231797
-0.047748126 0.0213224 -0.046298455 0.010965918 -0.020128982 -0.02359095 -0.021678865 0.06965945
-0.033401687 -0.022098042 0.039708827 0.01468502 0.030463481 0.0194633 0.06854776 -0.023380067
-0.04837735 -0.098289035 -0.0075913765 0.023465581 -0.051596347 -0.048326366 -0.06596515 -0.034876727
0.03233727 0.013080952 -0.04661724 -0.059520893 0.028353464 0.0068653952 0.055999424 -0.051126193
-0.07074044 0.006376039 0.048494797 0.04485958 0.07057375 0.023463083 0.03793944 -0.0140722655
0.057729933 -0.024724636 0.038032435 0.01896282 -0.021247635 -0.004279754 0.0014233073 0.0470666
0.02718621 0.02450747 -0.039268292 0.009635279 0.03396383 -0.014141188 0.0436375 0.0066316077

e1.bias f4 [152]
00000000: 1f2d a5bc 16f0 893d 3c7f 29bd 3202 0e3d
00000010: a986 abbc 1722 e13b 54f2 5a3d 25e1 d53c
00000020: bdd4 01bd 499d 063d f634 83ba 1da9 c83c
00000030: bd3a e2bc 58d4 693c 85b6 2dbd b6f1 b83c
00000040: 0f81 0fbc fa76 323d 00cd 2d3d 8dda 09bd
00000050: 54fe 53bc 1a14 b2bc 3203 323d 95c1 67bb
00000060: 3e61 383d c2f4 ce3c 3ea6 e93c 181e 88bc
00000070: f7c3 1d3c ca1c 1d3d 86ec 8fbc 2e8a 0dbc
00000080: de3a e3bc 891e 643d acf5 59bb 0360 083d
00000090: 9244 f83c 5779 42bd 814b 9a3c a95e 6dbc
000000a0: 6759 243d a9da 8b3c d440 ebbc 9400 28bd
000000b0: e689 b7bc 08a0 9bbd c97c 053c 22ea 8abd
000000c0: 59d3 51bd 0c86 c33c fcf6 883d 6f7d f4bc
000000d0: d958 f6bc 8404 dc3b e0b0 53bd 376e fd3c
000000e0: 3548 563d 64c9 8cbd bc3d cd3c 352c 53bb
000000f0: a0be 05bc 0a4e 86bc fa0f 22bb e6d4 a93c
00000100: d076 03bc e3f1 963c 806f a23d 7608 223d
00000110: 137b f13c 8f4a 82bd 307d 4fbd 11a1 9f3c
00000120: da40 4e3d 7e84 57bd 75e6 713c 50c4 1d3d
00000130: faff febb 0e5c 403d 8b72 1aba cc6e 6fba
00000140: 699a 0d3c ba67 a4bc 4474 c23c 7c84 3e3b
00000150: 8040 343d 1780 1a3c 71d4 dfbc c141 0c3d
00000160: 076e f83c bf81 a93d 5236 33bd ba58 893c
00000170: 2795 78bd f98b 463d 47ad fd3a e3ea da3b
00000180: 0feb 9f3d dec7 453d 7f1a 73bd 9a48 b93c
00000190: 0145 153c 4241 32bd 7872 4f3d 7029 04bd
000001a0: 1d52 6dbd ca59 913c e1a5 b83d 53d9 ab3d
000001b0: 5fad 653c 2123 dc3c 68cd 8cbc 6f42 59bd
000001c0: 12ce 663d 0443 18bd 7507 903c 3455 17bd
000001d0: 345d 263d dee1 a03d 2ee1 38bd 45e8 963c
000001e0: 35ab 793d 0da8 6b3c c583 123d fdf6 933d
000001f0: dc45 0fbd a91d 33ba 95a5 01bd 64af 6fbd
00000200: 2c5f cabb 7c1f 4e3b 7c4b 0e3d 7f62 80ba
00000210: bc52 88bc 1d48 73bd 5d96 b73b 716f 66bd
00000220: 91aa a33d 2dff adbc 4108 4fbc c118 993d
00000230: f107 6abc fc6f 3aba f756 cdba bd45 1c3d
00000240: 0b01 44bd a941 17bc 04e9 053c 3a2f 09bc
00000250: 5da1 50bd 2152 d33b 688f c13c b403 573d
-0.020163117 0.06735246 -0.041381106 0.034670062 -0.020938234 0.006870519 0.05345376 0.026108334
-0.031697024 0.032864843 -0.001001029 0.024494702 -0.0276159 0.014271818 -0.042410392 0.022576194
-0.008758797 0.043570496 0.04243183 -0.033655692 -0.0129390545 -0.0217381 0.04346008 -0.0035363187
0.045014612 0.025263194 0.028521653 -0.016615912 0.009629241 0.038357534 -0.017568838 -0.008638902
-0.027738031 0.055693183 -0.0033258004 0.03329469 0.030306134 -0.047479 0.018834831 -0.014487901
0.040124323 0.017072039 -0.028717436 -0.041016176 -0.022404622 -0.07598883 0.008147427 -0.067829385
-0.051226947 0.02386763 0.066877335 -0.029844968 -0.030071663 0.0067144055 -0.051682353 0.030936344
0.052314956 -0.0687435 0.025053851 -0.0032222394 -0.008163124 -0.016394634 -0.002472876 0.0207314
-0.008023933 0.018425887 0.07931423 0.03955885 0.029477632 -0.06361877 -0.050656497 0.019485982
0.050354816 -0.05261659 0.014764418 0.038517296 -0.0077819796 0.04696279 -0.0005891702 -0.00091336365
0.008642771 -0.020068992 0.02373708 0.0029070666 0.044006824 0.009429953 -0.02732298 0.034242395
0.030325903 0.082767 -0.043752976 0.016765941 -0.060689118 0.048473332 0.0019354009 0.0066808327
0.07808506 0.04828631 -0.05935144 0.022617627 0.00911069 -0.043519266 0.050646275 -0.03226608
-0.057939637 0.01774301 0.09016014 0.08391061 0.014018386 0.02687222 -0.01718779 -0.05304187
0.056348868 -0.037173286 0.01758168 -0.03694649 0.04061623 0.07855581 -0.045136623 0.018421302
0.06095429 0.014383328 0.035770196 0.07224844 -0.034978732 -0.0006832728 -0.031652052 -0.058516875
-0.006175896 0.0031451872 0.034739956 -0.0009794979 -0.016641013 -0.059394944 0.0056026415 -0.056258623
0.07991517 -0.021239841 -0.012636245 0.074754246 -0.01428412 -0.0007112024 -0.0015666176 0.038152445
-0.047852557 -0.009231963 0.008173231 -0.008373076 -0.050935138 0.0064489995 0.023627952 0.052493766

e2.weight f4 [19, 152]
00000000: 7916 9f3d 3505 533c 2059 6cbd 73a4 7abd
00000010: 6f8a 9ebd 4898 1fbd 334a 5a3d 1d71 07bd
00000020: 5255 03bc 78f0 85bd e864 bd3d 93af 8b3d
00000030: 559c 2c3d 8b3b 803d 6694 993d f74c 973d
00000040: c28a 7f3d c46d c8bc c472 e73c 06f6 413d
00000050: 0b6f 5fbd cb4c 00bd 4337 493d 92ad 6bbd
00000060: c06d 23bd db46 773d e8c1 ccbc f911 73bd
00000070: 2986 b9bd d0cd 823d 95eb 063d cd67 223d
00000080: 2fb0 99bc 074f 0abd 9f56 1b3d f9cc c4bd
00000090: cd98 99bd d62a 1bbd aa52 923d 9ab6 0a3d
000000a0: 269a 97bd c4f9 71bd 7c9c d0bc 39bb 2dbd
000000b0: bf56 0c3c 5a8d 09bd c9b0 dfbc 93e8 ba3d
000000c0: 49c0 ac3c 7cb6 863d 9f58 a5bd fc02 783c
000000d0: 4cb2 813b 9a13 d9bb e17b 69bd b12a 01bc
000000e0: 792f abbc afb0 9ebd 1fd3 5fbd f0fb 2d3d
000000f0: 7ed5 edba 5957 5b3d 4d9b 18bd 669f 9abd
00000100: 0c62 84bc d516 3fbc fad1 563d f403 92bd
00000110: ccd7 263d 06d9 51bd d3b7 0dbd 8b8f c93c
00000120: a55a 093d 3a3b 1abc cf3b 173d 6227 d5bd
00000130: 1474 f33c 6066 373d 1130 2639 2a0f 4f3c
00000140: ea8d 99bd 3ab3 403c 09db 45bc 20cb a13d
00000150: 59fc 453c 0eff 9c3b 55a1 763a 63e5 72bd
00000160: 73b4 3fbd 6919 073d d8da e5ba 4e43 a23d
00000170: ff7b ef3b 134f 1cbd 32bd 18bd 9137 1bbd
00000180: f79f a5bd 7941 96bc 5872 db3c ba69 6d3d
00000190: ec28 1e3d 2efe 5abc b595 263d 69cd 563d
000001a0: 2eba 11bd 0fb0 1e3d 9d97 fa3a 6e07 833c
000001b0: b61e ccbd 8fc6 85bc b77f babc a74d 92bc
000001c0: d73e ffbc 7771 453d 7fbd 073d ac08 ae3c
000001d0: 5ae5 303d 6747 573d 1e65 093d 464e db3c
000001e0: 04bd bdbc 0073 963c 41ec c7bd 231c 3f3a
000001f0: 4c5a 03bd a1b0 113d be03 35bd 15e7 06bd
00000200: 5b22 1b3d 77ab 073c ecd4 bb3c ec9e 6e3a
00000210: bad3 3abd 1bfb e73c 19a1 7ebd 75cf b0bd
00000220: 0977 ddbc 5d5c 86bd 8822 d13a f967 2abd
00000230: 6e20 b8bc 053d 103d a9e6 0f3d b840 573d
00000240: 4331 c83c 878c 83bd b32c 933d 8c73 b5bc
00000250: e59c 693d 4b33 14bd 1def e8bc 8016 39bd
00000260: e57e 5fbd cc0b 803c 50cb 0abd 9730 9abb
00000270: f071 95b9 d7c7 403d 9c2b b23d 8ce1 2c3d
00000280: 5736 363d e908 d43c d000 6b3c 1a02 153d
00000290: 97d7 a33b 76e4 18bc 1397 d5bd abb6 94bc
000002a0: 860a 3cbd fd69 9c3c 5281 0cbc e343 dabc
000002b0: f215 99bd 4430 d33c 7b86 eabd 95e1 adbb
000002c0: 85d1 6fbc e0cd ad3d f997 2dbd 242b 18bd
000002d0: 0c34 6c3d 8bf0 853d 8c4d 63bc 6c02 c5bd
000002e0: 56b8 2dbd e24a c8bd a998 d03c 9a5d e6bc
000002f0: 2485 93bb 877e 403b 4681 1e3d 9780 6ebd
00000300: 8fce 17bd ab53 1cbd d1f1 96bd b4d2 7e3b
00000310: 68bb 60bd b7f0 dfbc 9b74 84bd ae73 ab3d
00000320: 3442 35bd 1f7e 6d3d e616 8c3c 925d 71bd
00000330: 4bcd 29bd ced3 76bc 8761 503c 7a8e cbbc
00000340: f3f0 793c 91ab a23d a647 6bbd a375 dcbd
00000350: 406b 833d 707a 3ebd bfbd c03d e906 253d
00000360: d17a cbbc 7039 4dbd 7abd 883d 5560 4d3d
00000370: 8ba7 8d3c 63ca 46bc 2a5c a7bd b249 6ebd
00000380: c539 543d 3b0e 573d 8e7c 353d 2fd8 0c3d
00000390: c7e5 693c 49df 2f3d fcf0 d03c 2ae8 5abd
000003a0: 3a98 a1bd 5579 f4bb 4867 afbc 0b04 9bbd
000003b0: f371 31bd 9616 f6bc f3f1 05bd ca21 a13d
000003c0: 91fa 6a3d a61b 97bd 7844 3c3d 80a3 b53d
000003d0: 0f23 ad3d 60ec 9d3c 901c 963d 84d9 5e3d
000003e0: 59b0 aebb f32f 953d 716f febb a925 60bd
000003f0: 14f8 543d af88 2b3d 7372 d03c bd92 87bc
0.07767958 0.012879659 -0.057702184 -0.061191987 -0.07741248 -0.038963586 0.05329342 -0.033066858
-0.008015947 -0.065400064 0.09247762 0.068205975 0.042141277 0.06261357 0.07499008 0.07387727
0.06238819 -0.024466403 0.028252967 0.047353767 -0.05454926 -0.031323235 0.049124967 -0.057538576
-0.039899588 0.060370307 -0.024994805 -0.059343312 -0.09058792 0.06386912 0.032939512 0.039649773
-0.018760769 -0.033766773 0.037924405 -0.09609408 -0.074998476 -0.03788265 0.07144673 0.03386555
-0.07402448 -0.059076086 -0.025465243 -0.042414878 0.008565604 -0.03358207 -0.027305977 0.09126391
0.021087782 0.06577775 -0.08073544 0.01513743 0.003958022 -0.006624651 -0.057002906 -0.007883714
-0.02089666 -0.077485435 -0.0546447 0.042476594 -0.0018145291 0.053550098 -0.03725748 -0.07549934
-0.016160034 -0.011663158 0.052446343 -0.0712966 0.040733144 -0.05123236 -0.034599137 0.02460458
0.03353371 -0.009413535 0.036922272 -0.10407902 0.029718436 0.044775367 0.000158489 0.012637893
-0.07497771 0.011761481 -0.012076148 0.07900071 0.01208409 0.004791147 0.00094081956 -0.05930079
-0.04680295 0.032983217 -0.0017536534 0.079229936 0.0073084827 -0.03816135 -0.037289806 -0.03789479
-0.080871515 -0.018341767 0.026787922 0.057962157 0.038613245 -0.013366265 0.040670116 0.05244199
-0.035577945 0.03874212 0.0019118671 0.015994754 -0.09966795 -0.016330032 -0.022765977 -0.017859293
-0.031157894 0.04820391 0.033139702 0.02124437 0.043187477 0.05255833 0.0335437 0.026770722
-0.023161419 0.018365383 -0.09761859 0.00072902645 -0.032068536 0.035568837 -0.044193022 -0.03293522
0.03787456 0.0082806265 0.022928677 0.00091026607 -0.045612074 0.028317979 -0.062165353 -0.08633319
-0.0270343 -0.06560586 0.0015955726 -0.041603062 -0.022476401 0.035214443 0.035132084 0.052551955
0.024437552 -0.06423288 0.0718626 -0.022149824 0.057034392 -0.03618173 -0.02843433 -0.045187473
-0.054564375 0.015630625 -0.0338853 -0.0047054994 -0.00028504385 0.047065582 0.08699724 0.042207286
0.044485416 0.025883155 0.014343455 0.036378957 0.0050000655 -0.009331813 -0.10429206 -0.01815351
-0.045908473 0.019093508 -0.008575754 -0.026643699 -0.07474889 0.02577985 -0.11451431 -0.0053064325
-0.014637356 0.08486533 -0.04238126 -0.037150517 0.057666823 0.065400206 -0.013873469 -0.096196026
-0.042412125 -0.09779908 0.025463419 -0.028120805 -0.0045019556 0.0029372291 0.038697504 -0.0582281
-0.037062224 -0.03816573 -0.073703416 0.0038882913 -0.054866225 -0.027336461 -0.06467553 0.083716735
-0.04425259 0.057981607 0.017100763 -0.058927126 -0.04145555 -0.015065147 0.012718565 -0.024848212
0.015255201 0.0794288 -0.057441376 -0.10764625 0.06416941 -0.046503484 0.09411191 0.040289793
-0.024838837 -0.050103605 0.06676765 0.050140698 0.017291805 -0.012133214 -0.08171876 -0.05817575
0.051812906 0.052503806 0.044308238 0.034385856 0.014275975 0.04293755 0.025505535 -0.053444065
-0.07890363 -0.007460753 -0.021411553 -0.075691305 -0.04332156 -0.030040067 -0.032701444 0.07867773
0.057367865 -0.073783204 0.045963734 0.08869076 0.084539525 0.019277751 0.073296666 0.054406658
-0.005331081 0.07284536 -0.0077647497 -0.054723416 0.0519944 0.0418784 0.025445199 -0.016549462

e2.bias f4 [19]
00000000: fa90 9d3d 343f ccbc 37cd e53c 539f a6bd
00000010: 8f13 f4bc 7edd 243c 2536 34bd 11d8 8a3c
00000020: b260 06bd ccf0 26bd c312 2b3c a662 6b3d
00000030: c612 27bc 589d 223d 06a2 b1bc 0013 1b3d
00000040: c58e 16bd 24df 1c3d c9f5 85bb
0.07693668 -0.024932481 0.028051956 -0.081358574 -0.029794483 0.0100625735 -0.04399695 0.016948732
-0.03280706 -0.040756986 0.010441485 0.057467125 -0.010197347 0.039700836 -0.021683704 0.037859917
-0.03675725 0.03829874 -0.0040881378

e3.weight f4 [19, 152]
00000000: 9cbc 843d 8e61 813c 5318 573c 1af7 5c3d
00000010: 681c e8bc 9475 483d 6bf3 eabc f1d8 d63a
00000020: d415 f9bc 66c8 1b3d 57d2 8a3d d100 1c3c
00000030: 4218 0ebc 9e4f 853c f2c8 cc3c c97a c8bb
00000040: 0f37 303d 0d02 00bd 57c9 2abd ab0a 7f3c
00000050: ffeb 4d3c 2f17 303d 01b8 0abd c0e2 083c
00000060: 5ab8 f83b a183 023d 4c83 223d 36d6 243c
00000070: 7b41 66bd 60e2 9bbd d637 0a3b d656 09bd
00000080: ec30 323d c749 92bd c88f 17ba f749 bdbc
00000090: 81a1 71bd d7ad e43c b44c cdbc 6ece df3b
000000a0: 316f 5cbd 9654 d9bc f89f ecbc ebdf c6bc
000000b0: 05a3 553d 2084 983d 9a0c 823d 90e3 0fbd
000000c0: 9512 7cbd 0365 84bc bd91 d83c 0df5 72bd
000000d0: 5f05 96bc 6a2b b63a 7907 763d a7ba 09bd
000000e0: 0e55 813d 36c8 953d a3aa 0f3c cb25 6cbd
000000f0: e2b9 7b3c af47 ea3c f65b 0bbd 7f0a 77bd
00000100: 14be ea3c 184c babd 008a 973d e53e 10bb
00000110: aebe 48bd 64d6 07bd c1df 04bd 8a34 913b
00000120: bd15 323d 5fb3 5e3d 2462 903c ce47 f13c
00000130: 5704 7c3d da97 8c3d 02d9 463d a723 873d
00000140: 941b efbc dca9 94bd f9db 8cbd d147 a2bc
00000150: 1333 c43b 9511 72bd 352b 06bd 7e6e 5dbd
00000160: bea3 a33d 2c0b 82bd 1e52 653c 13bb 84bd
00000170: 4957 813c 5c57 5fbd 3996 4bbc ccc2 efba
00000180: 993c 01bd 9547 af3d 06bd 5cbd 2add a0bc
00000190: 4977 68bc 66a8 7d3d 2815 8dbd 7988 1fbd
000001a0: 055e 57bb 8eca c53c 70f0 60bc 947b c53c
000001b0: 3be5 c43c 41d2 993d 8aed 183d 3407 00bd
000001c0: b2c0 a8bd be1a 1cbd 9275 22bd 0ac3 903c
000001d0: c031 543d 402e 8b3d 3745 173d 39d9 313c
000001e0: 295e 3abd dafe 9d3c b4df 683d a9f8 bf3c
000001f0: ece2 343d 5c86 2a3d b850 293d 23bc b13c
00000200: f426 a0bb dded 043d 3592 85bd 63df 263d
00000210: 876c 91bd 3dff 333d 715c f1bc 386c 2cbd
00000220: b40b 8d3c ba81 38bd 3e93 d3bb 7fc8 75bb
00000230: fb6b 15bc ed7b 433b cf6f 62bc 860b 3abd
00000240: 7b31 3f3d 1037 4fbd 3ba5 153d a794 c7bc
00000250: 7f3e 5cbd 9c5f b2bc 2573 3dbd 2de9 283d
00000260: c4d8 87bd 4f1a 603c 5770 633d 1e8b ee3c
00000270: bb53 0c3d 5f5c a93d fc99 d9bb 8216 363d
00000280: 4388 633d 21ed afbd 456a a5bd ee7e 6a3b
00000290: 4740 8d3d 786d 94bd f6f6 7f3c 1090 6bbd
000002a0: 09c5 cf3b 78a1 a4bc acee 6abd cbd7 b0bd
000002b0: 2019 343d 670c 703d ed9b a9bc 9e61 3a3d
000002c0: e968 f03c 3db5 d1bc 74a1 733c 1541 863d
000002d0: ffd7 3dbd 6660 be3c eb57 2f3d 50c3 9fbb
000002e0: 666e 14bd f293 9c3c 01e3 5bbd cf94 8fbd
000002f0: 0901 e53c c850 2e3d ff67 94bd e00f 5d3d
00000300: 7907 efbc 2fa0 debb 79ae 433a 8742 c2bb
00000310: 1b60 1cbd f3d8 903d a640 b53c 5317 72bd
00000320: 2b7c 8dbd ffc2 56bc 9202 1d3d 15e6 5bbd
00000330: f675 7b3d baa4 12bc 35cf 83bd 070c 58bd
00000340: 9fb2 20bd f9dc ab3c 5b3b ab3c 0d13 3c3d
00000350: d16e 7e3d 5018 56bd 436c 8ebd ae20 a4bd
00000360: d6a1 c23a db45 a13d 4b12 ae3c f1a8 943d
00000370: af85 603d 4e18 0ebc 3b57 673d 36dc fc3c
00000380: 29e6 c5bc 85fd 713d 6702 a1bc b0d3 79bd
00000390: da3c 243d ad0d 7b3d e3c0 bd3c ff6f fd3c
000003a0: 5a42 b2bd b2eb d03c 9955 2e3d f54f 41bd
000003b0: 7eaa adbd a774 0c3c 2209 a33d 0613 86bd
000003c0: e34c 833c dfbd 88bc f375 6abd 6e0f 253d
000003d0: 7f25 28bd 1c10 fe3c 597b 763d e504 8c3d
000003e0: b37e 99bd 5cb3 323c 1fb5 dcbc fa1c 373d
000003f0: 371e b2bc 407d 613d 6858 79bd 0f01 103c
0.06481287 0.015793588 0.013128358 0.053946592 -0.028333858 0.048940256 -0.028680524 0.0016391558
-0.030405916 0.03803291 0.067784004 0.009521679 -0.008672776 0.016273316 0.024998162 -0.0061181528
0.043021258 -0.031251956 -0.04169592 0.015566508 0.012568473 0.04299086 -0.033866886 0.008354843
0.007590336 0.031863812 0.039675996 0.0100608375 -0.05621479 -0.07611537 0.002109041 -0.03353008
0.043503687 -0.07142978 -0.0005781618 -0.023106558 -0.058991913 0.027914925 -0.025060989 0.0068300283
-0.053816978 -0.026529592 -0.028884873 -0.024276694 0.05215742 0.07447076 0.0635006 -0.03512913
-0.06154116 -0.016161447 0.02643668 -0.05931573 -0.018313108 0.0013898436 0.06006572 -0.03362527
0.06315051 0.07313578 0.00876871 -0.05765323 0.015364142 0.028598635 -0.034023248 -0.060312744
0.02865509 -0.09096545 0.07399368 -0.0022010144 -0.04900997 -0.033163443 -0.03243995 0.004431312
0.043477762 0.05437028 0.017624922 0.029453184 0.061527576 0.06864901 0.0485468 0.06598597
-0.029187955 -0.072589606 -0.06877894 -0.019809635 0.005987534 -0.0590988 -0.03275605 -0.05406045
0.07990216 -0.06349787 0.013996629 -0.06480994 0.015788691 -0.05452667 -0.012425953 -0.0018292307
-0.03155193 0.08558575 -0.053891204 -0.01963671 -0.014188596 0.061928175 -0.06888801 -0.03894851
-0.0032862436 0.024144437 -0.0137292 0.024106778 0.024035087 0.07510806 0.03733591 -0.03125687
-0.08239879 -0.03811144 -0.039662905 0.017671127 0.051805258 0.06795931 0.036931243 0.010855013
-0.045499954 0.019286562 0.056853965 0.023434 0.044161722 0.04163204 0.041336745 0.021696156
-0.004887456 0.032453407 -0.065220274 0.040740382 -0.07100778 0.043944586 -0.029463025 -0.042095393
0.017217495 -0.045045592 -0.0064567616 -0.0037503538 -0.009119983 0.0029828504 -0.013820603 -0.045421146
0.046678048 -0.05058962 0.03653453 -0.024362875 -0.05377054 -0.021774106 -0.04625239 0.041238
-0.06633142 0.013678147 0.055527057 0.02911907 0.03425954 0.082695715 -0.006640671 0.04445506
0.05554987 -0.085901506 -0.0807691 0.0035781222 0.068970256 -0.07247442 0.015622845 -0.057510436
0.006340627 -0.020096526 -0.05735652 -0.08634909 0.043969274 0.058605578 -0.020704234 0.04550325
0.0293469 -0.025599116 0.014870036 0.06555382 -0.046348568 0.023239326 0.042808454 -0.004875578
-0.036238097 0.019113515 -0.053683285 -0.07010805 0.027954595 0.042557508 -0.07246398 0.053970218
-0.029178368 -0.0067939977 0.0007464658 -0.005928341 -0.03817759 0.0707263 0.022125553 -0.059104275
-0.06908449 -0.013108014 0.03833253 -0.05368622 0.061391793 -0.008950407 -0.06436006 -0.052745845
-0.039232846 0.020979391 0.020902326 0.045916606 0.0621174 -0.05226928 -0.06954243 -0.08014046
0.0014849256 0.07874652 0.021248957 0.072587855 0.05481499 -0.008672787 0.056479674 0.030866724
-0.0241576 0.059079666 -0.019654466 -0.060992897 0.040097095 0.06129234 0.023163265 0.030937193
-0.08704062 0.025503013 0.0425621 -0.047195394 -0.084797844 0.008572734 0.07960726 -0.06546597
0.016027873 -0.0166921 -0.05724139 0.040297918 -0.041051384 0.03101354 0.060176227 0.06836871
-0.07494869 0.01090702 -0.026941834 0.04470537 -0.021742923 0.05505109 -0.060875326 0.008789315

e3.bias f4 [19]
00000000: 5ef6 163b 9390 85bc ebb3 8bbd c9cb 7d3c
00000010: 3b66 05bd e5a2 b3bc 1154 e9bd cc66 7abd
00000020: e4f0 99bd 28e0 48bb e0a8 85bd 7bfe 58bc
00000030: 5a55 183c 720a 023c a4c2 f93c b6df 6e3d
00000040: 4ae7 353c efd8 a4bd 80f6 84bd
0.002303503 -0.01630429 -0.06821426 0.015490481 -0.032568198 -0.02192826 -0.113929875 -0.06113319
-0.07516649 -0.0030651186 -0.06526351 -0.013244267 0.009297693 0.007937061 0.03048832 0.058318816
0.011102507 -0.08049189 -0.06492329
