carla/self_explaining_model/catalog/vcnet/library/vcnet_tabular_data_v0/save_models/vcnet_model_give_me_some_credit_dataset.pt (torch, 787747 bytes, 19 tensors)

se1.weight f4 [296, 10]
000000 ff 88 7f c1 fe 23 1b 3e 7c d3 ee 3d bd c1 33 3e
       -15.970946 0.15150449 0.11661431 0.17554374
000010 58 f2 10 3d 8e 86 07 3d 0e c2 e1 bf 43 e6 56 3e
       0.035387367 0.033087306 -1.7637346 0.20986275
000020 e0 a8 ff 3e ab d3 f2 3c 25 3d 24 40 36 da 4c 3d
       0.4993353 0.029641947 2.566232 0.05001279
000030 a9 51 9a 3e a3 be f5 3e 58 78 3c 3e fb f3 9e 3c
       0.30140427 0.47997007 0.18405282 0.019403448
000040 4f 43 0f 40 04 29 a5 3d 77 98 cd 3f 52 67 09 3e
       2.2384832 0.08064464 1.6062154 0.1341832
000050 a5 06 62 c0 57 75 85 3c 8c 81 06 bf d8 d8 88 3d
       -3.5316556 0.016291304 -0.5254142 0.06681985
000060 e0 82 86 3d f9 cf 87 be 64 02 10 3a f1 cc da be
       0.06567931 -0.26525858 0.00054935203 -0.42734483
000070 6f 5c cb be 1c 7d 64 bf 3d 99 22 3e 00 e3 7e bd
       -0.3971896 -0.892534 0.15878768 -0.062228203
000080 d6 d4 81 bc 20 8c 68 bd bc 8d d1 bd da 2a e8 3a
       -0.015848558 -0.05677426 -0.10232112 0.0017712966
000090 ad e3 81 bb 87 63 31 3d 16 0f a5 bb b1 14 86 bc
       -0.0039639086 0.043307807 -0.005037199 -0.016367288
0000a0 f7 5b b4 3f 3b 2d b1 bd 70 c2 f6 3e 0b 73 09 3f
       1.4090565 -0.08651205 0.4819522 0.53691167
0000b0 cd e1 2a 3e 65 44 4c be 0a 84 0d 40 79 52 8c bb
       0.16687699 -0.19947965 2.211184 -0.0042822924
0000c0 b3 38 f5 3f 4a db 85 be 87 56 86 bf f4 64 19 bc
       1.9157928 -0.26143867 -1.0495156 -0.009362448
0000d0 8d e1 b1 bf 56 c8 d0 3e 80 20 a0 3d 5a 0c 87 3e
       -1.3896958 0.40777844 0.07818699 0.2637661
0000e0 88 78 b5 3f 55 e3 61 3d f1 88 b4 3f 99 a4 dd ba
       1.4177408 0.05514844 1.4104291 -0.0016910016
0000f0 56 cc 0d bf 81 f5 1e bd 5b 76 22 3e 27 73 3c 3d
       -0.55389917 -0.03880835 0.15865462 0.046008255
000100 c2 86 0e 3d e2 5c 94 3c c5 a2 04 3f 15 ec cc bd
       0.034796484 0.018110696 0.51810867 -0.100059666
000110 6a 81 ca be 14 72 87 bc 20 c7 30 3f c1 6f bd 3d
       -0.3955186 -0.016533889 0.6905384 0.09249831
000120 50 49 65 3d b5 82 cf 3c ba 84 80 be 09 16 d6 bc
       0.05597812 0.02533088 -0.25101262 -0.026133554
000130 da 20 67 be da 8e f2 3d d3 02 cd 3e 43 be 6d 3d
       -0.22571126 0.11843653 0.40041217 0.058042776
000140 09 50 93 3f 40 e0 fa 3b 9d f2 f5 3d e5 fd 1e 3e
       1.15088 0.007656127 0.120091654 0.1552654
000150 da 78 80 3e 6c d5 84 3d 2e 40 93 3e 74 8a c3 bd
       0.25092202 0.064860195 0.28759903 -0.09547892
000160 90 de 79 be aa 78 00 bc 2e 15 9d 3f e6 7d 5f bd
       -0.24401307 -0.007841269 1.2272089 -0.054563425
000170 1b 60 62 3f b3 c1 92 3e 6b ae 64 be b4 5e 7f be
       0.88427895 0.28663406 -0.2233216 -0.2493847
000180 58 97 dc 3e bf 66 ed bd 77 24 fa be 33 ea 81 be
       0.43084216 -0.11591863 -0.48855945 -0.25373992
000190 13 bc e3 c0 ac 37 00 3e f1 d4 b4 be 22 8b 19 be
       -7.1167083 0.12521237 -0.3531871 -0.14994481
0001a0 16 af 34 bd 21 da 21 be 41 af 2f c0 77 4b 20 be
       -0.044112287 -0.15805866 -2.7450716 -0.15653788
0001b0 db 33 e4 bf 37 d5 f0 be 16 a6 81 3f 1c 28 05 3e
       -1.7828325 -0.4703767 1.012881 0.13003582
0001c0 a5 bb a4 3e 47 45 8b 3b 79 b7 09 be 2d 2c 45 3d
       0.3217441 0.004250202 -0.13448896 0.048137832
0001d0 dc a5 be 3c 9c e2 43 be 8b 17 83 3d 0f 29 1b bb
       0.023272447 -0.19129413 0.06400975 -0.0023675596
0001e0 87 30 ca 3e 2e fd a1 bc a6 9d 89 bc 81 2e 73 c0
       0.39490148 -0.019774046 -0.016798805 -3.7997134
0001f0 ed a5 92 bd bb d4 5c bd 7e eb be be ad 5d 81 bd
       -0.07160554 -0.053913813 -0.3728904 -0.06316695
000200 79 ae e4 3e cb 71 0b 3d cf e2 a1 c0 b7 2c 8a 3e
       0.44664362 0.03404407 -5.0589366 0.2698724
000210 29 31 54 bf 8d 38 34 3e 41 e3 03 3d fe 55 e8 bd
       -0.8288751 0.17599697 0.032199148 -0.11344527
000220 7a f1 99 be 93 30 3e bf 49 0f ab bf 71 d6 78 be
       -0.30067044 -0.7429287 -1.336404 -0.24300553
000230 18 e9 df 3e 9d 3b 85 be 27 91 a2 3e 1d 4e 17 be
       0.43732524 -0.26022044 0.31751367 -0.14775892
000240 1b fe 7c be 32 cc 4e 3e 68 c4 34 3f 8e 36 89 3e
       -0.24706309 0.20195082 0.7061219 0.26799434
000250 24 e8 a1 3f d2 40 3b be d4 96 45 3f 0f 53 ef bc
       1.2648969 -0.18286446 0.7718327 -0.02921441
000260 d1 d0 10 bf ec 6f b9 3d 71 01 a1 3e 14 5d aa bd
       -0.5656863 0.090545505 0.31446412 -0.083185345
000270 45 0b b3 3f 4f ef 45 3e 05 87 db 3f 37 07 0e bd
       1.3987814 0.1932957 1.715058 -0.03467485
000280 1f 2b 8d c1 1e 1d 85 3c 25 c6 5a 3d 14 e0 3b bd
       -17.646055 0.016249236 0.05341162 -0.045867994
000290 c7 94 9e 3d 90 bc 40 bc 2f 85 46 bf 90 3f ef bb
       0.07743221 -0.011763707 -0.7754697 -0.0073012784
0002a0 3d ca 4b bd 3f f9 c5 3d 36 cc 47 c0 f3 c9 a8 bc
       -0.049753416 0.096666805 -3.121839 -0.02060411
0002b0 e0 b2 ed 3e fe b3 91 bf 98 da d3 3a 96 aa 9b 3c
       0.46425533 -1.1383054 0.0016163168 0.01900224
0002c0 f0 9b 87 be d4 02 da bd 7c b4 fc bb 03 c6 35 3d
       -0.26486158 -0.10645071 -0.007711945 0.04437829
0002d0 4c 4f 86 bb e2 bd 35 bb 22 4d 07 3a b0 84 6c ba
       -0.0040988084 -0.0027731587 0.0005161335 -0.00090224575
0002e0 db 0e 06 bc c7 56 27 3b 74 be 39 bc aa 52 6e 3a
       -0.008182253 0.00255339 -0.0113369115 0.00090912974
0002f0 83 e7 68 bb c9 9e c4 3b fb c9 95 3d 44 33 86 3b
       -0.0035538382 0.006000374 0.07313915 0.004095467
000300 05 34 31 bd 72 4e 77 bc 12 6c b0 bd b2 b0 d3 3b
       -0.0432625 -0.015094386 -0.08614363 0.0064602727
000310 02 c7 ce bc 56 2d da 3b 5b fe 24 bc 61 de 11 3c
       -0.025241379 0.0066582365 -0.010070409 0.008903117
000320 1e f8 9c bf ac bf 30 bd 58 ad 91 3c ef 18 b4 bd
       -1.2263219 -0.043151543 0.017782852 -0.08793818
000330 4e c5 b9 3d c9 c8 ac 3b 6c d9 9c be 39 d2 00 bd
       0.09070836 0.005272959 -0.3063463 -0.031450484
000340 a0 0b 5c 3e 89 57 85 bc 8d 8a 66 bf 82 0a 95 b9
       0.2148881 -0.016277092 -0.9005516 -0.00028427324
000350 b5 72 1d 3e fd fe cf bd 42 91 17 3e 3f 31 1a 3c
       0.15375789 -0.10156057 0.14801505 0.009411155
000360 17 69 bd 3e 93 2c e3 bc d0 2f 8b bf d4 d5 41 bc
       0.3699424 -0.027731216 -1.0873966 -0.011830766
000370 7d ac cf c0 aa 48 41 3e 39 a8 0f bf 35 64 d8 3d
       -6.4898057 0.18875375 -0.5611606 0.10565988
000380 20 2a 09 bf f7 58 e9 bd f6 f2 c0 3d cf 58 1a bf
       -0.535799 -0.11393922 0.09421341 -0.6029176
000390 db e2 62 bf e5 dd db bf 23 fc f5 c0 88 ac 2d 3e
       -0.88627404 -1.7177092 -7.6870284 0.16960347
0003a0 94 1a b3 3e 56 07 27 be bd c1 da 3d ae 2a 9d 3d
       0.34981215 -0.16311392 0.10681484 0.07674156
0003b0 f2 e4 db bf 53 b6 4f be 8a 6a bd bf 35 c0 ad be
       -1.7179244 -0.20284395 -1.4798138 -0.33935705
0003c0 04 27 04 3f a3 7b fd 3b b8 9c 00 bf 0e 89 60 be
       0.51622033 0.007735686 -0.50239134 -0.21927282
0003d0 a1 62 fb bd 56 3e 0f be b5 aa e3 bd ca 04 b2 3e
       -0.12274671 -0.13988623 -0.11116544 0.3476928
0003e0 f3 3b 4b 3f 31 ac bc bd 9e 9b ae 3e b5 a4 9c bc
       0.7938835 -0.092125304 0.34103101 -0.019121507
0003f0 15 68 7f bd 44 82 22 bd 33 95 88 bd 6b c0 79 b9
       -0.06235512 -0.039675012 -0.066690825 -0.00023818172

se1.bias f4 [296]
000000 f1 a3 0b be 3f 89 26 be ec af aa b9 b8 6e 44 3d
       -0.13636757 -0.16263293 -0.00032556 0.047957152
000010 bf 7e f2 bd 95 16 e5 bd 2f 66 95 3c 4f 32 70 bd
       -0.11840581 -0.11185948 0.018237201 -0.058641728
000020 c1 13 7b bd d6 4e a0 bd d0 37 46 3e 13 6c 13 be
       -0.061298136 -0.07827537 0.19357228 -0.14396696
000030 0a 09 fd 3c e2 9b 65 be 7f cc 91 be ec a0 58 bc
       0.0308881 -0.22422746 -0.2847633 -0.0132219605
000040 1f 9d 45 bc 5f 87 a0 ba da 58 12 bb c3 2c 98 3b
       -0.012061386 -0.0012247375 -0.0022330792 0.004644008
000050 f7 18 7d 3c 99 3b 19 bc 2b bf c4 bd d0 48 a0 3d
       0.015447847 -0.009352588 -0.09606775 0.07826388
000060 38 19 e4 3c 1c 23 b4 3c 5d 00 1e 3e d0 4c 4b bd
       0.027844056 0.021989398 0.15429826 -0.0496338
000070 6b 9a 0c 3e d2 43 95 3d b0 85 1e bd 60 d9 9f bc
       0.13730781 0.07288326 -0.038701713 -0.019512832
000080 7c a0 85 3c f7 1a bd 3c d6 b4 78 38 a4 89 05 be
       0.016311876 0.023084147 5.9296224e-05 -0.13040787
000090 78 dc 4c 3d b7 ef 04 bd ce 9f 68 be 76 1e 2f 3d
       0.050014943 -0.032455172 -0.2271721 0.04275366
0000a0 03 4e 5a 3e 9a 47 df 3d d0 a8 71 3e a2 da 43 bd
       0.21318822 0.10902329 0.23599553 -0.047815926
0000b0 3e ef ab 3b 45 3c c7 bb 58 d3 62 3c cc d0 82 3d
       0.0052470258 -0.0060801827 0.013844334 0.06387481
0000c0 e4 fe 82 bc d9 2d e6 bd b7 c8 66 bd 27 c4 25 3e
       -0.015990682 -0.112392135 -0.05634376 0.16188107
0000d0 19 ce 5d 3b 26 af 8f 3e 40 4c 8f bd 97 46 46 be
       0.0033844768 0.28063315 -0.069969654 -0.19362865
0000e0 d3 d5 1c bc 9a ee 7f 3e 65 1b d4 3d 40 0a 99 bd
       -0.009572464 0.24993363 0.103567876 -0.07472658
0000f0 f7 57 9e 3a 23 15 55 3e 76 fb 6f 3e 6c 95 1b be
       0.0012080659 0.20808844 0.23435768 -0.15193719
000100 7a 8c fa 3d ac 32 e9 3b 8d c3 62 bc 76 e1 e8 bd
       0.12233825 0.0071166363 -0.013840568 -0.11371128
000110 87 34 64 be 9b 25 01 bd 7d 3f aa 3e f5 a0 52 3d
       -0.22285663 -0.031530004 0.33251563 0.05142303
000120 80 63 b0 3c b7 6c 8c 3e 0c de b1 3c 39 e9 88 bb
       0.02153182 0.27426693 0.021712326 -0.004178193
000130 69 89 a4 bc 66 00 fb 3c f0 d9 a2 bd d3 1d 0f be
       -0.020085054 0.030639838 -0.079517245 -0.13976221
000140 38 6e f4 bd b1 cc e3 bc ba 9c 14 be 63 81 b6 3d
       -0.11935085 -0.027807565 -0.14512911 0.08911397
000150 ca 50 c6 bd 15 f8 81 3e 96 db 55 3c 0c b8 a3 bd
       -0.09683378 0.25384584 0.013052842 -0.079940885
000160 cd c9 a4 bd 32 48 dc 39 62 60 b5 bc 83 61 db 3c
       -0.08046303 0.0004201546 -0.022140685 0.026779896
000170 e2 05 74 3e d0 0f 1a 3e 12 09 b1 3d c4 c7 dd 3c
       0.23830369 0.15045094 0.08644308 0.027072795
000180 81 11 66 bd dd 53 4c bd 5a 56 20 be 65 52 47 3d
       -0.056169037 -0.049884666 -0.1565794 0.048662562
000190 10 93 13 3e 61 58 9d 3e 16 92 3f bd 72 d2 ef 3c
       0.14411569 0.3073149 -0.046770178 0.029275153
0001a0 db a0 ee 3a 35 44 b3 bb ba cc 42 3d 96 25 9e bd
       0.0018205898 -0.0054707774 0.047558524 -0.07722013
0001b0 a7 82 1a 3d 3d bf 04 3e f5 1a f9 bd a3 07 c8 3c
       0.037722256 0.12963577 -0.12163345 0.024417704
0001c0 c3 3e 26 3c 9d 51 df bb 9d 38 56 bd a4 81 90 be
       0.0101467995 -0.006815149 -0.052300084 -0.28223908
0001d0 38 91 9a bd 6f 2c fa 3d f1 69 08 3b a6 3a dc bd
       -0.075472295 0.12215506 0.00208151 -0.10753374
0001e0 7a 67 9e 3c f7 83 70 3d c5 71 24 bd 0e 47 1b bb
       0.01933645 0.0587196 -0.04014756 -0.0023693475
0001f0 51 01 6d bd 11 45 ae 3c 77 df 0b 3d be 9a 30 3d
       -0.057862584 0.021273168 0.03414866 0.043116324
000200 18 f3 5a 3c 34 52 2c bd e1 fc db bc bc 86 5e be
       0.013363622 -0.042070583 -0.02685398 -0.21731085
000210 66 89 40 bb 90 e3 1d 3b 0d 44 62 3e b4 67 02 3d
       -0.002937877 0.0024091937 0.22096272 0.03183718
000220 71 5f 80 3d d1 19 15 3e 59 04 a9 bd 6d f2 14 3d
       0.06268204 0.1456063 -0.082527824 0.036364008
000230 67 68 81 bc a1 ef b2 3d 3c 94 24 be 78 43 57 bd
       -0.015796853 0.08737112 -0.16072172 -0.052554578
000240 d7 21 45 3d a0 27 42 3e e3 49 43 bd fa b9 60 3d
       0.048127975 0.18960428 -0.047677886 0.05486486
000250 29 a8 37 bb 2a fb 80 3c 38 1a 81 bd e6 c5 89 bd
       -0.0028023815 0.015744764 -0.06303829 -0.06727199
000260 33 28 e6 bc 84 14 2e bb fa 91 fd bd e4 76 00 bc
       -0.02809534 -0.0026562521 -0.123813584 -0.007840846
000270 cf 62 88 bc ef 27 1c 3e 17 d1 33 3d 1d 4f 89 bc
       -0.016648678 0.15249608 0.043900575 -0.016761357
000280 40 b2 23 bb 80 97 f3 bc d3 ec 2a 3d 47 12 a2 3c
       -0.0024978071 -0.029735327 0.04172976 0.019784106
000290 2a a6 b2 bd 68 fc 35 bd 68 14 10 3d 2a b5 1f bc
       -0.087230995 -0.044430166 0.03517571 -0.009747783
0002a0 5a 26 b1 3d 69 07 a9 3d 68 fe 0b bd 72 50 90 bb
       0.08649893 0.082533665 -0.034178168 -0.004404121
0002b0 5c 65 6a bd f2 99 f1 b9 f4 4f dc bc 53 d2 67 bd
       -0.05722557 -0.000460818 -0.026893593 -0.056597065
0002c0 45 2e 01 3c 3d 02 cf bb f0 b7 af 3d 87 34 ef 3d
       0.007884567 -0.0063174055 0.08580005 0.11679941
0002d0 f0 57 20 bc 90 f4 76 3e 50 9e 42 be 5c 73 81 bd
       -0.009786591 0.2411673 -0.19005704 -0.06320831
0002e0 e8 f4 81 bc c6 36 a8 bc b5 72 fd 3d 06 24 04 be
       -0.01586385 -0.02053393 0.12375394 -0.12904367
0002f0 f0 2b 24 3d 79 92 6d be 0e 93 ee 3d 50 6b 0b 3d
       0.040080965 -0.23200406 0.11649142 0.034037888
000300 41 f2 65 bd 38 aa 04 3e 2a b0 5c bd bc e1 11 3e
       -0.056139234 0.12955558 -0.05387894 0.14246267
000310 02 7f 04 bc bf 04 4e 3e 7d b5 3c 3d 1a 6c 19 bd
       -0.008086922 0.20118998 0.04607152 -0.03745661
000320 7a 6a 3d 3c 61 52 80 bb d8 f0 f0 bc eb 17 a4 3c
       0.0115610305 -0.0039160703 -0.029411718 0.020030936
000330 6d cc f2 bc ae 3c 9a 3d 2f 10 c5 bd be 6b a2 bd
       -0.029638493 0.07531105 -0.096222274 -0.079307064
000340 94 e6 ae 3d ee 77 cf bd 42 dc 9a 3d b2 b1 7f 3d
       0.08540073 -0.10130297 0.07561542 0.062425323
000350 3d 3f c1 3d e4 c2 1e be 7c ba a9 3c f3 3b d9 3b
       0.0943589 -0.15504032 0.020718805 0.006629461
000360 26 86 b9 3b c9 a6 24 3d 8d 8d 09 3e 07 b0 bc 3d
       0.0056617437 0.04019812 0.13432904 0.09213262
000370 56 4b 8d bd 2f 35 27 be 97 22 33 3b e0 4c 98 3a
       -0.06899135 -0.16328882 0.002733385 0.001161959
000380 20 08 0d 3e e7 0a e4 3c f3 37 c1 bb 16 99 00 be
       0.1377263 0.02783723 -0.0058965622 -0.12558398
000390 f1 96 24 3e d4 19 81 bd 36 a8 80 bc 25 97 0c 3e
       0.16073205 -0.063037544 -0.01570521 0.13729532
0003a0 ac c6 05 be 9c 71 7d 3e e9 6b 1d 3d 44 f8 d1 3d
       -0.13064069 0.2475037 0.03843299 0.10252431
0003b0 9c f2 71 3e 60 83 9d bc fd 57 da 3b 8c be 4d 3c
       0.23627704 -0.019227684 0.006663321 0.012557637
0003c0 65 15 09 bd 8a 04 87 3d c0 02 0b 3e e5 1b 12 3b
       -0.03346767 0.06592663 0.13575268 0.0022294458
0003d0 41 a6 a5 bc 5e 99 24 3c f4 fb 04 3e 8b 28 fa 3b
       -0.020220878 0.010046331 0.12986737 0.0076342276
0003e0 6c e5 9e 3b 5c 00 13 be 7e 64 84 3e 29 88 ce 3d
       0.0048491266 -0.14355606 0.2585792 0.10084564
0003f0 7a 5f c5 3a 53 c5 50 3c 64 42 4d 3e 7e e8 b2 3d
       0.0015058361 0.012742358 0.20044857 0.087357506

se2.weight f4 [296, 10]
000000 55 5f 21 3e 59 d7 3c be 90 ca 04 be 6f 42 98 bd
       0.15759023 -0.18441524 -0.12967896 -0.07434546
000010 e8 93 49 3d b5 90 ed bd 9d e2 9a 3e ae f3 9b be
       0.04921332 -0.11599866 0.30251017 -0.3045935
000020 76 05 37 be d4 8c 44 be 8f 1b af 3d c5 ce 37 3d
       -0.17873177 -0.19194347 0.08550178 0.044874925
000030 22 8c b8 bd a5 2e 8a 3e a3 c4 8b be 44 42 e4 3d
       -0.09011103 0.26988712 -0.2729846 0.11145452
000040 53 2e 32 be d0 78 93 bd 06 eb 9b be 5a bb 71 be
       -0.17400484 -0.072007775 -0.30452746 -0.23606625
000050 0a 5f 89 be e4 45 0d 3e e3 30 f3 bd 98 63 29 3e
       -0.26830322 0.13796192 -0.11874559 0.16541898
000060 0e 7e 2f be fd 75 a0 bd d7 c9 1c 3d ce aa 87 3e
       -0.1713793 -0.078350045 0.038278427 0.264975
000070 da 8b ae bd 52 b9 3b 3e 05 aa b2 3d 4c f2 44 3e
       -0.08522768 0.18332413 0.08723835 0.19233054
000080 da 8e 4c 3e 03 69 03 3e dc 4a c3 bd ef c4 b5 bd
       0.19976369 0.12833028 -0.09535763 -0.08875453
000090 fc 1f fc 3d 81 7e 30 3e 16 44 8a bc 56 52 22 3e
       0.12310788 0.17235757 -0.016878169 0.15851721
0000a0 8c d0 42 be b0 85 36 3e e2 f2 1e bd 87 d7 5e be
       -0.19024867 0.17824435 -0.03880585 -0.21761905
0000b0 6f 56 1d be 74 4c 77 be 9e a3 82 3d 15 0b 40 be
       -0.15365003 -0.24150258 0.06378864 -0.18754227
0000c0 78 75 b9 bd 61 4f a2 bc 9f 94 45 be bb 09 05 3c
       -0.090556085 -0.019813241 -0.19294976 0.008119996
0000d0 cd 62 24 bd 11 22 cd 3d 93 ed 69 3e 7e 7a 43 be
       -0.040133286 0.10016263 0.22844534 -0.19089696
0000e0 bd 0b 31 3e 87 8a db bb 4f 14 39 be 09 db 12 be
       0.17289634 -0.0066998634 -0.18074153 -0.14341368
0000f0 f8 d8 a4 3d a1 d8 86 3d 97 59 27 bc 02 36 21 be
       0.08049196 0.065842874 -0.010214231 -0.15743259
000100 b5 4c 23 3e 1f 2e 40 3d 7a 65 9d be 9a e8 64 bd
       0.1594723 0.046918985 -0.30741483 -0.05588589
000110 18 b6 af bd 08 2d 0a be e6 9e 33 be b2 59 83 be
       -0.085796535 -0.1349374 -0.17541084 -0.2565437
000120 e5 76 9f 3e c3 e3 93 be af 81 96 3e d1 8d 7e be
       0.31145397 -0.28884706 0.29395816 -0.24858786
000130 a0 20 9d bd 39 a8 04 be ba 52 2d be ce 41 e6 3d
       -0.07672238 -0.12954797 -0.16926089 0.1124302
000140 c9 ae 3b 3e 52 b7 54 be 58 d1 16 be f9 48 25 3e
       0.18328394 -0.20773056 -0.14728296 0.16141118
000150 28 91 1c bd 10 bb 9d 3d 09 4f 29 3e de 62 ef bd
       -0.03822437 0.07701695 0.16534056 -0.11688779
000160 cb b5 33 be 6c 64 ee 3d 1a 29 ed bd d4 8b 57 be
       -0.17549817 0.11640248 -0.11580105 -0.21049434
000170 a6 56 23 be 4f 90 16 be 23 37 a1 3e 45 1c 79 3d
       -0.15951023 -0.14703487 0.31487378 0.060817976
000180 90 75 0b 3e 9a fc 2d 3d d6 4c 5a be c6 ad 69 3e
       0.13619065 0.042477228 -0.21318373 0.22820196
000190 16 59 49 bd 4d b1 a7 bd d2 f2 83 3e b8 f4 24 be
       -0.049157225 -0.08188114 0.25771195 -0.16108978
0001a0 f2 81 83 3d a6 bb 89 be 6e ee 25 3e b3 9f 00 3e
       0.064212695 -0.26900977 0.16204235 0.1256092
0001b0 09 23 85 be 01 bc 34 3e 1a 8b 0e 3d 36 35 27 be
       -0.26003292 0.17649843 0.034800626 -0.16328892
0001c0 78 0c 8a 3e 26 12 0b 3e da 96 e3 3d 4c 8c f0 bd
       0.26962638 0.13581142 0.11112757 -0.117455095
0001d0 3c 8e 31 be e5 3c 2e be 89 51 f3 3d bf 76 ae 3d
       -0.17339414 -0.17015417 0.11880786 0.08518743
0001e0 cb cd 41 be 3e 54 93 3e 5c a9 3c 3e 96 45 f7 bd
       -0.1892616 0.2877521 0.1842398 -0.12073819
0001f0 4d 89 27 3e fd 43 09 be e4 3e cb 3d 09 c3 86 3e
       0.1636097 -0.13404842 0.09924105 0.26320675
000200 9e 36 8f be 14 01 21 be f2 67 92 bc 61 28 41 3d
       -0.27971357 -0.15723068 -0.01787183 0.04715765
000210 40 26 85 be 36 0a 55 be 38 1e f8 bc ca bf 3a bd
       -0.26005745 -0.20804676 -0.030287847 -0.04559306
000220 f4 b0 8b 3d 4e 96 24 3d 67 db 84 3d 5b bc ab 3c
       0.068208605 0.040182404 0.0648716 0.020963838
000230 e4 df 14 3d ca 85 95 bc 88 94 e8 3d 0d 01 5d 3e
       0.03634633 -0.018252272 0.11356455 0.21582432
000240 e0 99 21 be 01 c1 27 be d7 20 0e 3e c4 29 6a be
       -0.15781355 -0.16382219 0.13879715 -0.22867495
000250 6a 6f 52 3e be 98 15 3e 5a 56 3b 3d 10 95 0c be
       0.20550314 0.14609048 0.04573665 -0.13728738
000260 7e 5b 1b 3c 7e 03 80 be 8d aa 91 be 4d 78 98 3e
       0.009482263 -0.25002664 -0.28450432 0.29779282
000270 58 38 91 be 25 58 86 be 65 92 fb bd 4d 7a 91 3c
       -0.283633 -0.26239124 -0.12283782 0.017758513
000280 92 54 94 3d 4b 92 1f be 03 62 fb bc 83 9f 90 bd
       0.07242693 -0.1558315 -0.030686384 -0.070616744
000290 1b 79 87 3e 7c 87 8c 3e 81 17 05 3e 05 7e ff ba
       0.26459584 0.27447116 0.12997247 -0.0019492513
0002a0 65 d7 72 3e f5 b8 82 be e2 4b 07 3e a7 38 3c be
       0.23714979 -0.25531736 0.13212541 -0.18380986
0002b0 59 88 7c 3e 10 20 8f be 5e a1 f0 3d 5c 1e 85 be
       0.24661388 -0.2795415 0.11749528 -0.25999725
0002c0 cf fe 3c 3e e7 d6 6c 3d 83 ec 8a 3e 85 3a 74 be
       0.18456577 0.057822134 0.2713357 -0.23850448
0002d0 65 69 50 3e 91 1a 58 be af ca 2e be 09 55 f6 3d
       0.20352705 -0.21103884 -0.17069505 0.12027938
0002e0 1f 06 5a bd 18 aa 7f be 29 c5 89 be 64 24 a8 bd
       -0.053228494 -0.2496723 -0.26908234 -0.08210066
0002f0 d4 50 b3 3d 93 36 8e 3e 4f 27 6e 3e 5c d2 a9 3b
       0.08755651 0.27776012 0.23257183 0.0051825475
000300 a5 a0 46 be ab 59 90 be 3f a6 90 3e e7 8a 34 be
       -0.19397219 -0.2819341 0.28251836 -0.17631112
000310 57 cd 63 bd 80 a5 82 be 76 d3 5f be fa 53 7b 3d
       -0.05561575 -0.2551689 -0.2185801 0.061359383
000320 dd 1b a0 bd 86 53 14 3d 8d 7e 1e bb e9 fb 83 3c
       -0.078178145 0.036212467 -0.0024184317 0.016111331
000330 43 53 80 bd 3f 5a 48 bc c3 c0 0c 3e f6 8d 6c 3e
       -0.06265881 -0.012228548 0.13745408 0.23101029
000340 96 d9 88 3e 95 18 84 be e6 dc 88 be 47 95 41 bd
       0.26728505 -0.25800005 -0.26731032 -0.047261503
000350 8a 9f c5 bc 16 ba 32 3e 04 6a 98 3e 9a 4f a6 3d
       -0.024123926 0.17453799 0.29768384 0.081206515
000360 7a fe 65 be 7b 9c 12 bd f3 6b 51 3e 81 f2 ee 3d
       -0.22460356 -0.035793763 0.20451336 0.11667348
000370 0a 02 65 be 55 34 97 3c 56 55 9c be 32 7c 02 be
       -0.22364059 0.018457571 -0.30533856 -0.12742689
000380 97 7a 62 3e 77 77 0c be e0 b5 45 3e 90 10 84 be
       0.22117077 -0.13717447 0.19307661 -0.25793886
000390 e5 24 8f 3e 6d 76 1a 3e 37 d6 51 3e 4b dd b0 3d
       0.27957836 0.15084238 0.20491873 0.08635958
0003a0 ef 87 b7 3c ab 79 1f be 17 ae 32 be 20 5f 5e be
       0.022403685 -0.15573756 -0.17449223 -0.21715975
0003b0 00 cf 85 3e de c7 e0 bd 34 72 fc 3b 1e 36 98 be
       0.2613449 -0.10975622 0.0077040438 -0.29728788
0003c0 38 d1 ad 3d 0e c5 dc bd c6 7f 81 be 6b 4e 20 3d
       0.08487171 -0.10779773 -0.25292796 0.039137285
0003d0 0d 27 95 be ee 3b ff bc b4 38 84 be ea b7 4c 3e
       -0.29131356 -0.031156506 -0.2582451 0.19992033
0003e0 ff 94 80 be e4 8c 53 3d 37 56 20 3e 00 5e 81 be
       -0.25113675 0.051648036 0.15657888 -0.2526703
0003f0 ae a0 51 3e 4e dc 83 3e bc 7f 46 be 71 ec d8 3c
       0.2047145 0.25754017 -0.19384664 0.026479932

se2.bias f4 [296]
000000 4f 99 81 3e 8b a1 d9 3d 2b 0b a1 be 29 d4 a1 be
       0.25312278 0.10626515 -0.31453833 -0.31607178
000010 78 14 23 be ef e6 f9 3d 0c 32 94 3e f9 c3 49 bd
       -0.15925777 0.1220225 0.28944433 -0.04925916
000020 7f ab 40 3e 46 a8 2e be 66 6c 86 bd 7c cc 48 bd
       0.1881542 -0.17056379 -0.06563644 -0.049023136
000030 e7 a1 9d be 91 3d d8 3a 33 68 ab 3d b2 5e 45 3e
       -0.30787584 0.001649784 0.08369484 0.19274405
000040 70 8d 7a be f9 ff c2 bd 09 75 43 3c 9b 66 09 3d
       -0.24468017 -0.09521479 0.011929759 0.033545118
000050 a4 71 5a 3d b7 8a 70 be 5b 52 7b 3e be 4e 92 be
       0.053331032 -0.23490416 0.24543135 -0.285757
000060 2b d5 e0 bd e1 5d 21 3e 03 85 a1 bd 09 07 1c be
       -0.109781586 0.15758468 -0.07886698 -0.15237059
000070 96 ba 9f be 06 07 5f 3e 66 ab e8 bb 3e 69 1c 3e
       -0.3119704 0.21780023 -0.0071005104 0.15274522
000080 30 a5 4e 3d a2 d0 70 be 7e d8 e4 bd 58 e4 66 3e
       0.050450504 -0.23517087 -0.11174105 0.22548044
000090 53 93 1e be 1b 33 15 be 2d 93 31 3e 9d 57 0c be
       -0.15485887 -0.14570276 0.173413 -0.13705297
0000a0 ef 71 53 3d 2a 6c 1d be 48 5a c7 3d ca c2 03 3d
       0.051622327 -0.15373293 0.09734017 0.032168187
0000b0 27 84 80 be f4 9a 75 be 02 24 ee 3d e1 18 d4 bd
       -0.25100824 -0.23984891 0.11627962 -0.10356308
0000c0 9d 61 31 3e ad cf 86 3c df 78 dd bd 8a 64 61 bd
       0.17322393 0.01645645 -0.1081407 -0.055027522
0000d0 89 88 13 be fa c9 1f 3e 4c 6d 80 3e 34 5f 21 bc
       -0.14407553 0.15604392 0.25083387 -0.009849358
0000e0 dc c1 50 be 64 c8 68 3e e9 be 83 3e 0e c0 5c 3e
       -0.20386451 0.22732693 0.2573159 0.21557638
0000f0 ea 8b bb bb 93 33 9f 3d 8b c3 83 3c b5 fc f5 bd
       -0.005723466 0.07773509 0.016084453 -0.12011091
000100 6b 51 a0 be a6 51 1e bd 5a 0d 0c 3e fb e2 3c 3e
       -0.31312117 -0.038652085 0.13676968 0.18445961
000110 70 08 9a 3d a6 a9 13 3e 0d b2 4a 3e 31 68 7a bd
       0.075211406 0.14420184 0.19794483 -0.06113452
000120 b6 73 53 3e 62 a6 d9 bb a3 5c e5 bd 13 7e fb bd
       0.20649609 -0.006642149 -0.1119931 -0.12279906
000130 c1 b8 3c be 4b 67 79 be 61 5c 94 3d a4 9c 95 3e
       -0.18429853 -0.2435581 0.072441824 0.2922107
000140 d2 21 38 3d 90 0f 2f 3d 8c f4 f2 bd 68 4b ff bd
       0.04495413 0.04273945 -0.1186305 -0.124655545
000150 e4 fb ca bd 9d 2b e0 3d 0d 50 5f 3d b5 f3 ed bd
       -0.099113256 0.109458186 0.0545197 -0.11618749
000160 39 cd 7d 3d fe 4d 62 bd 0f 75 b0 bc 8a 9b 65 3e
       0.061963294 -0.05525016 -0.021540193 0.22422615
000170 1c ef 06 be f3 11 97 3e 0d 1e 31 be b2 00 96 3e
       -0.1317715 0.29505882 -0.1729662 0.29297405
000180 ef 4c f3 3d a4 05 02 3e 4b 25 94 bd 49 7e b0 bd
       0.11879908 0.12697464 -0.072336756 -0.08617837
000190 59 dc 6c be 42 44 9b be a7 b8 62 3e 75 0e 9d 3e
       -0.23130931 -0.30325514 0.22140752 0.30675092
0001a0 25 b7 b9 3d dd 52 fd bd d6 3c 8e 3d b1 09 42 bc
       0.09068135 -0.123693205 0.06945197 -0.011843131
0001b0 97 f4 8b be 46 ab 81 be 8d db e0 3d 07 18 bd bd
       -0.27335045 -0.25325984 0.10979376 -0.092330985
0001c0 ae 09 9a bd a6 3c 43 be fc ce 0e 3e 47 68 23 be
       -0.075213775 -0.19066104 0.13946146 -0.15957747
0001d0 da d3 ce bd 7a 40 2d 3e b7 a5 9b 3e 37 57 90 3e
       -0.10099001 0.16919127 0.30399868 0.2819154
0001e0 6b f1 fe 3d b9 0b 38 3c f4 5f 73 3e 8e 26 8f 3e
       0.124483906 0.011233264 0.23767072 0.27959102
0001f0 11 60 11 3e dd 60 be 3d c7 2a 9c 3d b3 cd 03 3d
       0.14196803 0.09295819 0.07625347 0.032178592
000200 5c bb 55 3e 81 33 b7 3d 0c 83 88 be 3a 48 3f be
       0.20872253 0.089453705 -0.2666248 -0.18679896
000210 92 08 93 be b1 a3 c2 bd 45 67 84 3c eb 49 09 be
       -0.28717476 -0.09503878 0.016162524 -0.13407104
000220 43 e7 94 be 30 99 52 be 53 d0 09 3e 89 7b b6 bc
       -0.2908269 -0.20566249 0.13458376 -0.022275703
000230 1a 27 59 bd a5 b4 51 3d 38 cd 88 bd c1 78 30 be
       -0.053015806 0.051197667 -0.06679767 -0.17233564
000240 99 98 14 be e8 fc 03 be 04 8d 97 be fb 50 95 be
       -0.14511336 -0.12889445 -0.29599774 -0.29163346
000250 b0 60 f5 bd 22 08 f3 3d 00 57 9e 3e 20 3b 0c bc
       -0.11981332 0.118667856 0.3092575 -0.008559018
000260 5f 22 5d 3e ca 24 d6 3d 8a f3 80 be 67 00 22 be
       0.21595143 0.10456236 -0.25185806 -0.15820466
000270 de b2 b1 bd 6c 72 85 be de 67 35 3d 9a d5 99 3d
       -0.08676694 -0.2606386 0.04428851 0.075114444
000280 46 6d 7c be a6 4e 88 bd 3d d0 8e be 37 3b a1 3e
       -0.2465106 -0.06655626 -0.27893248 0.3149049
000290 04 87 3f 3e 5f 4d f4 bd b3 30 8b 3e 1e ae 4a be
       0.18703848 -0.1192882 0.27185592 -0.19792983
0002a0 46 36 88 3e 90 3c f9 bd ba 39 bd 3d 20 05 61 3e
       0.26603907 -0.121697545 0.09239526 0.21974611
0002b0 bd c2 16 3e 0e f1 9c 3d a4 5c 15 bd 07 90 18 3b
       0.14722724 0.07663165 -0.036465302 0.0023279206
0002c0 22 3f 8a 3e 2b a6 d3 bd 3d 20 d2 bd e3 85 25 3d
       0.27001292 -0.103344284 -0.10260055 0.040410887
0002d0 14 1e 1d be bf da f4 bd 82 6d ca 3c fc 88 73 3e
       -0.15343505 -0.11955785 0.02471042 0.23782724
0002e0 f6 28 d3 3d c5 16 48 be 65 87 43 3e 09 83 ee bd
       0.10310547 -0.19539936 0.19094618 -0.11646087
0002f0 f0 04 a7 3d 7f 8d 98 3c 0e 44 67 3e 75 a7 90 bd
       0.08155239 0.018622158 0.22584555 -0.0706319
000300 e9 92 03 be a8 03 81 bd 69 5a 3c 3b 6e d0 18 be
       -0.1284901 -0.062995255 0.0028740412 -0.1492326
000310 3d 90 5e 3e 66 9c 2d be f1 e7 4c 3d 3e 9e 78 be
       0.2173471 -0.16954193 0.050025884 -0.24279115
000320 2c d5 20 bd a8 8b 8b bd dd 8b 01 be 4d 47 29 3e
       -0.039265797 -0.06813747 -0.1265101 0.16531105
000330 e5 91 90 be 48 db 07 3d 83 56 f2 bc 61 68 28 be
       -0.2823631 0.033168107 -0.029582268 -0.16446067
000340 4f d2 7b 3e 03 48 4b 3e 7d b5 c3 3d 43 94 c9 3b
       0.24591945 0.19851689 0.095561005 0.0061517074
000350 74 7a 33 3e 2a 3d 0e be 1d c0 83 be 15 5e 9b 3e
       0.17527181 -0.1389052 -0.25732508 0.30345216
000360 cf 6f f2 bd d8 e8 81 3d b0 f0 ce 3b 40 4e 88 3e
       -0.11837732 0.063432395 0.0063153133 0.266222
000370 33 0c a1 3e bc dc 59 be e6 07 5d bb 19 43 83 be
       0.3145462 -0.2127561 -0.0033726632 -0.2563713
000380 53 25 51 3e 78 96 9a 3e 29 8e f7 bd 05 c2 6a 3d
       0.20424394 0.30192924 -0.12087662 0.057313938
000390 b3 98 8e bd 6a e5 9c bd 7c 8f 80 3e dd 6e 96 be
       -0.06962719 -0.07660945 0.2510947 -0.29381457
0003a0 1e 5e 31 bd 35 fa a9 ba 5c cc 8e be af 26 05 3e
       -0.043302648 -0.0012968244 -0.2789029 0.13003038
0003b0 2b f1 57 3e 09 9d 80 be e1 94 fa 3d 35 9b a7 bc
       0.21088092 -0.25119808 0.12235428 -0.02045975
0003c0 bf b0 97 3e e4 93 98 be 5e 75 89 3e ed 98 f0 bd
       0.29627034 -0.29800332 0.26847357 -0.11747918
0003d0 5d 7c 88 3e 34 2e 25 be 1e 63 5b 3d 1e 14 97 3d
       0.26657382 -0.16130906 0.053561322 0.07376884
0003e0 40 e4 48 3e a6 c6 17 3e 89 f8 34 3e 84 54 88 bd
       0.1961832 0.14821872 0.17672934 -0.06656745
0003f0 e0 18 80 be f7 a4 70 3b 62 ae 93 3e 38 0d 8c 3e
       -0.25018978 0.003671942 0.2884398 0.27353835

e1.weight f4 [148, 296]
000000 2a e9 fc 3c 54 a1 c9 bd 09 49 76 3d b1 b6 ab bd
       0.0308729 -0.09845224 0.060128246 -0.08384455
000010 1b 01 b2 bd 01 49 bd 3d ba a5 b7 3d 5e 3b 1a b9
       -0.08691617 0.0924244 0.08967157 -0.000147087
000020 65 bf c3 bc f6 7d 19 be 78 f6 8a 3c cf e3 2f be
       -0.023894975 -0.14989457 0.016963229 -0.17176746
000030 84 ba 88 be 0e 58 9c 3d 25 42 c1 bc c2 78 47 bd
       -0.267048 0.076339826 -0.02359111 -0.048699148
000040 0e e1 5f 3a c2 20 50 bc 1c bc 99 bc 76 be 6c bd
       0.00085403107 -0.012703123 -0.018766455 -0.057798825
000050 12 f0 bf 3d 94 b9 a7 3d 67 6a d9 3c e7 c1 45 bd
       0.09371962 0.08189693 0.026539994 -0.048280623
000060 f5 88 de 3d eb 4d 33 ba fd 08 76 bd d3 2f 12 3e
       0.10865966 -0.0006839919 -0.060067166 0.14276056
000070 2f 97 32 3e d1 ad fd 3a f2 c9 5f bd fc db 2b be
       0.17440484 0.001935417 -0.05463595 -0.16783136
000080 7b 73 a5 bd 35 b4 39 be 1d 00 af bd 8b d0 19 3e
       -0.08078667 -0.1813515 -0.085449435 0.15020959
000090 b8 09 ac 3c cf 6a 79 bb 7e 56 bc bd f5 25 16 3e
       0.021000728 -0.0038058048 -0.091961846 0.14662917
0000a0 ba a5 2f 3c 76 53 d9 bd 21 d9 e5 3d 2e 65 e4 bc
       0.010720665 -0.10611622 0.11223055 -0.027880277
0000b0 de d5 7c 3d 85 c7 85 3d d4 4b 9f 3d 73 60 06 3e
       0.061727397 0.06532196 0.07778135 0.1312273
0000c0 e3 24 87 3e 31 f1 18 3c 98 16 19 3c 4c 49 10 be
       0.2639533 0.009334848 0.009343766 -0.1409046
0000d0 9f dc 2d be 03 1b 6d bd 1d 55 8f 3d 6b 36 3d 3e
       -0.16978692 -0.05788709 0.06998656 0.1847779
0000e0 1f bd ab bd 9b f2 1d 3c 6f 0f 3b 3d 1a d7 f9 3d
       -0.08385681 0.009640361 0.045669015 0.121992305
0000f0 ce 78 a4 bc d9 bc 5a bc 92 5e f4 3d ec 93 a3 bd
       -0.020077135 -0.013350689 0.119321 -0.07987198
000100 ba b8 78 bd 1c f2 fc 3d 4d 48 00 bd d8 e7 fb 3c
       -0.060723044 0.12350866 -0.03131895 0.0307502
000110 6d d9 98 3d 00 e7 0e be 00 e1 5e 3d 11 fd 2e bd
       0.07463346 -0.13955307 0.054413795 -0.04272181
000120 28 72 fb bb a3 82 35 bd 23 40 0a 3d b1 bc 9d bd
       -0.0076735206 -0.044314038 0.03375257 -0.07702006
000130 fe df 5f 3e c7 90 01 3d 60 89 59 3d fc f0 52 bd
       0.2186279 0.03163221 0.053109527 -0.05149935
000140 0c 50 8f 3d c2 69 25 3e 9e 62 3b bd e1 04 6f 3d
       0.069976896 0.16153625 -0.045748346 0.058354262
000150 17 15 dd 3c f9 7a 2d be 95 22 02 3d b2 19 e0 3d
       0.026987595 -0.16941442 0.03177126 0.10942401
000160 05 46 8e 3c 89 bf 2d 3c 71 52 67 bc 9d 54 8f be
       0.017367372 0.010604748 -0.014118777 -0.27994242
000170 80 54 c0 3d 12 7b 22 be cb 53 9b bd 58 10 bd 3d
       0.09391117 -0.1586726 -0.075843416 0.09231633
000180 63 b0 d6 3c 31 a8 71 bd 78 f7 a6 3d e2 6d 02 3d
       0.026207155 -0.05899829 0.0815267 0.031843074
000190 50 ef f0 3c 24 9f fb bd 9f 43 19 bd ed e4 e3 3c
       0.029410988 -0.12286213 -0.037418004 0.027819121
0001a0 18 66 8f be e0 2a 86 3b ad a7 94 bd 7c 94 f0 bd
       -0.2800758 0.0040944666 -0.07258544 -0.11747071
0001b0 af db 8e be 47 06 35 3e 95 87 99 ba 30 ff d4 bd
       -0.2790198 0.17678176 -0.001171338 -0.10400236
0001c0 a1 72 bf bd ad 37 12 3e df 3e 67 bd c1 cc 66 be
       -0.093480356 0.14279051 -0.056456443 -0.22539045
0001d0 b9 a4 18 3d 9e ce 2a bd ef 31 b4 bd 6c 4c 58 3e
       0.037266467 -0.04170095 -0.087985866 0.21122903
0001e0 38 3f 68 bc fd 25 cb 3d 89 cb 58 3e a1 9f 81 3d
       -0.014175229 0.09919355 0.21171393 0.06329275
0001f0 c5 bb 06 be 66 76 45 bd f8 d3 19 3e 9b 74 78 bd
       -0.13157566 -0.048208617 0.15022266 -0.06065808
000200 1e 5f b6 bd 07 34 4f 3c ed 00 00 bc 1f d7 1d 3d
       -0.08904861 0.012646682 -0.007812721 0.038535234
000210 73 b4 8a bd eb e7 04 be 58 b7 de ba 12 03 a5 bd
       -0.06772699 -0.12979095 -0.0016991897 -0.08057226
000220 6a 13 31 be a2 cf a0 bd c5 36 e6 bb c2 0e 05 be
       -0.17292562 -0.07852103 -0.007025572 -0.12993911
000230 80 26 19 3d bd b8 f3 3d 60 85 80 3c 7c 7a e5 3d
       0.037390232 0.119004704 0.015688598 0.11205003
000240 7b 17 83 3c ef 0f 2e bd 2e 70 bd bd 73 b7 55 be
       0.016002407 -0.042495664 -0.09249912 -0.20870762
000250 e2 5a 6a 3d b3 4b 29 3e 4e a4 0c be e7 94 90 3e
       0.05721558 0.16532783 -0.13734552 0.28238603
000260 f1 b1 87 3d c7 af fb 3c c5 46 e4 bc a6 a7 56 bd
       0.066257365 0.030723466 -0.027865777 -0.052405976
000270 1d b8 5c 3e 35 e0 ab 3d 64 45 bb 3d 53 01 34 bd
       0.21554609 0.083923735 0.091440946 -0.043946575
000280 f3 e7 f3 3d 5f 8f 19 be bd 7d 08 be 10 d7 13 3e
       0.11909475 -0.14996098 -0.13329215 0.14437509
000290 6b 3f ad 3d 93 8c 2f bd 55 0b 6d 3e 9a 6d a3 bc
       0.08459362 -0.04285867 0.23148854 -0.019949723
0002a0 d9 bd 7b 3d 2b be b4 3d 1d d8 e4 3c 20 12 56 bc
       0.06146035 0.08825334 0.027935082 -0.013065845
0002b0 d7 76 0c 3e df 28 31 be b6 83 35 be 00 98 a3 3b
       0.13717209 -0.17300747 -0.17726025 0.004992485
0002c0 98 92 ea bb 36 b4 01 bd 03 47 08 3e b6 4f ac bd
       -0.0071585886 -0.031666003 0.13308339 -0.08413641
0002d0 c3 a0 04 be 2a fd 4e bc e9 fc 0e 3d f7 38 6d 3d
       -0.1295195 -0.012633601 0.034909163 0.057915654
0002e0 1e cd 96 3d 91 7a 26 bc 4c 8c 40 3e d7 94 ca bd
       0.07363342 -0.010161058 0.18803519 -0.0989167
0002f0 3e b0 22 be b6 6e f7 3c 56 39 4e 3e 19 f6 14 be
       -0.15887544 0.030204158 0.2013906 -0.14547004
000300 5a 40 b8 3d 4c 82 5e 3e 9c c5 b8 38 de 6f 5c 3d
       0.08996649 0.21729392 8.810611e-05 0.053817622
000310 b2 01 10 be 06 0f d0 bc 73 0a 1b 3d 71 79 0e 3c
       -0.14063147 -0.025397789 0.037851762 0.008695946
000320 4b ff 37 3e 3b 3e 96 3c 48 d4 96 3d 9c 84 ae bd
       0.1796848 0.01834022 0.07364708 -0.08521387
000330 3a 9b 02 be 8b d9 e2 3d 09 5a 28 3e de 46 04 3e
       -0.12754527 0.11076649 0.16440596 0.12917659
000340 0f 0c 0b bd 08 4f 3f bd 84 3a fd 3d e8 58 a0 bd
       -0.033947047 -0.04670623 0.123646766 -0.078294575
000350 3a 46 3e 3d 16 fa 0e be 7e f2 4e 3e f8 87 13 be
       0.046453692 -0.13962588 0.20209691 -0.14407337
000360 f1 f4 49 3e 80 a2 93 3d 99 79 1e 3e 15 ed 51 bd
       0.19722344 0.07208729 0.15476073 -0.05125149
000370 61 74 2e be 4a 7c b4 bc 4a 8d d2 bd 08 59 7e 3d
       -0.17036583 -0.022031922 -0.10280855 0.062096626
000380 9a 2c 22 3e 6f 1e a9 be 12 64 3e 3e 4a fc 7b 3d
       0.15837327 -0.3303103 0.18592861 0.0615199
000390 e0 01 6a bd 76 6a 19 3d a4 c2 7f 3d 57 bd 1d bc
       -0.057130694 0.037455045 0.062441483 -0.009627662
0003a0 a8 7b a3 3d e6 8c af bd 50 a6 d4 bc bb 97 c9 bd
       0.0798257 -0.08571796 -0.02595821 -0.098433934
0003b0 ec b2 d5 bc db 33 64 be 57 8f 37 3d f1 80 15 bd
       -0.026086293 -0.22285406 0.044814434 -0.03649992
0003c0 7b 8f 84 3d 4b fb 1c 3e 33 1f dc 3d 6f 0e ad bd
       0.06472679 0.15330236 0.10748138 -0.084500186
0003d0 09 de e0 3d e6 37 2c be dd e4 78 bd 78 a7 a7 bc
       0.1097985 -0.16818199 -0.060765136 -0.020465598
0003e0 56 5b 52 3d f3 51 38 3e f2 bc 89 3d 4b f6 74 3d
       0.051356636 0.18000011 0.067254916 0.059805196
0003f0 4c 8b e2 3d 2e f7 10 3c 51 0d c5 3d c5 c8 9a 3d
       0.11061725 0.008847995 0.096216805 0.07557825

e1.bias f4 [148]
000000 3e 09 9a bd ad de a6 bd 10 4d bf bd e6 58 8c bb
       -0.07521294 -0.08147941 -0.093408704 -0.0042830585
000010 69 13 25 bd b0 8e 44 bd 63 ca c0 bd eb 8f 08 ba
       -0.040301714 -0.04798764 -0.09413602 -0.0005209434
000020 af dc e1 bd ce 32 ac bd a1 76 da 3b 46 cb 8d bd
       -0.1102842 -0.08408128 0.0066669737 -0.06923537
000030 5b 50 93 bd e7 0d 7c bd fb 5d a4 bc 03 38 3d bd
       -0.07193061 -0.061536696 -0.020064345 -0.046195995
000040 82 86 1c bc 31 a0 4b bb d3 c9 5c bd aa 4d 73 bd
       -0.009553554 -0.0031070823 -0.053903412 -0.059400238
000050 60 3e b0 bd ee c2 3c bd 78 b9 5c bd fb 3f 84 bd
       -0.08605647 -0.046084337 -0.053887814 -0.06457516
000060 ac 7b b3 bd 60 58 46 bd 97 59 a6 3c 5b f0 bb bd
       -0.08763823 -0.048424125 0.020306392 -0.091767035
000070 a5 87 3c bd 86 fe 70 bd 58 7a 2e bd fa 94 8f bd
       -0.0460278 -0.058836482 -0.042597145 -0.07010837
000080 f4 f8 87 bd f2 4f d9 bc 95 b1 00 bc be 9b 30 bd
       -0.06639281 -0.026527379 -0.007854839 -0.043117277
000090 2f cf 04 bb c6 a5 c5 bd 66 51 a0 bd e8 e6 ef bc
       -0.0020265093 -0.096507594 -0.078280255 -0.02928491
0000a0 ee c5 fb bc 6d 11 8e bc 7c 66 c2 bd 9b 8e 7f bd
       -0.030734029 -0.017342294 -0.094922036 -0.06239186
0000b0 e9 90 8c bb 87 69 4b bd 76 ce 34 bd c9 c3 c1 bc
       -0.0042897356 -0.049661186 -0.04414221 -0.023652928
0000c0 2a d8 37 bc 38 09 1c ba 2c 8a 0e bd e9 00 b7 bd
       -0.011220971 -0.00059523014 -0.03479974 -0.089357205
0000d0 c7 42 dc bd e7 b0 52 bd b0 d9 b0 bd eb 66 21 bd
       -0.10754924 -0.05143824 -0.086352706 -0.03940479
0000e0 1d d4 b5 bd 24 7c 4e bd 38 53 92 bd ea ff ec 3b
       -0.08878348 -0.05041136 -0.07144779 0.007232656
0000f0 dd 98 aa bc 56 b3 6a bd 16 bb d0 3b b5 16 85 bd
       -0.020824844 -0.057299934 0.0063699586 -0.06498472
000100 22 56 a8 bd 6f 6d 1e bd 40 1e 93 bd 32 2a be bd
       -0.082195535 -0.038678583 -0.07183504 -0.09285392
000110 df 74 86 bd 1d b9 df 3b 6d 28 97 bd 65 b2 8c bd
       -0.0656526 0.006827487 -0.073807575 -0.068699636
000120 ea c6 8e bd 35 11 aa bc 15 1f b6 bc f4 f0 8b bd
       -0.069715336 -0.020760158 -0.022231618 -0.068330675
000130 cb 54 9f bd 9a b9 8b bd 20 b3 2f bd 34 9b 98 bd
       -0.07779845 -0.0682251 -0.042895436 -0.07451478
000140 9b ea 79 bd 95 8e 1b bc 5b d7 4d 3b b1 41 a8 bd
       -0.061014753 -0.009494443 0.003140888 -0.08215655
000150 eb d5 53 bd 3d 4e 90 bd 14 37 93 bd 8b 2e 9c bc
       -0.05171768 -0.07046173 -0.0718824 -0.019065162
000160 d4 21 2a bd b7 e7 86 bd 16 88 cf bc 2e 5a 89 bd
       -0.041536167 -0.06587165 -0.025333446 -0.067066535
000170 25 51 9a bc 81 96 13 bd c1 55 ee bd 4e ce 2a bd
       -0.01883752 -0.036032204 -0.1163745 -0.041700654
000180 c9 56 1a bd 73 c9 92 bd 28 4c a6 bc 5f 64 e4 bc
       -0.03768042 -0.0716733 -0.020299986 -0.027879892
000190 ee 52 6b bd 16 70 ef bc 81 1b de bc 9a 0f 57 bd
       -0.057452135 -0.029228251 -0.027112724 -0.052505113
0001a0 f4 47 89 bc 16 05 cf bd 5e 7c b1 bd cf a7 1e bd
       -0.016757943 -0.10108392 -0.08666299 -0.038734253
0001b0 47 25 11 bd 70 09 ec bc b6 82 71 bd d4 ab 2c bd
       -0.03543594 -0.028813094 -0.058962546 -0.042156056
0001c0 dc 51 60 3c 84 72 69 bd 5c 8c 3f bd af 9f 8c bc
       0.013691392 -0.056993976 -0.046764717 -0.017165987
0001d0 14 bf 62 bd 0d b3 3c bd d1 b6 b8 bd 96 7b b0 bd
       -0.055358008 -0.046069194 -0.090192445 -0.08617322
0001e0 d0 58 98 bd 7b 31 2f bd 95 72 97 bd 3b b8 89 bc
       -0.07438815 -0.042771798 -0.07394902 -0.01681148
0001f0 13 c9 aa bc a6 a4 b7 bc a2 67 65 bd f1 4f 92 bc
       -0.020847833 -0.022417378 -0.056007035 -0.017860385
000200 c9 ad 88 bd 5a 7b 25 bd da d9 1e bd 27 21 fc bc
       -0.06673772 -0.04040084 -0.03878198 -0.030777527
000210 ea 95 81 bd 72 29 50 bd f9 e6 ab bd dd 8c ac bc
       -0.06327422 -0.050820775 -0.08393664 -0.021063263
000220 a3 67 77 ba 9c d6 85 bd 86 8d 87 bd 2f 11 93 bd
       -0.00094377453 -0.06535074 -0.0661879 -0.07181012
000230 31 a8 83 bd 8c 6a 44 3c cc 71 06 bd 99 fa 3d bc
       -0.06428564 0.011988293 -0.03282337 -0.011595392
000240 29 fb 96 bd 78 cf de bc 8e c2 fe bb c9 dc 26 bd
       -0.07372124 -0.027198538 -0.0077746576 -0.0407379

e2.weight f4 [21, 148]
000000 b4 6c 3d bc 61 7d 86 3b 6a 23 b4 bb 87 cd 3f bb
       -0.011561561 0.004104302 -0.0054973857 -0.002926679
000010 6c 23 1a bc c6 2f 05 bc 6d 15 2d 3b d6 da e9 bb
       -0.009407859 -0.008129066 0.0026410476 -0.007136683
000020 be 86 5e ba 29 6c 4a ba 86 56 b2 bb 83 d5 62 3c
       -0.0008488706 -0.00077218056 -0.0054424433 0.0138448505
000030 46 f6 f3 bb c2 38 c8 ba 86 52 ad bb 16 12 45 bb
       -0.0074451296 -0.0015275704 -0.0052893786 -0.0030070595
000040 3b e5 00 3b c0 0f 83 3c 2d 0a 1e bb 4e 00 9b ba
       0.0019667882 0.015998721 -0.0024114952 -0.0011825652
000050 17 06 48 3b 72 61 2e 3c 66 4b 90 bb a4 33 95 bb
       0.0030521208 0.01064335 -0.0044035194 -0.004553275
000060 f9 4c c5 bb 1c 51 0a bb ae cb 1f 3c e9 06 97 bb
       -0.0060211387 -0.0021105474 0.009753151 -0.004608978
000070 95 bf ff 3a e1 ad dc 3b 2a 8d 80 3c 4d 33 c7 bb
       0.0019512052 0.006734595 0.015692312 -0.0060791136
000080 c2 a0 1d bb 20 82 9b 3c 35 ec a2 3c 37 28 9c b9
       -0.0024052118 0.018982947 0.019888023 -0.000297846
000090 79 7b 16 bc d6 82 a7 bb 57 b6 09 bc 21 77 6d 3c
       -0.009184712 -0.0051120324 -0.00840529 0.014493735
0000a0 0d e1 92 3b b9 c4 7c bb f4 cd a8 3b 0e f5 d3 ba
       0.0044823945 -0.0038569404 0.0051515047 -0.0016171054
0000b0 15 94 02 bb 62 fb 3a bb b3 5e cd bb 68 03 19 bb
       -0.001992469 -0.0028531183 -0.0062673925 -0.0023347978
0000c0 4f c4 ca 3a ed 65 40 3b d7 53 fe bb 8d 86 55 3c
       0.0015469881 0.0029357627 -0.0077614593 0.013032568
0000d0 0b ac c2 ba 6d e6 34 3b 13 cc c4 3b a5 18 ad bb
       -0.0014852298 0.0027603165 0.006005773 -0.005282479
0000e0 1a 02 09 bb e1 97 2c 3b e5 4f d8 3b bb c3 8a 3b
       -0.0020905794 0.0026335644 0.006601321 0.0042347587
0000f0 4b 81 8f 3c 71 61 31 bc 14 e1 46 3c a9 52 7a bb
       0.017517706 -0.0108264545 0.012138624 -0.0038196242
000100 1e a5 b6 3b 17 ec 7c ba a7 45 9c 3a fa 47 09 bc
       0.0055738827 -0.0009648217 0.0011922613 -0.008378977
000110 6f c3 8c bb 15 2f 99 bb d7 84 17 3c 33 ab 2e bc
       -0.0042957584 -0.004674802 0.00924798 -0.010660934
000120 1f c5 de b9 4c 4d 99 3b 64 c1 a8 bb bd b4 15 3c
       -0.00042490006 0.004678404 -0.005150007 0.00913733
000130 fc ab 15 3a 71 b2 9c 3c ca 1d 4e bb ae 69 bd bb
       0.00057095266 0.019128056 -0.003145086 -0.0057804203
000140 6f 46 b0 bb 5d c3 2d 3b 5c fb 03 bc cf 39 34 bb
       -0.00537949 0.002651415 -0.008055534 -0.0027500277
000150 10 47 1d bc ae a1 17 3c 6b cd 0a ba bb 4f a8 3b
       -0.009599462 0.009254856 -0.0005294892 0.0051364577
000160 ec 59 1c 37 b2 9e 9b 3c 5c ec 4c 3b 80 f7 9a 3b
       9.319261e-06 0.01899657 0.003126881 0.0047292113
000170 a0 e5 20 3b 3c f9 9e bb f6 f9 46 bb 72 93 fe bb
       0.002455093 -0.0048514884 -0.003036139 -0.0077690417
000180 7c ca 2f bc 6e 95 12 bb f3 92 90 bb 18 37 0b 3c
       -0.010729428 -0.00223669 -0.004412049 0.008497022
000190 e1 3b 3b 3c a3 9d 9c 3b 85 f2 27 3a b8 51 ca 3a
       0.01142785 0.004779534 0.00064066827 0.0015435731
0001a0 d0 74 11 3b 16 a2 ab bb 19 e3 e4 bb 0a 2a 47 3b
       0.002219487 -0.005237828 -0.00698508 0.0030390047
0001b0 0d 20 b7 3b c7 02 9b 3c 64 50 af 3b 5e 53 3e bc
       0.0055885375 0.018922223 0.0053501595 -0.011616556
0001c0 ec 8f a9 bb 68 e4 c6 bb 3f db 5a bb 28 ea 78 ba
       -0.0051746275 -0.0060697086 -0.003339484 -0.0009495341
0001d0 fd 0c c5 b8 23 b8 0e ba 30 d5 bb ba 89 c2 8d 3c
       -9.396111e-05 -0.00054443086 -0.0014330503 0.017304676
0001e0 43 3d a8 3c 2b 5f b4 39 7b e1 73 bb 8e 0c c0 ba
       0.020537024 0.0003440318 -0.0037213254 -0.0014652179
0001f0 75 03 19 bc 43 3b 6a ba 81 eb 6e bb 42 24 fd 3b
       -0.009339203 -0.0008935222 -0.003645629 0.0077252695
000200 33 e1 6e bb 10 48 ef bb 3d b1 90 3a d0 ab 98 3b
       -0.0036450147 -0.0073022917 0.0011039149 0.0046591535
000210 e6 58 b1 3b 48 f0 05 bc ee df 65 bb 3a d0 3c bb
       0.005412209 -0.008174963 -0.00350761 -0.0028810636
000220 10 9e 01 bb 5b 13 cc 3b 93 fd 9b 3c df ba c2 3b
       -0.001977805 0.0062278933 0.019041812 0.005942687
000230 ad 5b 24 3c 9d d4 e3 ba 7a 21 10 bb ec 1b 3d bc
       0.010031623 -0.0017382089 -0.002199261 -0.011542302
000240 f4 2d 07 39 2e 23 e3 3b e7 4b 29 bc 0d f3 d2 3b
       0.00012891722 0.006931684 -0.010333038 0.0064376653
000250 93 e1 55 3c 79 ea c7 bb d0 99 27 3c c7 b1 ec 3a
       0.013054269 -0.0061009494 0.010229543 0.0018058353
000260 a8 b2 da 3b 4c 8a 17 3c 72 f6 a3 bb 7a fa 12 3c
       0.0066741295 0.009249281 -0.005003744 0.008970851
000270 4d 68 db 3b ef e1 c2 39 35 0b 64 3b e4 57 6c bc
       0.006695783 0.00037170897 0.003479672 -0.014425252
000280 7a 8c db 3b ed 24 e0 3a 1b 4a 82 3b 34 e4 04 3b
       0.0067000957 0.0017100848 0.003976119 0.0020277621
000290 7c 38 dc ba ff 91 78 bc 7b ed a8 ba 8f 24 1b 39
       -0.0016801502 -0.015171527 -0.0012888158 0.00014795571
0002a0 98 f7 a8 3b d4 d5 55 bc de 9d e7 3a 80 63 a6 3b
       0.0051564686 -0.013051469 0.001767095 0.0050777793
0002b0 5b 34 9c 3b 11 00 ce 39 5b 7c 61 bc 26 0f ff 3a
       0.0047669834 0.0003929143 -0.013762559 0.0019459471
0002c0 0e 1f 10 bb 1e 8e c3 bb 01 a9 85 bc 8f f2 b3 3b
       -0.0021991166 -0.0059678694 -0.016315939 0.0054915617
0002d0 52 26 f3 3b 3b 76 96 bc 22 32 a8 bc 2d b8 77 3b
       0.0074203396 -0.018366924 -0.020531718 0.0037798986
0002e0 3e 6b e5 3b b1 f4 bc 3b 5c 39 f5 3b 50 58 7d bc
       0.0070013097 0.005766474 0.0074836444 -0.01546295
0002f0 0f 42 55 bb ae 56 26 3a 1f 33 51 bb 94 83 81 b8
       -0.0032540595 0.0006345314 -0.003192134 -6.175708e-05
000300 cc c8 0e 3b 1e b8 3e 3b 28 ca a4 3b 63 cb 5c 3b
       0.0021787165 0.0029101442 0.0050289817 0.0033690564
000310 6f a7 8f 3a 55 4e 3a bb db d0 1e 3c 49 d9 74 bc
       0.0010959933 -0.0028428037 0.00969335 -0.014944383
000320 c8 fd a3 3a e2 2f f8 b9 8a 70 ce bb 31 18 15 3c
       0.0012511546 -0.00047337922 -0.006300037 0.009100006
000330 e9 ef 92 3b 75 5a e9 ba d7 98 bd bb 41 21 3a bb
       0.004484166 -0.0017803448 -0.005786042 -0.0028401169
000340 81 f9 90 bc 3d 56 86 3c 77 35 4f bc 2e 00 3b 3b
       -0.017697098 0.016398543 -0.012647024 0.0028534043
000350 4d 80 09 bc 32 53 db 39 90 e1 14 bb 05 24 ec 3b
       -0.008392406 0.0004183292 -0.0022717454 0.0072064423
000360 e3 cb 73 3b 3b 35 f0 39 43 f1 09 bc 52 49 a5 3b
       0.0037200383 0.00045816027 -0.008419338 0.005044141
000370 da 37 2e 3b 2e 2c cb bb 9c c1 0a 3b 89 85 fe bb
       0.0026583583 -0.006200335 0.002117253 -0.0077673835
000380 9c c6 bd 39 12 71 95 bc 02 37 0f 3c e5 da 8a 3b
       0.00036196865 -0.018242393 0.008741142 0.00423752
000390 21 8c 90 3b 6b 02 15 3b 7e f4 66 3b 07 d0 9b 3b
       0.004411236 0.0022737037 0.0035240944 0.0047550234
0003a0 0c ea 80 3c da 39 07 bc 70 2e a8 3b 6e c7 0f bb
       0.015736602 -0.008253539 0.005132489 -0.0021938938
0003b0 14 c2 e2 3a 3c 5b 9e bc b2 7b d1 ba 96 f5 01 bb
       0.0017300271 -0.019330613 -0.0015982299 -0.0019830219
0003c0 6c 94 7a bb 70 4f 21 3b e5 96 27 3b 79 11 a3 3b
       -0.003823544 0.0024613999 0.0025572118 0.004976448
0003d0 89 d5 16 3c d5 3e 56 3b 51 8b 96 3b 69 54 1d bc
       0.009206184 0.003269126 0.0045942445 -0.0096026445
0003e0 6a fc 26 bc a3 fd 77 bb c8 58 83 b8 b1 a9 8a 3b
       -0.010192016 -0.0037840388 -6.2631036e-05 0.0042316546
0003f0 7c fc a4 bb d9 18 ca 3b 64 e6 8e 3b df 9e 96 bb
       -0.0050349813 0.006167513 0.004360961 -0.0045965756

e2.bias f4 [21]
000000 18 01 8d bb e4 70 80 3b ba 2f c9 b9 ef d8 a3 3b
       -0.004303109 0.0039197076 -0.00038373267 0.0050002257
000010 4a b0 98 bb cc 2c e9 bb 27 57 36 ba 78 04 02 ba
       -0.004659687 -0.007115936 -0.0006955736 -0.00049597723
000020 ea fd 2c bb 78 8b 12 b9 63 6e 0a ba 07 ed 97 bb
       -0.0026396462 -0.00013975601 -0.0005280731 -0.00463641
000030 0b c7 13 3b 28 5d f1 39 5c 0b 99 bb 1f c4 9e 3b
       0.0022549059 0.0004603651 -0.0046705436 0.004845157
000040 81 e5 ec 3a 6f e2 78 ba e4 d3 a3 3b 01 ea 78 38
       0.0018073769 -0.00094941905 0.0049996246 5.934574e-05
000050 e5 7f af 3b
       0.0053558224
